models/aug_bg_33_notr_0epoch_1.916loss_0.866acc.pt (torch, 863078 bytes, 24 tensors)

features.Conv2D_0.weight f4 [32, 1, 3, 3]
00000000: 33bd 4bbc ff22 3abe 619a 6a3d 9fc9 7e3e
00000010: cc36 563e b4e3 d53d f051 91be 3c87 973e
00000020: 5db0 39be cd56 c73d 3f80 983e 909a 2fbd
00000030: 33ef 403e c818 be3d b890 babd 2b53 593d
00000040: a77f c0bd b251 ce3d 46de a93e 1cb8 a23e
00000050: db4a e53c 047a a7be 12eb 69be 6c2f 6b3e
00000060: 0bd2 3bbe 3675 5fbb 37dc 193e 7f87 14be
00000070: 0c42 8bbe fc03 a23b 3410 3dbe a781 5a3d
00000080: 4458 223d d23b 193d f1d2 a2be 79f5 e33d
00000090: 061b 173d c317 04bd d7e9 10bd b4d4 073e
000000a0: 57a7 893e cd88 e03c 68c1 f5bd 1793 8ebe
000000b0: 2868 32bd b448 2abe 49d4 3cbd 3d70 0b3d
000000c0: f20a 573e ac6b e63d 77ba 2abe c911 083e
000000d0: 202e 223e dc29 8e3e e15b a73e d93e d73d
000000e0: 3b8b d7bd cc4d 673e c2a5 debc ba57 05be
000000f0: a41d f13d d139 313d bc93 a63e 055d a53e
00000100: 6cde 263c 354b 5b3e 39cd 6b3e 1be7 c1bd
00000110: 0038 ce3c fd72 95be d711 56bd 4a48 0fbe
00000120: fb41 70bd bc6f 85be d902 1d3d bd67 da3c
00000130: 0125 15be ceb8 293e 1a28 663e 490f 0d3d
00000140: 8cfe 8abe 4e14 94bd cfc9 5f3e ad7a 69be
00000150: 4adf 61bd a6be 443e 3138 6c3e 69d2 d83d
00000160: b6b5 2fbe 1741 e33d 5aa4 84bc d741 bc3d
00000170: 507c 0d3e 35b8 a23e e455 84be 5d3a a93e
00000180: 050f 14be b480 a5be 5081 a83e 6484 853e
00000190: 1dba cb3d 9f76 12be 0860 8b3e 664a 4b3e
000001a0: f862 dbba 346d 8a3e 5230 713c 609e 623e
000001b0: 43e6 533e c7c4 27be 81ca da3b 0b51 d23c
000001c0: 4542 33be a73e 9a3e 595c 303d 01d0 e6bd
000001d0: 8ff1 70be db56 dcbd baef a53e 4abe 88be
000001e0: 159f 9fbe bb7d 95be cea1 383e 5e6f e3bd
000001f0: 8750 9abe 8584 2d3e 7a86 58be b0a1 4d3e
00000200: 6e3d f13d 8c1a 8d3e d143 933e 3993 7cbe
00000210: 7b64 f83d 4d71 24be 921e 723e 5e20 9dbe
00000220: 6bc0 c2bd 28a2 94be b057 97be 27ed f13d
00000230: 88a0 80bc 8911 9f3d 1138 263e ce13 84bc
00000240: db3f 40be 5bca 043e 68cb 853d f285 933e
00000250: 76e0 64be 7d71 92be 3495 59be 9df1 33be
00000260: 25dd 513e 50d3 b23d 09d0 083e 7f1f c33d
00000270: 579b 8cbe 3279 f6bc 16a0 0e3e 247f 70be
00000280: e406 8fbe c522 5ebc 82fa 913e ecf8 6b3d
00000290: 849a 833e ebed 18be 8a9e 923d 0844 63be
000002a0: 9d41 513e 7570 38be 4f15 88be 64cf 063d
000002b0: 14e0 4a3e 1269 88be cebc 133e 29a7 97be
000002c0: a7e5 3c3e 1dee 043e 8b80 66bd cbe3 6a3e
000002d0: e001 093e 95d8 a2be 55ec 31be ae96 5f3e
000002e0: c5f3 433e e589 13bd d485 b5bd 4b8e 713e
000002f0: 14dd a83e 9b92 453e d9b5 833b ad51 a3ba
00000300: ebb8 cabc 1b1b 2b3d ee96 443e 0ed5 5cbe
00000310: 2091 6abe 6a38 963e 5660 9bbe 85fe 04bc
00000320: 75ed 653e e28f 913d 0b96 56be 539f 24be
00000330: 7f98 01bc 8609 0bbe 0c08 043d 421c dfbd
00000340: 7b1b 78bd e221 113e 56ef 70be a2c5 9abe
00000350: 3114 f5bd 2006 25be 4cac f63d b090 7cbe
00000360: 0c07 d5bd 0e78 53be a021 55bb 9b28 843e
00000370: eba7 f7bd bb1d 8dbe 1f7e 10be 7ae7 553e
00000380: f8af 2f3e 77a6 adbd 6f20 d1bd 97bb 203e
00000390: 184c a5be 6041 16be 5294 2dbd a2d7 6bbe
000003a0: c1f6 b3bc 7b80 d13c 2f71 ff3d 6afc 77bb
000003b0: a069 70be 5680 9b3e 5875 a7bd 889d dabd
000003c0: b2bf 32bc f1e7 a6bd 415e 8e3e f4fc 90be
000003d0: cf70 143c 49be 04be 5c72 0fbe f975 f8bd
000003e0: 0b40 663e 99ee a4be 1713 e0bd b429 eabd
000003f0: 4080 7fbe 2c08 2bbd 13eb 65be 08e3 cdbd
-0.012435245 -0.18177412 0.057276133 0.248816 0.20919341 0.104438215 -0.28382826 0.29595363
-0.18133684 0.09733353 0.29785344 -0.04287201 0.18841247 0.092820704 -0.09109634 0.05305783
-0.09399348 0.10074176 0.33177394 0.3178109 0.027989795 -0.32710278 -0.22843578 0.22967309
-0.18341844 -0.0034096963 0.15025412 -0.14504813 -0.27198827 0.0049443226 -0.18463212 0.053346302
0.039634958 0.037410565 -0.3180156 0.111308046 0.036891006 -0.032249223 -0.035379257 0.13264734
0.26885483 0.027408982 -0.1199978 -0.27846596 -0.043556362 -0.16629297 -0.04610089 0.034042586
0.21000269 0.112510055 -0.16672693 0.13288034 0.15837908 0.2776631 0.32687286 0.10510034
-0.10524603 0.22588271 -0.027178649 -0.13021746 0.117732316 0.04326803 0.32534587 0.3229753
0.010184865 0.21415408 0.23027505 -0.09467908 0.025173187 -0.29189292 -0.052263107 -0.1399242
-0.058656674 -0.2606181 0.038332794 0.026660794 -0.14564897 0.16574404 0.22476235 0.034438405
-0.2714733 -0.07230435 0.21854328 -0.22800703 -0.055144586 0.19213352 0.2306831 0.105870076
-0.17159161 0.11096399 -0.01619165 0.091922455 0.13816953 0.31781164 -0.2584678 0.3305234
-0.14458854 -0.32324755 0.32911158 0.2607757 0.09947608 -0.14303063 0.27221704 0.198526
-0.0016737869 0.2703644 0.014720993 0.22130728 0.20693307 -0.16383658 0.0066769724 0.02567341
-0.17505749 0.30125925 0.04305682 -0.11270142 -0.23529647 -0.10758754 0.3240946 -0.2670768
-0.31176057 -0.29197487 0.18030474 -0.11105226 -0.30139562 0.16945083 -0.21145049 0.2008121
0.11779295 0.27559316 0.28762677 -0.24665536 0.1212854 -0.16058846 0.23644474 -0.30688757
-0.09509357 -0.29029965 -0.29559088 0.11812811 -0.015701547 0.077670164 0.16232325 -0.016122725
-0.18774359 0.12967817 0.06532937 0.2881313 -0.2235125 -0.2860221 -0.21248323 -0.17572637
0.20494516 0.08731711 0.13360609 0.09527492 -0.27462265 -0.030087087 0.13928255 -0.23486
-0.27934945 -0.013558094 0.28511435 0.057610437 0.25703824 -0.14934509 0.07159145 -0.2219392
0.20435186 -0.18011649 -0.26578757 0.032912627 0.19812042 -0.26642662 0.14427492 -0.2961972
0.1844698 0.12981458 -0.056274932 0.22938459 0.13379622 -0.31805864 -0.1737531 0.21834823
0.1913596 -0.03602018 -0.08863416 0.23589437 0.3298117 0.19294207 0.0040194807 -0.0012460254
-0.024746379 0.041773897 0.191982 -0.21565649 -0.22906923 0.29339916 -0.30346936 -0.008117323
0.22453864 0.071075216 -0.20955674 -0.16076402 -0.007909893 -0.13577852 0.032234237 -0.108940616
-0.060573082 0.14173082 -0.235288 -0.30228907 -0.11966742 -0.16115618 0.12044582 -0.24664569
-0.10401735 -0.20651266 -0.0032521263 0.2581223 -0.12092575 -0.27561745 -0.14110611 0.20889083
0.1715697 -0.08479016 -0.10211264 0.1569656 -0.32284617 -0.14673376 -0.042377777 -0.23031476
-0.021968247 0.02557396 0.1247276 -0.003783966 -0.23477793 0.3037135 -0.081766784 -0.10674578
-0.010909962 -0.08149708 0.27806285 -0.28317988 0.009060099 -0.12963213 -0.14008468 -0.121318765
0.22485368 -0.32213286 -0.10941141 -0.114337355 -0.24951267 -0.04175584 -0.22452955 -0.100530684

features.Conv2D_0.bias f4 [32]
00000000: dd5b 97bd 3661 4ebe 08e4 56be 51c4 69be
00000010: 240c 85be b58b 69be 4ced eb3d 0afb f63d
00000020: 96c8 243e c130 55be 923c d83d 6ca8 45bd
00000030: e700 293e 2654 8e3e c978 743e 1c88 dbbc
00000040: 1697 6b3e b1dc a93e b8ba 02be 9c92 43bc
00000050: 3b2c 33be 63a1 99be a891 583e b49c 94bd
00000060: 1428 81be 506a 373d b51f 80be 3954 40be
00000070: 9f17 13be 4393 853e 4ab2 a73e 6f56 713e
-0.073905684 -0.2015427 -0.20985425 -0.22828795 -0.25985825 -0.228072 0.1151987 0.12059601
0.16092142 -0.2081938 0.10558428 -0.048256323 0.1650425 0.27798575 0.23874201 -0.0267983
0.23006853 0.33176187 -0.1276654 -0.01193681 -0.17497341 -0.3000594 0.21149313 -0.07256451
-0.2522589 0.044779122 -0.2502419 -0.18782128 -0.1436448 0.26088914 0.3275321 0.23568128

features.Conv2D_1.weight f4 [32, 32, 3, 3]
00000000: ccb4 abbc d4e9 29bd 8be8 1ebd 86d2 93bc
00000010: 9221 2bbc 3ce5 713b 1811 41bc 61ee ed3c
00000020: 9002 943c e66c 3d3d 246d 1ebd b244 6bbd
00000030: 27fe 5039 3df1 4dbd 01b3 c3bc 5815 81bc
00000040: 5edc 5cbd 18a6 8a3c fb60 ec3c 2df1 383d
00000050: 906e 77bd 8d69 6c3b 8261 3dbd c1d0 773b
00000060: c652 07bd 3d4c 5fbc 31be b1bc 3167 513d
00000070: d434 193d 2b9d 213d 2377 55bc 7ff3 3abd
00000080: bbb9 9a3b 6a23 eebc c39f c93c 6276 303b
00000090: a41c 03bd 82b9 8fbc e2c3 a03c 56db 81bc
000000a0: bace 5bbd 3ad0 69bc dfe6 3bbd 4fc6 5cbd
000000b0: a998 18bd 6594 4e3d 7953 633c eac4 a83c
000000c0: 8c2d 10bd cbc0 6d3d d091 683d 1531 3b3c
000000d0: 0a15 c43b 876a 36bd aca0 14bd 2284 2e3d
000000e0: ceb3 71bc 1912 f63b 8da4 17bd a3e5 af3c
000000f0: 53d2 1dbd 5422 f93c a80c 0bbd 41ce 7cba
00000100: 0d13 1bbd 5c2a c5b9 934f cc3c 57f8 50b9
00000110: 9681 49bd eefc 20bd b71d 6e3d f873 a73c
00000120: 4221 dbbc 4cd7 52bb 262b 4dbd d955 3fbb
00000130: c597 7aba eb73 7abc 8c8a 38ba 1d0f 173d
00000140: 31a7 f1bc 8bd8 513d 8ff9 503d 9223 173d
00000150: 1730 f3ba c4cb 06bc a60a 143d d1bf e1bc
00000160: 3561 e03c 060a 0c3c 8cf2 083c 9cf0 2cbd
00000170: 0b04 de3c 7408 683d b8ba 00bd 2d4d 4a3c
00000180: ecef 353c e005 353d de8e d83c 44ff d03c
00000190: ea63 023d 2287 5e3d 604d 4abc ef63 babc
000001a0: 233a 8dbb c72a c4bc efbe fcbc 952e 113d
000001b0: 629f 543d 7363 d0bc 72ce 66bc 28aa 85bb
000001c0: 2a54 aabc 2e97 dc3c 71fe 70bc ee1f fbbb
000001d0: c3ea 3e3d 1718 533d 2e93 5f3a bea9 8cbc
000001e0: 3549 bd3c eb67 5fbd efb6 38bd 6bf3 5b3d
000001f0: 81d5 3bbd 0e00 1b3c 5962 6abd f861 2c3b
00000200: 0ef3 a53c a2dd 1a3d 662d 5cbd 1e2c 953b
00000210: 2997 13bd 0686 f8bb dceb 353d 919b 0cbd
00000220: 53d1 68bc 8a4b 5f3d d9bc 2f3d 75c3 063d
00000230: 0a92 3fbd cbdd 4a3d 7c9f 38bd ec26 40bd
00000240: 2053 66bd 9037 96bc 0f23 4ebd 297a 4a3d
00000250: 6cdb a93c 55fd 64bd 3884 9638 456a 6bbd
00000260: 6be3 36bd fae2 513c 51bf ef3c 41d4 d73c
00000270: f5ce 31bd 31d0 fabc 53a4 41bc 7729 07bd
00000280: f53b 3e39 aa0d c43b 222e 28bd be40 0f3d
00000290: 40a1 d2bc e60a 2bbd 84a6 dbbb 113c 503d
000002a0: 0f98 a4bc 8251 f4bb a55b fc3c c6a3 263d
000002b0: 3004 153b 39bf 4cbd e15d 713d f071 36bc
000002c0: 1d17 d63b fcb0 5dbd 89e2 19bd 9c08 023d
000002d0: 498a 08bd 28c9 203d 2fb4 c43c 467d 7fbc
000002e0: 858d 213c c15e 533d 5bcf 6cbd 0b69 4f3c
000002f0: 630f 483d 530d 653d 2155 a23c 6873 30bd
00000300: af87 163d 91a4 1dbc 1f03 5a3d eb94 443d
00000310: 7f45 ae3c 5295 73bc 686a e53c 45bd 6b3d
00000320: d9ad ce3b bd72 6e3d d890 033d a04f 883c
00000330: 7d91 563d ae25 c73b afef 3abd b975 cabc
00000340: 37fd 37bc d4b5 cdbc 9854 06bb a050 5cbd
00000350: 14fd 5abc 54d7 c3bc 5353 82bc ef49 a23c
00000360: b62d 49bd 683c 1ebc e669 0fbc e523 3abd
00000370: e11c 0abd 3f74 863c e177 5fba 1d55 40bd
00000380: 27c7 40bc 4c80 833c d7fd c03c aab7 d73b
00000390: 05c7 2e3d 1f2f c53c 9bef 5c3d 512d 0e3d
000003a0: 6db4 793c f08e 5b3b ebff 233d 18ba bcbc
000003b0: 1ffa 84bc 8138 3bbd 4c0b d2bb 8924 043d
000003c0: f101 5cbd 08bf a23c 4a7f 40bb cb60 9abc
000003d0: 99a7 15bd b948 99bc 4e61 1d3d f85a 583c
000003e0: f33d 32bd 4c8f 953c 5db5 3e3c 54d8 1d3d
000003f0: 7c46 48bd 0493 efbb e922 aa3c 01a2 06bd
-0.020960234 -0.04148276 -0.03879599 -0.018044721 -0.0104450155 0.0036910316 -0.011783861 0.029044332
0.018067628 0.04624643 -0.038678303 -0.05743856 0.00019931105 -0.05027889 -0.023889067 -0.015757248
-0.053921096 0.016924903 0.028854838 0.04515188 -0.060408175 0.0036073655 -0.04623557 0.0037813636
-0.033037923 -0.0136290165 -0.021697136 0.0511238 0.037403896 0.039456528 -0.013028893 -0.045642372
0.004721848 -0.029069621 0.024612313 0.002692603 -0.032009736 -0.017544512 0.019624654 -0.015851658
-0.053663947 -0.0142708365 -0.045874473 -0.05390006 -0.037254963 0.05043449 0.013874882 0.020601708
-0.035199687 0.05804519 0.056779683 0.011425276 0.0059839534 -0.044535186 -0.03628604 0.04260648
-0.014752341 0.0075094816 -0.037022162 0.021471804 -0.03853066 0.030411877 -0.033947617 -0.00096437713
-0.037859965 -0.00037606328 0.024940288 -0.0001992894 -0.04919585 -0.039303713 0.058133807 0.02044104
-0.026749257 -0.0032171784 -0.050089978 -0.0029195456 -0.00095593586 -0.015286426 -0.0007039688 0.036879648
-0.029498668 0.051231902 0.051019248 0.036899157 -0.0018553761 -0.008227292 0.036142968 -0.027557286
0.027390102 0.008547312 0.008358609 -0.04222165 0.027101537 0.056648687 -0.03142807 0.012347502
0.011104565 0.044195056 0.026435312 0.025512345 0.031833567 0.05432809 -0.012347549 -0.02275273
-0.004309909 -0.02394618 -0.030852763 0.035444815 0.05190981 -0.025438046 -0.014087306 -0.004079122
-0.020792086 0.026927557 -0.014709101 -0.0076637184 0.046610605 0.051536646 0.00085287064 -0.017170783
0.023106197 -0.054542463 -0.045096334 0.05369894 -0.04585791 0.009460462 -0.057222698 0.002630351
0.0202575 0.03780902 -0.053754233 0.0045523783 -0.03603283 -0.007584336 0.044414386 -0.034328047
-0.014210063 0.0545154 0.04290471 0.032901246 -0.046770133 0.049527925 -0.04507397 -0.04691212
-0.056231618 -0.018337041 -0.050326403 0.049432907 0.020734511 -0.05590566 7.177185e-05 -0.057474393
-0.044650476 0.012810463 0.029266031 0.026346328 -0.04341026 -0.030616852 -0.011818963 -0.03299853
0.00018142148 0.005983074 -0.04105962 0.034973852 -0.025711656 -0.04175844 -0.0067032 0.050838534
-0.020092038 -0.0074560056 0.030805418 0.04068353 0.0022738092 -0.04998705 0.05892742 -0.011135563
0.006533517 -0.054123864 -0.037569556 0.03174649 -0.033335004 0.039254338 0.0240117 -0.015593832
0.009860401 0.051604036 -0.057814937 0.012659322 0.0488428 0.05592091 0.019815983 -0.04307881
0.03675049 -0.009621755 0.053225633 0.04799358 0.021273373 -0.014867144 0.02800484 0.05755355
0.0063073453 0.05821489 0.032120556 0.01663953 0.052384842 0.00607749 -0.045638736 -0.024714338
-0.011229805 -0.025111116 -0.00204972 -0.053787827 -0.013366003 -0.023906387 -0.015908873 0.019810645
-0.04911586 -0.009657957 -0.0087532755 -0.045444388 -0.033718947 0.016412852 -0.0008524638 -0.04695617
-0.011766232 0.016052388 0.02355854 0.0065831738 0.04267027 0.02407032 0.053939443 0.034711186
0.015240771 0.0033501945 0.040038984 -0.023037955 -0.016232548 -0.045708183 -0.006410038 0.032261405
-0.05371279 0.019866481 -0.0029372745 -0.018844983 -0.036536787 -0.018711435 0.038422875 0.013205282
-0.04351611 0.018256806 0.01163992 0.038536385 -0.048895344 -0.007311227 0.0207686 -0.032869343

features.Conv2D_1.bias f4 [32]
00000000: 195e 9d3c a0fa b33c cc4b 253d 6ab2 68bd
00000010: 9948 453c 4787 543c 5688 523d 0238 d5bc
00000020: 5e39 463d a55c 403d 5f9c b63c 54f8 2e3d
00000030: 6805 8fbc 2174 06bd 71fb 9b3a 3525 6cbd
00000040: f8b5 993c af57 f33a 4ba0 1ebd 5037 0e3d
00000050: 43c0 14bd 9328 d93b 86e2 d03c a794 d63c
00000060: 6035 9abc 2884 72bc f428 1d3d c910 4d3d
00000070: 7c60 713d 719c 88bc 3b05 57bd 99a9 1ebd
0.019209908 0.021970093 0.04035549 -0.056810774 0.012041234 0.012971706 0.05139955 -0.026027683
0.048394553 0.046963353 0.02229136 0.042717293 -0.017458633 -0.032825593 0.0011900497 -0.05765267
0.018763527 0.001856556 -0.038727086 0.03472072 -0.036316168 0.0066271513 0.02549864 0.02619393
-0.01882428 -0.014802016 0.038369134 0.050064836 0.058929905 -0.01667616 -0.052495223 -0.03873596

features.Conv2D_3.weight f4 [32, 32, 3, 3]
00000000: 833f 54bd de12 8e3b c407 46b9 a6bf 61bc
00000010: 8dcc d1bc 0a16 f7bb 3df5 8abb 9e51 203d
00000020: 9a56 d23c 9f19 1ebd abd3 163d 71ae 38bd
00000030: 285f c4bc 3ce0 3d3d 3ff1 bebc 357b cb3b
00000040: c2d4 ef3b 64cb 6ebd 7d8d 2a3c 51b3 8fbc
00000050: 6e8c bf3c 3787 fdbc 75f3 9fbc 78f7 2a3d
00000060: 54d1 9a3c f7e1 903c e357 953c 81e2 56bc
00000070: 5598 22bc 0cf0 ffbc 60d0 a6bc 2932 48bd
00000080: ae57 663d 297b a73b 6a68 dfbc 56da d7bb
00000090: ff69 2bbd bdfd 3fbd 5f46 3dbd 8901 cfbc
000000a0: ba93 043d e7a7 493d 3a8a b23b 53a0 0ebd
000000b0: b122 34bd c759 a13c 82a0 2c3c 88a5 6e3c
000000c0: 8d30 06bd 0a27 dcbc 09df 8dba 07a7 593d
000000d0: c462 433d bca5 49bd 1eb1 983c f628 63bd
000000e0: 7651 3f3c 00b7 00bd b8cc ea3c e1b1 893c
000000f0: 77c2 603d c39f 9dbc 68a0 55bc 1240 f0bc
00000100: 5ec3 103d db75 c8bc cfb8 273d 257a 4cbd
00000110: 76ac c1bc 385b 8e3c 3cb4 1bbc 345c 3abd
00000120: eb7a c93c 4883 003d 2c4f 4abc 0b1a 1b3d
00000130: 1a1d ccbc d47b acbc 772a 25b9 0c74 2c3d
00000140: 210a 503d 730c 34bd 85a2 cd3c 33f7 4b3d
00000150: ded0 5c3d 0b2d 33bc aa20 08bd 2a79 1abc
00000160: fa3e d23b 5cc0 55bc 2077 debb 2954 d5bc
00000170: 4d37 283d 5bd9 40bd e25d 153c 4ba9 253d
00000180: 3cdb d03c 83e1 29bd 5c63 b6bc 459d f73c
00000190: 2c15 303d 0d28 9cbc a51e 94bc da00 1a3d
000001a0: 503b 1abd 9b2f a53c 5002 44bd c71e 75bc
000001b0: 666d 873b 5291 f63c f558 f7bc 28a0 b03c
000001c0: 7a12 ef3c 4d20 1bbd dcf5 323d b53e f7bc
000001d0: 5a91 58bd d28c 15bd b745 1e3c 639f 11bc
000001e0: 888c a9bc 2bae 18bd 7716 bfbb 82b2 4f3d
000001f0: 98a6 1abb 05fb c53c 5e13 6f3b de1d 663b
00000200: c9e2 953c df80 da3c 6cff f4ba 309e 353d
00000210: 9e3b 1d3d e9b7 3d3b ce35 07bc 3d6a f4bc
00000220: 6f96 243d c731 13bd 80af 10bb 2e46 33bb
00000230: 0053 05bd e655 6c3d 3c9d 52bd 6d99 483c
00000240: 6e62 c2bc 7aaf c2bb 3283 8d3c 3d14 5c3c
00000250: f55e 2a3d a43a 62bd 97bf 4ebd fcfc 8dbc
00000260: d95d 47bd 4e1f 14bd 6cce 53bd 9beb 0ebd
00000270: d97e 49ba e807 43bd 9425 2bbd ad78 c8bc
00000280: fed5 6dbd 80c5 6dbd 0612 5b3c f6e2 c73a
00000290: b602 413b c62d 76bb e897 4dbd 9e67 e5ba
000002a0: a98f 9d3c 4c82 5e3c 58ae 493d d1ff 313c
000002b0: e97b 5e3d 5f73 d73c 6355 febc d3cc 21bc
000002c0: 11e6 18bd aded 603d a74d 233d e022 87bc
000002d0: 4bc1 113d 4463 0fbd d181 523d bcfe 2dbd
000002e0: df34 51bc 0e41 023c f225 513d f6f4 753c
000002f0: 562b a8bc 33b0 c73c 6834 a63c dec4 3a3d
00000300: 6d07 58bc 9b66 2dbd 1ea3 673d ece9 863c
00000310: ea49 f83b c729 3d3d ead5 e6bc f37b 4d3d
00000320: ff64 40bd 57b3 393d 6aca 4cbd 44e1 1bbd
00000330: a4fe 8c3c bea6 75bb 4c0b 333d 0ba0 2b3d
00000340: 6e34 613d 19e3 633c cd86 26bd e731 27bd
00000350: 39be a5bc b2c1 e6bc bcf7 cebc 2785 24bc
00000360: 03c1 2d3c 42c5 63bd df20 0abd aa6e debb
00000370: 70b8 d23c 9a6f e6bc 7e4d 03bd 5c4c e7bc
00000380: 1737 c8bc c62b dfbc 0213 d53a 79b1 323d
00000390: 731a 973c 54f0 153d e9f5 01bd 3617 523d
000003a0: e6a7 01bd 57a1 6b3d ef3d 0dbd a736 2bbc
000003b0: 2d47 4c3d af72 4a3c 199f 69bd 7768 b4bc
000003c0: 0595 02bc 85cf 51bd c30a 283d 1960 9b3c
000003d0: bdc5 46bd 242c c53c e4b6 87ba c19c 493d
000003e0: a447 6f3d 3221 5a3d 4803 353c 508c 6abd
000003f0: b94e 633d 80a1 b8bc c186 23bd ac73 473d
-0.051818382 0.0043357452 -0.00018885644 -0.013778603 -0.025610233 -0.007540469 -0.0042406605 0.039140336
0.02567606 -0.038598653 0.036822956 -0.045088235 -0.023971155 0.046356425 -0.023308394 0.006209756
0.007319064 -0.058299437 0.01040971 -0.01754156 0.023382392 -0.030948265 -0.019525269 0.04173991
0.018898644 0.017685873 0.018230384 -0.013115526 -0.009924014 -0.031242393 -0.020363033 -0.04887596
0.05623596 0.0051111174 -0.027271468 -0.006587307 -0.041849133 -0.046872843 -0.04620969 -0.025269287
0.032367446 0.04923239 0.005448607 -0.034820866 -0.043978397 0.01969613 0.010536315 0.014565833
-0.032761145 -0.026874084 -0.0010823916 0.053137805 0.047701612 -0.049230322 0.018639144 -0.055458985
0.011677137 -0.031424522 0.02866207 0.016808452 0.054872956 -0.01924122 -0.013038732 -0.029327426
0.035342567 -0.02447026 0.04094773 -0.049921174 -0.023641806 0.01737748 -0.00950342 -0.045498088
0.024594745 0.0313752 -0.012347978 0.037866633 -0.02491622 -0.02105514 -0.00015751446 0.04210286
0.05079091 -0.043957185 0.02510191 0.049796294 0.05391013 -0.010936032 -0.033234276 -0.009428302
0.006416199 -0.01304635 -0.006789103 -0.026041107 0.041068364 -0.047082286 0.009116622 0.040444653
0.025495164 -0.04147483 -0.022264175 0.03022636 0.04298894 -0.019062066 -0.018081019 0.03759847
-0.03765422 0.020164302 -0.047853768 -0.014960951 0.0041329144 0.030098591 -0.030193785 0.021560743
0.029183615 -0.0378726 0.0436915 -0.030181268 -0.052872993 -0.03651125 0.009660176 -0.008888098
-0.020696893 -0.037275475 -0.0058315354 0.050707348 -0.0023597833 0.024167547 0.003648005 0.0035113017
0.018296616 0.026672779 -0.0018691844 0.044340312 0.038386934 0.002894873 -0.008252574 -0.029835815
0.040182527 -0.035936143 -0.0022077262 -0.0027355063 -0.032549858 0.057699107 -0.05141948 0.012243611
-0.023728576 -0.0059413286 0.017274473 0.01343256 0.041594464 -0.055231705 -0.050475683 -0.017332546
-0.048673484 -0.036162667 -0.05171053 -0.03489266 -0.0007686443 -0.04761496 -0.041783884 -0.024471605
-0.058065407 -0.05804968 0.013370996 0.0015250135 0.0029451079 -0.0037563904 -0.050193697 -0.0017502194
0.019233542 0.01358087 0.049238533 0.010864214 0.05431739 0.02630013 -0.031046575 -0.009875494
-0.037328783 0.054914165 0.039868977 -0.016496122 0.03558473 -0.035006776 0.051393334 -0.04247926
-0.012768953 0.007950081 0.051061578 0.0150120165 -0.020528477 0.02437601 0.020288661 0.045597903
-0.013185364 -0.04233418 0.056552045 0.016468965 0.0075771706 0.04618242 -0.028178174 0.050167035
-0.046971317 0.045337047 -0.049997725 -0.038056627 0.017211266 -0.003748342 0.043711945 0.041900676
0.05498164 0.013909125 -0.0406559 -0.040819075 -0.020232307 -0.028168533 -0.025264613 -0.010041512
0.0106051 -0.05560804 -0.033722755 -0.0067880945 0.025722712 -0.028129388 -0.032056324 -0.028234653
-0.024440331 -0.027242552 0.0016256275 0.043626282 0.01844523 0.036606148 -0.03172866 0.051291667
-0.03165426 0.057526913 -0.034482893 -0.010450042 0.049872566 0.012356444 -0.057036493 -0.022022469
-0.007970099 -0.051223297 0.04102589 0.018966721 -0.04852842 0.0240689 -0.0010354188 0.049221758
0.05841793 0.053254314 0.011048146 -0.05726272 0.055494998 -0.022537947 -0.039923433 0.048694298

features.Conv2D_3.bias f4 [32]
00000000: dbdd d8bc 3580 ef3c a517 cd3c eccb 4b3d
00000010: 4b95 333d 9705 423d 3317 463c b79a 3f3c
00000020: 7e78 5c3d 89b8 2e3d b1b2 c03c 776f 503d
00000030: d803 313d ebbc 5ebd 831b 6ebd da2e 43bd
00000040: 9044 a63c 9c3d 1f3d 6673 15bd f138 553d
00000050: 49ca 44bc 99bb 303d 8936 fd3c ea53 123d
00000060: 970b 0bbd 1fb2 193d c3e0 1f3c 86c7 6dbc
00000070: 9006 103b 48ac 413a 6c49 5c3d d933 e03c
-0.026472976 0.029235939 0.025035689 0.049755022 0.04384355 0.047368612 0.012090492 0.011694602
0.053825848 0.042656455 0.023522707 0.05088755 0.043216556 -0.054379385 -0.058131706 -0.047652103
0.020296365 0.038877115 -0.036487006 0.052056257 -0.012011119 0.043147657 0.030909793 0.035724558
-0.0339466 0.037523385 0.009758177 -0.014512902 0.0021976568 0.00073880376 0.053780958 0.027368473

features.Conv2D_4.weight f4 [32, 32, 3, 3]
00000000: b7d5 8ebc 49e3 03bd 40fc 9abc 0743 00bd
00000010: a9df 20bd e86f fcbc 3297 4fbd c032 163d
00000020: 3d0a 973c c0a2 22bc 6dbb 223d 2448 41bd
00000030: a4ac 4abd c2eb 2c3d cbaa 4f3a 5fba 143d
00000040: eccc ad3c 4e44 883c 7150 13bd c867 18bc
00000050: 5570 a8bc 43c8 3dbd 6704 4c3d df64 b8bc
00000060: 5e37 e1bc bf81 963c 4cfc d03c 489c 6abd
00000070: a6d2 a53c 4080 6cbb 1587 4abd 1577 a8bc
00000080: a08c 663d 03a5 5d3c e55b 143b 55fc a8bc
00000090: 545c 69bd 356c afbc 60a6 f53c 2fe2 2e3b
000000a0: 627b 61bd 034b 4abd 40e7 b43c 54ef dc3b
000000b0: fede 75bd 8361 77bd 0b59 13bd a9a7 703d
000000c0: be0d 013d 7b1c a0ba 743c cc3c 4236 90bc
000000d0: 1fe3 f53c e879 b7bb d33b 033d b645 263c
000000e0: 4965 693d aca6 983c 4652 20bd 564c 42bd
000000f0: f861 40bd ff7b fb3b 41ba aa3b 7dbe dabc
00000100: b383 2a3d 38f6 6dbd bbda afbc 38f5 2dbd
00000110: 9178 e53c 36fd 5d3d 0d07 013c 2890 70bc
00000120: 195a bf3b 04a9 9abc e42c 313c 8073 943c
00000130: 6fa7 10bd 61e1 fbba c95f a83b b2ba bd3c
00000140: b689 4e3d 7bbe 2b3d 021c 2fbc b965 89bc
00000150: 376b f0bc bf8d 68bd 190a c2bc b00f 4d3d
00000160: cd4e 1bbd 1f11 c6bc f410 413d 584b 41bd
00000170: 5b7e 10bd feaa 623d ac2a 013c 4865 84bb
00000180: 9131 2abd a0cc 6dbd 158e 6fbc 3ae9 3e3d
00000190: c1e6 4d3d b35a 06bd 4685 243b c7da 523d
000001a0: 6ca5 82bc 1849 ffbc b572 44bd a71b 0abc
000001b0: f997 0abd f00e 4bbc 768d a1bb 8467 4f3d
000001c0: 88e5 a4bb 9483 34bd c0e5 f03c 2c93 57bd
000001d0: cbd4 b43c c058 0dbd 19e0 15bd 282e a83c
000001e0: a0e1 5a3c 36f6 3bbd 14a1 8c3b 7f95 e13c
000001f0: 5946 3b3d d616 6fbd d98b 413d bf45 49bc
00000200: cf74 3b3d 9280 be3c e1c1 ed3b aa04 e5bb
00000210: 8dae e33b 9b9d da3c 9282 2a3d aaff a23c
00000220: 2114 0e3d 4490 4a3c b8d8 363d 09aa 483d
00000230: 66da 5b3c cf32 11bd ae30 533d 381e 453d
00000240: 8844 37bb 089f 263d 2ae4 3b3d 779a d93c
00000250: 939e eabb 4216 553d 79c6 c23c 5c07 68bd
00000260: 586c d93c a67f 31bd 7823 5c3d 65f5 39bd
00000270: 7136 863b 2e0d 68bd 398a 433d 0334 143d
00000280: 1a01 cdbc 06ec 20bd 6c11 f63c c735 4abd
00000290: 40d6 843c 6eaf eabc ae7e 53bd a3f1 ce3b
000002a0: 8ee4 1cbd 50de 003c 7078 3abd 4ead 143c
000002b0: 3f37 253d 974b 533d 53ae 693c 289e 523c
000002c0: 34ec f93b 24d3 cfbc c5c2 4e3d 6fe2 403d
000002d0: 8cc6 503d 9ecc db3c 860f 81bc baa7 393d
000002e0: 3793 b3bc 1bbe 4b3b cf6a 2f3c 7846 8d3c
000002f0: ba2a 283d 7ad2 39bd e56a c93b 2067 943c
00000300: 3f65 efbc 44a7 1fbd 96d5 f33c 9d43 e3bc
00000310: 29ce 613d c99f 80bc 2cc4 a5bb 0254 163c
00000320: fa22 2c3d 5221 d6bb 73f5 72bc 8935 c63c
00000330: f506 21bc 65b1 d1bb ef39 483d 9528 d63b
00000340: ddf6 423c a677 55bd d317 173d dccc d43c
00000350: 45d0 2d3d 1f47 463c 61d9 213d 9790 93bc
00000360: 9651 6ebd abd2 403d 7b19 de3c 0f05 593d
00000370: 76e6 b4bc 3d57 213c 8788 0d3d c9b1 3f3c
00000380: fc1a 95bc c00a f0ba dd12 85bc 5fd4 56bd
00000390: d148 5b3d 0029 48bd 7196 3dbd c7b2 e93c
000003a0: 273f 133d ea09 3dbd 6547 2cbd a1d1 a43c
000003b0: f22f adbb cc49 943c 0523 e1bc 106a c13c
000003c0: 9074 043d b8ab 39bc 908b 86bc 259a 9d3c
000003d0: 8179 5d3d ba10 603d ca02 213d 0a64 123c
000003e0: eee5 fe3c 6b46 63bd 27c5 1c3d 8a08 eaba
000003f0: 213d 09bd 32a1 35bc ab7b 32bd 5c4c 05bd
-0.017435892 -0.032199178 -0.01891911 -0.031313922 -0.0392758 -0.03081508 -0.0506813 0.036669493
0.0184375 -0.009926498 0.039729524 -0.04718794 -0.04948105 0.042217024 0.00079218735 0.03631055
0.021215878 0.016634133 -0.035965387 -0.009302087 -0.020561377 -0.046333563 0.049808886 -0.022509037
-0.027492221 0.018372415 0.02551093 -0.057277948 0.020242047 -0.0036087185 -0.04944523 -0.020564595
0.056286454 0.013528111 0.0022637781 -0.020628134 -0.056972817 -0.021413902 0.02998656 0.002668511
-0.055049308 -0.049387943 0.022082925 0.0067423973 -0.060027115 -0.06039573 -0.03597359 0.058753643
0.031507246 -0.0012215519 0.02493117 -0.017603997 0.030015526 -0.005599249 0.032039475 0.010148456
0.05698136 0.018634163 -0.039140962 -0.04743608 -0.04696843 0.0076746936 0.0052101915 -0.02670216
0.041629504 -0.05809614 -0.021466604 -0.042470187 0.028011592 0.05419656 0.007875216 -0.014682807
0.005839598 -0.018879421 0.010813925 0.018121481 -0.035315927 -0.0019216948 0.0051383716 0.023160312
0.0504243 0.041929703 -0.01068783 -0.016772138 -0.029347999 -0.056775805 -0.023686456 0.05006379
-0.037916947 -0.024178086 0.04713531 -0.047190994 -0.035276752 0.055338852 0.007883709 -0.004040394
-0.041551176 -0.058056474 -0.014621277 0.04660914 0.050268892 -0.03280134 0.0025103851 0.051478174
-0.01594802 -0.031162784 -0.047960956 -0.008429444 -0.03383634 -0.012393698 -0.0049301935 0.05063583
-0.005032245 -0.044070795 0.029406428 -0.05263059 0.022074124 -0.034508467 -0.03659067 0.020529822
0.013359457 -0.045889102 0.004291663 0.027537106 0.045721386 -0.058371387 0.04725251 -0.012284695
0.045765694 0.023254666 0.007255778 -0.0069890814 0.0069482983 0.02668648 0.041628428 0.0198973
0.034687165 0.012363497 0.044640273 0.048990283 0.013418769 -0.035448845 0.051560096 0.048124522
-0.0027964432 0.040679008 0.04587189 0.026562912 -0.007160017 0.05202318 0.02377628 -0.056647643
0.02654092 -0.043334626 0.053744763 -0.045400042 0.0040958454 -0.056653194 0.04773924 0.036182415
-0.02502494 -0.03928759 0.030037604 -0.049367692 0.016215444 -0.028648105 -0.051634483 0.0063154264
-0.038303904 0.007865503 -0.045525014 0.009074522 0.04033589 0.05158576 0.014262754 0.01285509
0.0076270346 -0.025369234 0.050478715 0.047090944 0.0509706 0.026830968 -0.015754472 0.045325972
-0.021920783 0.0031088653 0.0107066175 0.017245516 0.041056372 -0.04536674 0.006146776 0.01811558
-0.029223083 -0.038977876 0.029764932 -0.027742201 0.05512825 -0.015701191 -0.005058786 0.009175302
0.042025544 -0.006534734 -0.0148290275 0.02419545 -0.009828319 -0.006399321 0.048883375 0.0065355995
0.011899677 -0.05211606 0.036887955 0.02597659 0.04243495 0.0121019175 0.03951395 -0.018013282
-0.058183275 0.04707591 0.02711176 0.05298334 -0.022082549 0.009847459 0.03455403 0.011700102
-0.018201344 -0.0018313751 -0.016244346 -0.052448627 0.05353624 -0.048867226 -0.04628605 0.02852763
0.0359489 -0.046152033 -0.042060275 0.02011949 -0.0052852565 0.018101595 -0.027482519 0.023610145
0.032337725 -0.011332445 -0.01642397 0.01923854 0.054070953 0.05470345 0.0393093 0.008934984
0.031115498 -0.055487078 0.038273957 -0.0017855328 -0.033505563 -0.011085795 -0.04357497 -0.032543525

features.Conv2D_4.bias f4 [32]
00000000: c556 4a3d e1d1 183d 5008 acbc e955 97bc
00000010: ca46 33ba 4bde 37bd ab80 d73c 2e70 3e3d
00000020: 4ab4 2d3d 8701 f73b dc31 25bd d309 62ba
00000030: 4b2e 413c be25 453d 2df6 353c fc74 2dbd
00000040: e3d2 7e3c bf6a 31bd cf15 f93c 84c1 3e3d
00000050: 2265 7b3b 81a8 423d 529d 6d3c 6cca fd3c
00000060: f813 173c 8f8d 413d f586 f63b a0d8 5abd
00000070: 0d0e 373c c545 483d 6cd1 053d 94f1 5cbc
0.049399156 0.03730953 -0.021000057 -0.018473582 -0.00068388565 -0.04488973 0.02630647 0.0464937
0.042408265 0.007538024 -0.040330753 -0.000862268 0.011790822 0.048131697 0.011106056 -0.042347893
0.015553209 -0.04331469 0.030405907 0.04657127 0.003835984 0.04752398 0.01450284 0.030980311
0.0092210695 0.04725414 0.0075234124 -0.053429246 0.011172784 0.048894662 0.032670423 -0.013485331

features.Conv2D_6.weight f4 [32, 32, 3, 3]
00000000: fd7f 9d3b 68db 923c 91c2 493d 17cf 463d
00000010: f42c f73b b5e4 bf3b bdc5 1fbd f3a3 253d
00000020: 70a1 0abd bda8 093b b651 433d 9796 e2bc
00000030: 614b 2abd 4008 2b3d 913f a63b 283e 0d3d
00000040: ab92 d63c 184b ee3c 0567 2a3c a909 b4ba
00000050: 3b2b 0cbd 8e9f ef3b 820c 193d 7682 e8bb
00000060: 4031 b23c 2519 52bb fc47 b9bc 8293 9f3b
00000070: 3940 cc3c 0783 55bd 3755 633c 0399 adbc
00000080: 2bb1 c43b 8f82 4e3d e510 d73c bba5 953c
00000090: 1998 2239 441d 2a3d c60e be3c 2c47 0139
000000a0: ca30 a6bb c32c 283d a6e9 363b 2bc9 a6bc
000000b0: cc7e 4ebd 4d13 18bc 033a e9bc f604 4e3d
000000c0: 51c2 f2bc 9631 b0bc ebd5 41bc ca9d f53b
000000d0: 23f0 c3b7 a424 c93c 8b23 913c b630 3b3c
000000e0: 25e7 003c abca 4b3d 7145 113d 0a39 873c
000000f0: 82c5 643c 9e28 cfbc 9556 0d3d 2f33 0cbd
00000100: 2f4c 71bc 9a08 63ba ba27 263d c404 0cbd
00000110: c04b 443d a25b b33c c384 163d f42a 173c
00000120: b702 a83c 5144 c8bc 59cd 2d3d 146f aebc
00000130: 19ab 553d 8f61 023d 1079 17bd 3381 053d
00000140: 1368 903c 78e7 99bc 5afa 1d3d 2a2c 50bd
00000150: 1519 173d a65f 053c eff8 073d 36e5 dc3c
00000160: e548 19bd 47c5 a6bc 971d bcbc fede 34bd
00000170: 35cb ea3c 97e4 3fbd abed 423d 32b0 82bc
00000180: e7bd 02bd 0dc4 3f3d b469 ff3c 006c 363c
00000190: 94d1 1ebd 233b 413c 5058 343d eb78 96bc
000001a0: 5789 033d bfb1 073d 8fb6 acbc defb b1bc
000001b0: eb6f d83c c329 05bc 0477 5b3c 5ab2 a03c
000001c0: 52ea 08bc c5de 08bc b28f 183d 28d9 4dbc
000001d0: 9c1a 413d dbad 20bd 7809 eebc 5056 24bd
000001e0: 209e 86bb 69e5 3f3c c11f 29bc 5577 ea3c
000001f0: f390 283d 0bb4 973c 2a6c fd3a 8c9f 353d
00000200: 70a6 2fbd d311 513d b822 96bc ced9 4fbd
00000210: 6931 04bd 7ae0 e9bc 3e85 c6bc 86ac 0c3d
00000220: 0b32 23bd 872c a2b9 89df 863c feb8 673c
00000230: fc9b 8ebc d76f 4abc 4fc9 74bb 2767 d7bc
00000240: e608 2bbd 930a 8abc 5091 fabc 0434 1b3d
00000250: 449f 23bd f115 203c e80d da3c 3258 3fbc
00000260: 2195 4b3d 059a e1bc a0cf 8d3c d774 203d
00000270: 99f2 38bd 1da5 31bd 6f1d 8bbb ee21 fcbc
00000280: 753c 113d 1ac1 4b3d 827a 173d f321 c83c
00000290: 512c 3cbb 2a59 9bbc 2862 15bd d419 873c
000002a0: 192f 3f3d ebf6 11bb 4027 6c3c 64a4 3c3d
000002b0: d672 2d3d fe41 2dbc 9d86 24bd 8d15 e23c
000002c0: b98d c33c d22e 49bd 1b3c 33bd ce62 233d
000002d0: 7d7d 723b e67a 5bbb 2f00 283d f2f8 333d
000002e0: 6577 c53c 81b4 5cbd 91db 4f3d 1060 4e3d
000002f0: 446b 9cbc 32d2 80bc 32f2 e9bc 7256 a7bc
00000300: c6e6 0c3d 05e9 34bd 9b88 a53c f878 39bd
00000310: 06ab 70bc 520a af3c ee60 9dbb e266 483d
00000320: e5b3 2a3d 7b0a 523d ba71 0c3d 5db6 0e3d
00000330: 42b1 3cbc bd24 653b ac9b 4dbd 99e9 3d3c
00000340: a1fe f6bb 8584 f33c a952 5cbc 653f 1b3d
00000350: 59f8 7cbc 1410 603c ce55 2a3c 8d3c 8abc
00000360: 5689 433d e81b 323b c3e7 14bd 63d6 613d
00000370: 90b7 523c ebb3 f83c 9dec 583c e541 373c
00000380: 6ed5 8bbc 964c 2fbc 087c 54bc b229 15bc
00000390: 32dd f8bc c6ad cb3c c2e3 35bd b2e2 1abd
000003a0: 3014 2b3d 764e 003d 3e0b 36bd d480 e9bc
000003b0: 4b4c e4bc 77a0 b53b a76e 133d 9480 803c
000003c0: 6984 47bd 63fa 953b 866b 333d b8f2 5f3c
000003d0: 7afc bd3c af23 06bd 7a02 bbba 77cd 1fbd
000003e0: 2f75 63bc 6393 b73b 6eba e23c f929 933c
000003f0: d9c9 31bc c0e3 23bd 1b34 82bc 83e2 bebc
0.004806517 0.017926887 0.04925782 0.04853734 0.0075432006 0.0058561214 -0.039006937 0.040439557
-0.033845365 0.0021005117 0.047685347 -0.027659697 -0.041575793 0.041755915 0.0050734957 0.034483105
0.026192984 0.029088542 0.010400538 -0.0013735789 -0.034220915 0.0073127216 0.037365444 -0.0070956303
0.021752 -0.0032058444 -0.022617333 0.004869879 0.024932967 -0.05212691 0.013875297 -0.021191126
0.0060025654 0.05041748 0.026253173 0.018267503 0.00015506185 0.041531816 0.023200404 0.00012328912
-0.005071734 0.041058313 0.0027910261 -0.020359596 -0.05041389 -0.009281945 -0.028470045 0.0502977
-0.029633673 -0.02150802 -0.011830787 0.0074956166 -2.3357634e-05 0.024553604 0.017717144 0.011425188
0.007867609 0.049753826 0.035466615 0.01650669 0.013963105 -0.025287922 0.0345064 -0.0342285
-0.014727636 -0.00086606445 0.04056523 -0.034184232 0.047923803 0.02189428 0.036747705 0.009226549
0.020509107 -0.024446638 0.042432163 -0.0212932 0.052165125 0.03183132 -0.03698069 0.032593917
0.017627751 -0.01878713 0.038568832 -0.050823368 0.036889154 0.00814048 0.033196386 0.026964765
-0.037423033 -0.020357741 -0.022963328 -0.044157974 0.02866135 -0.04684886 0.04758994 -0.015953157
-0.031919386 0.046817828 0.031178333 0.011134148 -0.038774088 0.011793884 0.044029534 -0.018368205
0.0321134 0.033128496 -0.021083144 -0.021726545 0.026420554 -0.008127633 0.013395075 0.019616295
-0.008356648 -0.008353894 0.037246414 -0.012563981 0.047144517 -0.0392283 -0.02905725 -0.040121377
-0.0041082054 0.0117124105 -0.010322512 0.028621355 0.04115386 0.018518468 0.0019334604 0.04434161
-0.042883337 0.05104239 -0.018327102 -0.050744824 -0.032273684 -0.028549422 -0.024233457 0.03434422
-0.039842647 -0.00030932223 0.016464012 0.014143227 -0.017408364 -0.012355766 -0.0037351435 -0.026294304
-0.041756533 -0.016850745 -0.030586869 0.037891403 -0.03994681 0.009770856 0.02661796 -0.011678742
0.049702767 -0.027539263 0.017310917 0.039173927 -0.045153234 -0.043370355 -0.004245452 -0.030777898
0.035458047 0.049744703 0.036982067 0.02443025 -0.0028712938 -0.018963415 -0.036470562 0.016491808
0.046675775 -0.0022272419 0.014413655 0.046055213 0.042345844 -0.010574816 -0.04016744 0.027598167
0.02387129 -0.049116917 -0.043758493 0.03988915 0.0037001066 -0.0033490001 0.0410158 0.043938585
0.024104783 -0.05388308 0.050746504 0.05038458 -0.019094117 -0.015725229 -0.02855787 -0.020426963
0.03439977 -0.044167537 0.02020674 -0.04528138 -0.014689213 0.021367226 -0.0048028147 0.04892624
0.041675467 0.051279526 0.034288146 0.034841884 -0.011516871 0.0034964525 -0.05019729 0.011591339
-0.0075376783 0.029726276 -0.013447442 0.037902255 -0.01544007 0.013675708 0.010396434 -0.016874576
0.047738396 0.0027177278 -0.036353838 0.055136096 0.0128611475 0.03035923 0.013240007 0.011185144
-0.017069545 -0.010699412 -0.0129690245 -0.009104179 -0.030378912 0.024863135 -0.04440666 -0.03781385
0.0417673 0.031324826 -0.044444315 -0.028503813 -0.02786841 0.0055428105 0.0359942 0.01568631
-0.04871026 0.0045769676 0.043803714 0.0136687085 0.02319168 -0.032748874 -0.0014267706 -0.039014306
-0.013882919 0.0056022867 0.027676787 0.01796435 -0.010851347 -0.04001212 -0.015893986 -0.023301369

features.Conv2D_6.bias f4 [32]
00000000: 06b9 50bd 19f1 afbb 2d73 d63c b417 32bd
00000010: a0eb 38bd f28b 123d 8b55 f83c 74bf 12bd
00000020: dd69 bfbc ca41 d53c e022 933c b3b7 1b3d
00000030: fa86 073c 730c fa3b a9b1 0cbc 7822 1bbd
00000040: 11e1 ae39 b8b1 2cbc 1e48 22bd c5d9 38bd
00000050: 5f5a 47bd ddbc 5cbd f1ba 58bd dbb7 04bd
00000060: 9ec6 063d 31f8 4abb bb32 403b b439 7a3c
00000070: 6a7d 6cbd f907 11bd 63c1 123d c461 a13c
-0.050957702 -0.0053693173 0.026177967 -0.043479636 -0.045146585 0.035777994 0.030314228 -0.035827115
-0.02336591 0.026032347 0.017960966 0.038016986 0.008271927 0.0076308786 -0.008587279 -0.03787467
0.00033355554 -0.010540418 -0.039619558 -0.045129556 -0.04867017 -0.05389105 -0.052912656 -0.0324019
0.03290426 -0.0030970688 0.0029327113 0.015272547 -0.05773679 -0.035407994 0.03582896 0.019699939

features.Conv2D_7.weight f4 [32, 32, 3, 3]
00000000: 83d0 19bd 8c23 3abd c63c 803a 57e0 183d
00000010: 0fa7 37bd 1bb7 5c3d d502 01bd 74c7 0a3d
00000020: ee11 53bd 7b21 73bd 04ad 87bb 4ef2 8eb9
00000030: 2a02 763c 68b6 ad3c 8d88 57bd d006 d8bb
00000040: b6a0 99bc fccf 85bc 0919 4cbd 1337 a23c
00000050: 7893 543d 23ad 28bd 9775 49bd 8e44 503c
00000060: 2d82 52bd 8b1a 52bc 3b23 e3bc ce6d eabc
00000070: 02ec 1d3d 6fdd 29bb aa10 b9bc bf3c dd3c
00000080: 6a6d 8bbc 20b3 4bbd 2cb7 0ebd 1dd3 073d
00000090: f937 abbc 628c 36bd 322d b33a 4615 303d
000000a0: d83f 60bc d45f 34bc 2dc4 42bd 3c49 16bd
000000b0: 916e 04bb 6cc9 513d 758d c7bc a30d e43b
000000c0: ee14 a53c 645d 54bd c9a8 263b 2708 f83c
000000d0: dad4 22bd c064 c4bb 495e 3c3d 29b9 19bd
000000e0: 5057 b33b 1383 843c 9297 3f3d 4b48 4fbd
000000f0: f03f fcbc a990 b2bb 5a2d fb3c 6eed 48bd
00000100: e92d 253c 6359 afbc 0b3a 3ebd 3100 5cbd
00000110: fd4d 12bd 5127 d93b 800b f73c 2d75 363d
00000120: 0b25 bd3c 6b68 6cbc 86d2 23bc dc3f 553c
00000130: e224 093d 0cf6 02bc 6d55 4ebd 93da 703b
00000140: fb6b aabc 396d 6b3d 03db 5cbd 21a5 183d
00000150: d9b2 ebbc 1455 103d bb7b 5d3d 9c84 1dbd
00000160: 095c 3abd 3405 08bd 71e4 a73c 8738 c2bc
00000170: d72b e53c 24a0 543d 0b0b 78bc e2e3 dabc
00000180: 35b9 16bd 91a5 653d b765 0ebd 4735 76bc
00000190: 50a5 8c3c 9434 48bc 22d5 18bd 43a5 8aba
000001a0: fa42 0e3d 1889 c0bc 1c16 67bc b0d3 bf3a
000001b0: daca 3d3d fc36 423d cf62 3ebc 0a87 4bbd
000001c0: 37cc e63b d197 753c 9bbb 923c 4f38 c0bc
000001d0: 9b94 efbc cbfe d13c f40c 913b df28 2bbc
000001e0: 024d 9b3b d648 723c da12 2f3d 9d4b a13b
000001f0: 2b8c 183d 2e88 33bd 4196 ef3c 2008 bfbc
00000200: a395 17bd 8d52 c73b 4125 07bd 4f8e 28bd
00000210: 1a0e 0abd 8639 133d 009f 4e3d de9c 203c
00000220: 031d 393d da6f 013c 3496 383d 09a9 32bd
00000230: 7fde 063d 5033 5c3c 54c0 913c 9cca 3a3d
00000240: 1ee2 ed3b 4c4e a83b 0381 253d e398 92bc
00000250: 9b92 17bd 6415 393d a26a 71bd 416d 3f3d
00000260: 14c5 60bd d5dc 58bd e6bf e5bc c3ec 58bd
00000270: 1a61 28bd 642c 8f3c e5d9 603d 625a 9f3c
00000280: 6514 b73c e832 0f3d 0ad3 2bbd d975 373d
00000290: fafa 2ebd 3921 9a3b 9cb5 ae3c 084b 0fbd
000002a0: b1cd 03bd 7ff8 4fbd 0fce 0b3d f7a5 0ebd
000002b0: f748 3e3d b365 96bb 3b6e d03c 253b f8bc
000002c0: d1dc 513d a45d 39bd b27c 01bd a61a 4fbd
000002d0: 0fc6 313d a374 f5bc 736f 5bbc 1bcd 083d
000002e0: d09b 24bd 4732 61bb e8d7 183d bbde b0ba
000002f0: 489f 553d 884f f83c 6906 363d 2b98 41bd
00000300: 8366 b6bc 61d7 f13c b7aa 533d 39ef fabb
00000310: 1024 e6bc 2c10 1dbc 0c11 a33c e908 153c
00000320: 15b8 9f3c da9b 413c 4289 193d 40f8 46bd
00000330: e415 483d 915b 93bc 4d46 903c 5cef 60bd
00000340: 75d6 2d3b 9be7 64bc 41ca d83c 502a 833b
00000350: 6f07 49bd 8aa0 743d 3047 aebc aeb4 7c3c
00000360: 4274 e53c 3656 d73a 58c5 e33c 0e7d bebb
00000370: fd1c 2b3d 7ee4 88bc 9e7e 553b 2dba 353d
00000380: be0a 33bd a23c 0ebd 0b11 02bc 4858 113d
00000390: 8bde 31bb 74cb 8639 1de4 2bbd 927e 3fbd
000003a0: 57a2 533d ec11 243c 5269 89bc cd55 533d
000003b0: fffd 06bc a58b 6bbc e188 d83c f668 84bc
000003c0: 09e6 a23c 43ff b5bb b5f6 8dbc c587 58bd
000003d0: f791 c339 b68c 653d b1b9 6a3c 0bec 293d
000003e0: 867a 3e3d 6ce0 60bd 9ce7 01bc faf1 28bb
000003f0: fab5 4e3c 07d9 febc 04bc d73c cd0c 1dbc
-0.037552368 -0.045444056 0.0009783737 0.037323322 -0.044837054 0.05388556 -0.03149684 0.03388162
-0.05153077 -0.0593581 -0.004140498 -0.00027264882 0.015015164 0.021205142 -0.05262046 -0.006592609
-0.01875339 -0.016334526 -0.049828563 0.019801652 0.05189845 -0.04118074 -0.049184408 0.012711657
-0.051393677 -0.012823711 -0.02772676 -0.028616812 0.038555153 -0.0025919338 -0.022590954 0.027006505
-0.017019946 -0.049731374 -0.034842655 0.033160318 -0.020900713 -0.044567473 0.0013670085 0.042989038
-0.013687097 -0.011009175 -0.04755037 -0.036690935 -0.0020207504 0.05121748 -0.024359444 0.0069596334
0.020151582 -0.051846877 0.0025430194 0.030277325 -0.039753772 -0.0059934556 0.045988355 -0.037530098
0.005473055 0.016175782 0.046775408 -0.050606053 -0.030792207 -0.0054493737 0.030661274 -0.049054556
0.010081747 -0.021404928 -0.046442073 -0.05371112 -0.035718907 0.0066270013 0.03015685 0.04454534
0.023088953 -0.014429192 -0.009998923 0.013015714 0.03348244 -0.007993232 -0.050374437 0.0036751374
-0.020803442 0.05747721 -0.053919803 0.037266854 -0.028771805 0.035237387 0.054073077 -0.038456544
-0.045497928 -0.033208087 0.020494672 -0.023708595 0.027975006 0.051910535 -0.015139352 -0.026719991
-0.03679772 0.0560661 -0.03476497 -0.015027351 0.01716867 -0.012219567 -0.037312634 -0.0010577816
0.034731843 -0.023502871 -0.014104392 0.0014635231 0.046336032 0.04741572 -0.0116202375 -0.04968933
0.0070433873 0.014989809 0.017911723 -0.02346435 -0.029245665 0.02563419 0.004426593 -0.010446756
0.0047394047 0.014787873 0.042742588 0.004922344 0.03724305 -0.043831043 0.029246451 -0.023319304
-0.03700794 0.006082839 -0.032994512 -0.04115134 -0.033704855 0.03594353 0.050444603 0.009803025
0.045193683 0.007900203 0.04506512 -0.043618236 0.032927033 0.013439968 0.017791905 0.04560338
0.0072596213 0.005136287 0.04040624 -0.017895168 -0.03700505 0.045186415 -0.058939584 0.046735052
-0.05487545 -0.052944977 -0.028045606 -0.05296017 -0.04110823 0.017477222 0.0548953 0.019452278
0.022348592 0.034960657 -0.04194931 0.044790123 -0.04271982 0.0047036675 0.021326832 -0.034983665
-0.032178584 -0.050774094 0.03413206 -0.034826245 0.046456303 -0.00458976 0.025443187 -0.03030164
0.051235978 -0.04525532 -0.03161306 -0.050562523 0.043401774 -0.029962843 -0.013393271 0.03339873
-0.040187657 -0.0034362243 0.03731528 -0.0013494113 0.052153856 0.030311361 0.044439707 -0.04726426
-0.022265678 0.029521646 0.05167648 -0.007657912 -0.028093368 -0.009586375 0.01990559 0.009096363
0.019496957 0.011816943 0.037484415 -0.048576593 0.048849 -0.017987998 0.017611647 -0.05491577
0.0026525531 -0.013971235 0.02646363 0.004002847 -0.049079355 0.059723414 -0.02127418 0.015423937
0.028009538 0.0016428891 0.027804062 -0.0058132475 0.041775692 -0.016710516 0.003257669 0.044367004
-0.043711416 -0.034725793 -0.007938634 0.035484582 -0.0027140703 0.00025710056 -0.041965593 -0.046751566
0.05166849 0.0100140385 -0.016773853 0.051595498 -0.008239268 -0.014376556 0.026432456 -0.01616333
0.01988508 -0.005554111 -0.017329553 -0.052863855 0.0003730205 0.056042396 0.014326499 0.041484874
0.046503566 -0.054901525 -0.007928755 -0.0025778995 0.012616629 -0.031109346 0.02633477 -0.0095855715

features.Conv2D_7.bias f4 [32]
00000000: 64bd 493d e3a3 3d3d d4c7 0b3d 4799 e7bc
00000010: bd80 3ebd db8f 9abc a18b 0e3d 59b9 f73c
00000020: f148 35bd 376e 19bd d191 11bc 34f7 fabc
00000030: 64e3 803c 6c19 253d 4721 0ebd cbb8 463d
00000040: 2e25 0c3d a2a4 cb3c c517 0eba b6f7 2cbd
00000050: f52e 683c ba58 f63c 1af6 26bd 26fa 363d
00000060: 0b91 1abd 6a04 e6bc f6e3 be3c da71 ef3c
00000070: 4a0b 16bd a75c 433d 0658 423c 1b2b bc3c
0.049252883 0.046298873 0.034126118 -0.02827133 -0.046509493 -0.018867424 0.03480113 0.030239748
-0.044259015 -0.037458625 -0.008884863 -0.030635454 0.015733428 0.040307447 -0.034699704 0.048516076
0.034215145 0.024858776 -0.0005420412 -0.042228423 0.014171352 0.030071605 -0.040762044 0.044672154
-0.03773598 -0.028078277 0.02330206 0.029229093 -0.03663186 0.047695782 0.011861807 0.022969773

classification.0.weight f4 [256, 512]
00000000: a824 a33b 1a0b 023d 124f 723c 5034 bf39
00000010: f532 143d b841 1abb fd44 28bd f200 a5bb
00000020: 69f9 cbbc 060f b33c 5552 ba3c 5b40 233d
00000030: 509c c6bc 08e1 debb 980f d3ba 9590 223d
00000040: b7de 19bb a469 e73c c160 243c dce5 553c
00000050: d04f 2cbc 60f9 363c 26ac 0d3d 9606 253c
00000060: d997 3d3d 0664 223c dad6 163d 8cf1 0d3d
00000070: 4e46 18bd efbd 0dbd 74e0 c7bc 9c01 073d
00000080: 698d 0d3d 2c9f da3c 213f dbbb ff47 163d
00000090: 444d d23c 02a6 4b3a 6b9f 483c b3e4 9cbb
000000a0: 2d89 373d 86f7 ce3c 7d7b 89bc d1cf 0d3d
000000b0: 27bf 253d 4dfa 81bc 4eca 273d ab14 a739
000000c0: 8c35 c53c e0c5 05bc 6b03 10bd b161 1d3c
000000d0: 01e2 e6bb 6efc 80bc a7cc ddbc e82e fbbc
000000e0: 3c7a 90bc 2114 dcbb 1f13 1b3d dbf6 663c
000000f0: ffd1 eabb f045 61bc cec3 18bd 973f a73c
00000100: ed6f 90bc a2b6 0ebc d250 f4bc be75 4dbc
00000110: e17f b7bc d666 ccba 7c0a b93c a2df 023d
00000120: 91e9 cebc 96cc 9b3c 1df8 653c 2229 aabc
00000130: f58d 963c 925c 09bd 278d 19bd a15f 1b3c
00000140: 10cc 903c 0a87 b0ba 3057 a2bb a33e b4bc
00000150: b9df bdbc ecf2 a23b c44f 96bc f241 343c
00000160: 438c 223c 40e7 debc a25e e23c 87f7 0d3d
00000170: 9fc6 66bb ae33 0d3b c869 2c3b 28fb 033d
00000180: 1fba 943c 512e 473c 5208 22bd 7c07 d23c
00000190: 4a86 1fbd e15c 1a3d c3fa 7fbc 6b5f 3a3d
000001a0: 1a43 953c 5b16 af3c 2d10 2e3d 86ab 22bd
000001b0: 6b4e 8ebc f171 0abd f85f 843c c0f3 cd3c
000001c0: a421 0bbd 4893 6cbc f2d1 fdbc ca84 72bc
000001d0: c946 9bbc 0951 223d 8dce cbbc 57db 103d
000001e0: fe84 9f3c f4c0 afbb 03ba 1e3b 5691 0cbd
000001f0: 6e60 a7bc a4a7 20bd 8d8a 333c deac d43b
00000200: 1877 62bc 1fe0 a7bc 7f68 d2bb 7b42 fd3c
00000210: 9d82 5c3c 4998 e73c 3505 e4bb 2867 86bc
00000220: b0d2 50bb 688d 83bb ee56 98bc 75c6 75bb
00000230: a27a 003c 4e9a f8b9 11dd c7bb 485a ca3a
00000240: f384 9d3b c4e1 0dbd 7efc 2cbc a86d 06bc
00000250: c31b a83c 14b0 3ebb de89 afbc d8b9 ed3c
00000260: 3017 fc3c 71cd d03c f909 f8ba 9a69 bb3c
00000270: 9280 88bc 85d3 f1bb 6185 5e3c d2a7 833c
00000280: ea9d b1bc de4f f6bc e773 17bd fe0d 8dbc
00000290: cb33 773c 27fa b03c 70d4 d03c dea0 a9bc
000002a0: 6356 913b 2867 cc3c 571d e4bc 98b6 7a3c
000002b0: b07a 4fbc 969e 233b 8780 e9bc 4d56 f7bc
000002c0: c62f 313c 6182 fd3c 256e 383b 122a b63c
000002d0: 61ce 023d 7faf 1fbb 4740 1b3d 2248 09ba
000002e0: 3fc1 81bc 2104 7f3c b8b0 933c 60ef 6d3c
000002f0: b7ac 193d 21d9 633c c990 8e3c 6857 dc3c
00000300: 4cdc 38bd 5880 0abd 28c2 1bbd 2974 14bc
00000310: 3e96 0f3d e576 2abd be3c 553c 91af fd3c
00000320: f6e2 dbbb c9f2 b1bc 262f 10bd 46a6 8a3c
00000330: 3fc3 d03c b600 aebc 863e 993c eb6f 333c
00000340: d13b 0fbd e29c 163d 4ca8 5c3b 8f45 ebbb
00000350: b9b3 fbb9 93cf 87bc 81d5 4e3c 8ff3 1ebb
00000360: 62b9 d6bc d412 883c 365f 233d df75 88bc
00000370: 8690 0a3d 0d51 413c e406 d9bc 1f72 2c3c
00000380: a1c3 0a3c 91c9 05bd f7ea f83c 9c8a 133c
00000390: d9ad 91bb e4d8 8cbc 4aa4 b03b 6fd9 d9bc
000003a0: 1123 0bbd 9bd4 be39 a2bc da3a 8102 f3bb
000003b0: 31d7 133d d647 fc3c db19 903b 7245 0137
000003c0: 5178 5bbc 76f4 c1ba 0dee 3cbd 0dfd f7b9
000003d0: 8384 0d3d 0517 c0bc fd28 1bbd f029 6bba
000003e0: 7194 ca3c 26d2 85bc a6c7 8cbb 1bf8 1fbd
000003f0: 8c12 de3c baa5 a7bc 9c0c df3c fecb 2abd
0.004978735 0.03174887 0.01478936 0.00036469335 0.03618141 -0.0023537707 -0.041081417 -0.005035513
-0.024899201 0.02185775 0.022744337 0.039856296 -0.024244457 -0.006801728 -0.001610267 0.039688665
-0.0023478696 0.028248616 0.010032834 0.013055291 -0.010517076 0.011167854 0.034588 0.010072371
0.04628739 0.009911543 0.036825992 0.034654185 -0.037176423 -0.034604963 -0.02439902 0.03296052
0.034558687 0.026687227 -0.006690875 0.036689755 0.025671609 0.00077685725 0.012245039 -0.0047880053
0.044808555 0.025264513 -0.016782517 0.034622017 0.0404655 -0.015866423 0.040964417 0.0003186812
0.024073385 -0.008164853 -0.03515951 0.009605811 -0.0070459847 -0.015745368 -0.027075125 -0.030662015
-0.01763641 -0.0067162667 0.037860032 0.014096941 -0.0071661468 -0.013749585 -0.03729611 0.020416064
-0.017631495 -0.008710535 -0.029823694 -0.012540279 -0.022399845 -0.0015594612 0.022588007 0.031951554
-0.025257858 0.019018453 0.014036206 -0.020771567 0.018378237 -0.033535548 -0.03748813 0.009483249
0.01767543 -0.0013467979 -0.004954241 -0.022002524 -0.023177968 0.004972806 -0.018348582 0.011002051
0.009921136 -0.027209878 0.027633015 0.03465989 -0.0035213602 0.0021545696 0.0026308168 0.032221943
0.018155156 0.012157039 -0.039558716 0.025638334 -0.038946427 0.037686232 -0.015623751 0.045501154
0.018220473 0.021372965 0.042495895 -0.03971436 -0.017371377 -0.03380007 0.016159043 0.025140643
-0.03396763 -0.014439411 -0.030983899 -0.014802167 -0.018954651 0.039628062 -0.024878765 0.03536543
0.019472595 -0.005363578 0.0024219758 -0.03431829 -0.020431723 -0.039222375 0.010958326 0.006490334
-0.0138223395 -0.020492611 -0.0064211483 0.03091549 0.013458875 0.028270857 -0.0069586285 -0.01640661
-0.003186386 -0.0040146597 -0.018596139 -0.0037502323 0.007841738 -0.00047417212 -0.006099351 0.0015438283
0.0048071085 -0.034639135 -0.010558246 -0.008204855 0.02052105 -0.002909665 -0.021428045 0.029019281
0.030772775 0.025488587 -0.001892387 0.022877503 -0.01666287 -0.0073799514 0.013581605 0.016071234
-0.021681745 -0.03006738 -0.036975767 -0.017218586 0.015088032 0.021603657 0.025491923 -0.02070659
0.004435347 0.024951532 -0.027846022 0.015302323 -0.012663528 0.002496635 -0.02850367 -0.030192519
0.010814613 0.030945959 0.0028141823 0.022236858 0.0319351 -0.0024366078 0.037903097 -0.0005236884
-0.015839217 0.015564949 0.018028602 0.0145224035 0.03751823 0.013906748 0.017403023 0.026897147
-0.045131966 -0.033813804 -0.03802696 -0.009060898 0.03505539 -0.041617293 0.01301497 0.030967506
-0.0067104055 -0.021722214 -0.035201214 0.016924988 0.025483726 -0.021240573 0.018706571 0.010951976
-0.034969155 0.03677071 0.0033669649 -0.007179923 -0.00048008354 -0.016578471 0.0126241455 -0.002425406
-0.026211444 0.01661054 0.039885722 -0.016657768 0.033829235 0.011799109 -0.026492544 0.010525255
0.008469493 -0.03266293 0.030385477 0.009005215 -0.004445773 -0.017193265 0.0053906785 -0.026592938
-0.03396899 0.00036398027 0.0016688297 -0.00741607 0.036093894 0.030795973 0.0043976135 7.705168e-06
-0.013395385 -0.0014797586 -0.04612546 -0.0004730005 0.0345502 -0.023448477 -0.037880886 -0.0008970788
0.024728986 -0.016335558 -0.004296261 -0.03905497 0.027108453 -0.020464767 0.027227692 -0.04169845
