models/aug_bg_33_notr_0epoch_1.929loss_0.853acc.pt (torch, 863078 bytes, 24 tensors)

features.Conv2D_0.weight f4 [32, 1, 3, 3]
0	0x3e8cd55a	0.27506524
1	0xbd85809d	-0.06518672
2	0x3df5ff90	0.12011635
3	0xbe53757b	-0.20650284
4	0x3b333978	0.0027347486
5	0xbe8cf66c	-0.27531755
6	0xbe59c983	-0.21268277
7	0x3e9a5518	0.30143046
8	0xbe8c346d	-0.27383748
9	0xbe24106a	-0.16021886
10	0x3e8ffb24	0.28121293
11	0xbdcbe4a3	-0.09955718
12	0xbe64b672	-0.22335222
13	0x3dbf4af7	0.0934047
14	0xbe1ec526	-0.15504894
15	0x3e1dcea4	0.15410858
16	0xbda9638e	-0.08270942
17	0x3e3a247f	0.18177985
18	0x3d481975	0.048852403
19	0xbdeca3f0	-0.11554706
20	0x3e213be0	0.15745497
21	0x3d935353	0.07193627
22	0xbea5e046	-0.3239767
23	0xbd3ce0d0	-0.046112835
24	0x3e939844	0.28827107
25	0x3e28b43e	0.16475007
26	0x3df23bb6	0.11827795
27	0x3e43f650	0.1913693
28	0xbd2a6396	-0.04159888
29	0xbd9644b9	-0.073373266
30	0xbddf4552	-0.10901894
31	0xbc910451	-0.017702254
32	0x3cbe244d	0.023210669
33	0xbe12bd3a	-0.14329997
34	0xbe999b1c	-0.30001152
35	0x3e333694	0.17501289
36	0x3ca7d43f	0.020486949
37	0xbe71fd0d	-0.23631687
38	0xbca097fe	-0.019603726
39	0x3d851cf5	0.06499664
40	0xbe63675d	-0.22207399
41	0x3e4bd891	0.19906832
42	0x3e976dd6	0.29575986
43	0xbdcce39c	-0.100043505
44	0xbe8b5fca	-0.2722152
45	0xbda53ea7	-0.080685906
46	0x3ccd8ca8	0.025091484
47	0xbe01d122	-0.12677434
48	0x3e455360	0.19270086
49	0xbc1e0b36	-0.009646228
50	0x3d4a9c79	0.04946563
51	0xbe807bf5	-0.25094572
52	0x3e9b0ecf	0.30284736
53	0x3d9020dc	0.070375174
54	0xbe4a1766	-0.19735488
55	0xbe5a1344	-0.21296412
56	0x3deab354	0.114599854
57	0xbe28b7dd	-0.16476388
58	0xbc9c9a76	-0.019116621
59	0xbdf76547	-0.12079864
60	0xbdc0a06a	-0.094055966
61	0x3c4d5bcf	0.012534096
62	0xbe8d0305	-0.27541366
63	0x3dda76bd	0.10667179
64	0xbe75bea7	-0.2399851
65	0x3e7dadbd	0.24773307
66	0x3e3569a1	0.17716075
67	0xbdaf22d0	-0.08551562
68	0x3e313729	0.17306198
69	0x3e9b24be	0.3030147
70	0x3da1ae64	0.078945905
71	0xbe45972f	-0.19295953
72	0x3dfd5217	0.12369173
73	0x3e5056ac	0.20345563
74	0xbe85b67b	-0.26115784
75	0x3e5570e2	0.20843843
76	0xbd74f6a7	-0.05980554
77	0xbd9bfcc7	-0.07616573
78	0xbe728cfa	-0.23686591
79	0xbea0e848	-0.31427217
80	0x3e963143	0.2933446
81	0x3a312d80	0.0006758794
82	0xbea1a7fe	-0.3157348
83	0xbe4583a7	-0.19288503
84	0x3e596f8c	0.21233958
85	0xbe383acd	-0.1799118
86	0xbe3d4b22	-0.18485692
87	0xbdcb2f23	-0.099211
88	0xbe161192	-0.1465514
89	0xbd884a98	-0.06654853
90	0x3dfc5f6a	0.12322886
91	0x3e9fa62a	0.3118146
92	0x3e34338e	0.17597792
93	0x3e1e19ca	0.15439525
94	0x3e17bed1	0.14818884
95	0xbd8641cb	-0.06555518
96	0x3cbc6a90	0.023000032
97	0xbe957378	-0.29189658
98	0x3e41c24d	0.18921776
99	0x3e9a0723	0.3008357
100	0x3c50559c	0.012715723
101	0x3ea18b2a	0.31551486
102	0xbd83c535	-0.06434099
103	0x3cbb673e	0.022876378
104	0xbe272a81	-0.16324808
105	0x3e5e0109	0.21680082
106	0x3e511cc9	0.20421137
107	0x3e38f620	0.18062639
108	0xbe2d1d00	-0.16905594
109	0x3e2d4201	0.1691971
110	0x3e4dc411	0.20094325
111	0x3e461059	0.19342174
112	0x3e8bd8c3	0.27313814
113	0xbd8ac7c4	-0.067763835
114	0x3e0d1762	0.13778451
115	0xbe02f3fb	-0.12788384
116	0xbddf35be	-0.108989224
117	0xbe2fac2e	-0.17155525
118	0xbc23decc	-0.010001849
119	0x3d8b3e70	0.067990184
120	0xbe15ad0f	-0.14616798
121	0xbe92387e	-0.28558725
122	0xbd9267bd	-0.07148693
123	0x3e28560a	0.16439071
124	0xbda99173	-0.08279695
125	0xbdd9d33e	-0.106359944
126	0xbe86d28b	-0.26332507
127	0x3e5b8837	0.2143868
128	0xbcb78ea1	-0.022406878
129	0x3e0612b2	0.13093069
130	0xbdd959c1	-0.10612822
131	0x3e623d1a	0.22093621
132	0xbe190ce7	-0.14946328
133	0x3e17e5fb	0.14833824
134	0xbe91f63b	-0.2850817
135	0x3b87d39c	0.004145099
136	0xbe935646	-0.2877676
137	0xbe61fde4	-0.22069508
138	0xbe528a16	-0.20560488
139	0xbd9f6401	-0.07782746
140	0x3e67af2a	0.22625414
141	0xbe5dfe5e	-0.21679065
142	0xbe9edfd9	-0.31030157
143	0x3ea0d3a4	0.3141147
144	0xbd5295ac	-0.05141227
145	0xbe69dace	-0.22837374
146	0x3e2b84a4	0.16749817
147	0x3e62b9af	0.22141145
148	0xbde79e8c	-0.11309537
149	0x3e96abd3	0.29427966
150	0x3e0554c3	0.13020615
151	0xbe006951	-0.12540175
152	0x3e28ba71	0.16477372
153	0xbe3f9385	-0.18708618
154	0x3d02114a	0.03175477
155	0xbd694f30	-0.056960285
156	0xbe7b63be	-0.24549767
157	0xbe4e7c46	-0.20164594
158	0xbd963692	-0.07334627
159	0xbdd3af25	-0.103361405
160	0xbe3faf5f	-0.18719243
161	0xbe652e66	-0.22380981
162	0x3da78414	0.08179489
163	0xbd9c8ca9	-0.07644016
164	0xbcf11eca	-0.029433627
165	0x3e09917f	0.13434409
166	0x3cb8bff7	0.022552473
167	0xbea7720c	-0.32704198
168	0x3dceccb6	0.10097639
169	0xbe88fb83	-0.26754388
170	0x3e4a3243	0.19745736
171	0x3e834bae	0.25643677
172	0x3de35671	0.11100472
173	0x3dc41fa7	0.0957635
174	0x3e89732f	0.2684569
175	0x3ea29c40	0.31759834
176	0x3e577e5e	0.21044299
177	0xbe8f2caf	-0.27963778
178	0x3e80f72a	0.2518857
179	0x3df1a8f5	0.11799804
180	0x3e4f5dab	0.20250575
181	0xbea27b72	-0.31734806
182	0xbb3e4777	-0.0029034296
183	0x3e70d431	0.23518445
184	0x3e730726	0.23733196
185	0x3e8902fd	0.26760092
186	0xbe365ccf	-0.17808841
187	0xbdbbebc5	-0.09175829
188	0xbda90835	-0.082535185
189	0x3e03ba43	0.12864022
190	0xbde54a5b	-0.11195823
191	0x3dcd6de5	0.10030726
192	0x3d45e12b	0.04831044
193	0x3e0a559f	0.13509224
194	0x3e575dbb	0.21031849
195	0x3d8f1411	0.06986249
196	0x3e592837	0.21206747
197	0x3ea6ea30	0.32600546
198	0x3ae6a97f	0.0017598121
199	0xbbeb9fd6	-0.007190685
200	0x3e922c25	0.28549305
201	0xbe0dedb8	-0.13860214
202	0x3b26a456	0.0025427542
203	0xbd166beb	-0.036724012
204	0x3dd46cbf	0.10372304
205	0x3e35d3f7	0.1775664
206	0xbb8b058d	-0.004242605
207	0xbe31bf32	-0.17358091
208	0xbdbd085a	-0.092301086
209	0x3e3d0d36	0.18462071
210	0xbd794ea7	-0.060866024
211	0xbdc9834b	-0.09839495
212	0x3c23f74b	0.01000769
213	0xbdad61ec	-0.08465943
214	0x3d9c7654	0.07639757
215	0xbe8b5667	-0.27214357
216	0xbd59a848	-0.053139
217	0xbe7f1dac	-0.24913663
218	0xbea62658	-0.3245113
219	0xbe923f5e	-0.2856397
220	0x3d70cd66	0.058789633
221	0x3dfd0b96	0.123557255
222	0xbcefa211	-0.029252084
223	0xbdb42937	-0.087969236
224	0xbe99e25c	-0.3005551
225	0x3d3b09d6	0.045663677
226	0xbea6845f	-0.32522866
227	0xbc546f2a	-0.012965957
228	0xbe28a50e	-0.16469213
229	0xbd0454fb	-0.032307606
230	0x3e9fdbe8	0.31222463
231	0x3e9ba97f	0.30402753
232	0x3d3fe0eb	0.046845358
233	0xbe928679	-0.2861822
234	0x3e8fc996	0.28083485
235	0x3db52e20	0.08846688
236	0xbd845819	-0.06462116
237	0xbc90028b	-0.017579338
238	0x3e41e00d	0.18933125
239	0x3e35edda	0.17766514
240	0x3cb237c0	0.0217551
241	0xbe5abb7d	-0.21360584
242	0xbe891a9a	-0.26778108
243	0x3db67eb6	0.08910887
244	0x3e3cb160	0.18427038
245	0xbe72016d	-0.23633356
246	0x3e0ae335	0.13563235
247	0x3e237cb6	0.15965542
248	0x3e0e204a	0.13879505
249	0x3e3dc506	0.1853219
250	0xbe861af2	-0.26192433
251	0x3dede37c	0.11615655
252	0x3ea179a1	0.31538108
253	0x3db91c3f	0.09038591
254	0x3c99a49f	0.018755255
255	0xbcd67aa4	-0.026181526

features.Conv2D_0.bias f4 [32]
0	0xbe3a6722	-0.18203405
1	0xbdfb7928	-0.12278968
2	0xbe2f0296	-0.1709083
3	0x3d384956	0.044991814
4	0x3d888b8d	0.06667242
5	0x3e40cb95	0.1882766
6	0xbe60f006	-0.21966562
7	0x3e77e801	0.24209596
8	0x3e6e5108	0.23273098
9	0x3e2280a5	0.15869386
10	0xbe8b48a0	-0.27203846
11	0xbe82d2a1	-0.25551322
12	0xbd2bd415	-0.041950304
13	0xbe4d2b63	-0.20036082
14	0xbdd1c94a	-0.10243471
15	0x3e308129	0.1723677
16	0x3dafdc48	0.08586937
17	0xbded3039	-0.11581463
18	0xbd7ec598	-0.06220016
19	0x3e5e122b	0.21686618
20	0xbe5fbf19	-0.21850242
21	0xbe6d28de	-0.23160121
22	0xbe91f07d	-0.2850379
23	0x3c9be6ba	0.019030917
24	0x3e954702	0.29155737
25	0xbdb3ca9c	-0.08778879
26	0x3d253a8f	0.04033905
27	0xbea74799	-0.32671812
28	0x3ea50cb8	0.32236266
29	0x3e47a2f3	0.19495754
30	0x3e65ca67	0.22440492
31	0x3e106957	0.14102684

features.Conv2D_1.weight f4 [32, 32, 3, 3]
0	0x3d30c8e5	0.043160338
1	0x3d3d26a3	0.046179425
2	0x3d544487	0.051823165
3	0xbd3912d2	-0.045183964
4	0xbb54d801	-0.0032477381
5	0xbc83d4d8	-0.016092703
6	0x3c57aa68	0.013163187
7	0x3d508e15	0.05091675
8	0xbc429383	-0.01187599
9	0x3c7dea6a	0.015497783
10	0xbc5440b9	-0.012954884
11	0x3c4dab90	0.012553111
12	0x3d449f34	0.04800339
13	0xbc8988b1	-0.016788812
14	0x3c4f4d3a	0.01265269
15	0x3d3085e1	0.043096427
16	0x3c54c587	0.012986547
17	0x3d263110	0.040574133
18	0x3c2726fa	0.010202164
19	0xbd04f2e3	-0.032458197
20	0x3d08737c	0.03331326
21	0xbc26ecde	-0.0101883095
22	0x3c843329	0.016137676
23	0x3d1bf4bf	0.038075205
24	0xbd6e2586	-0.058141254
25	0xbd4e9524	-0.0504352
26	0xbc9ae2d4	-0.018906988
27	0xbd4850fa	-0.04890535
28	0xbd63c693	-0.055609297
29	0x3d0501a4	0.032472268
30	0xbce42c9f	-0.027853308
31	0x3d580655	0.052740414
32	0xbcd24fdd	-0.025672847
33	0x3d6288dd	0.055306304
34	0x3c4e28fb	0.012583013
35	0x3a3b3457	0.0007141283
36	0xbd454973	-0.04816575
37	0xbd085aa0	-0.03328955
38	0x3d646ae9	0.05576602
39	0xbaedb60f	-0.0018135923
40	0xbc7f26ba	-0.015573198
41	0x3c5c7917	0.013456604
42	0xbd45a8f8	-0.048256844
43	0xbd0c3c8e	-0.034237437
44	0xbd5145f6	-0.05109211
45	0x3a1f9720	0.0006087888
46	0x3d47f5a5	0.04881825
47	0xbca62e97	-0.020285888
48	0x3cda027e	0.026612516
49	0xbccb4ce1	-0.024816932
50	0xbcc39999	-0.023876952
51	0x3c7f7d8d	0.0155938985
52	0x3c2f2322	0.010689529
53	0x3c665239	0.014057689
54	0xbbe69ea4	-0.0070379544
55	0x3c25256e	0.010079725
56	0x3cd5699e	0.026051339
57	0xbd5d83a3	-0.054080617
58	0x3d63c22c	0.0556051
59	0xbd438497	-0.04773387
60	0x3d304542	0.0430348
61	0x3d347766	0.04405918
62	0xbc742f2b	-0.014903824
63	0xbc967733	-0.018367385
64	0x3cbc9bee	0.023023572
65	0x3cf516d9	0.029918121
66	0xbd6073f8	-0.054798096
67	0x3d0701c2	0.03296066
68	0x3d3e17f6	0.04640957
69	0x3cd30fc9	0.025764363
70	0xbd6efd22	-0.058346875
71	0x3d1f68b7	0.038918223
72	0xbc37da6a	-0.011221508
73	0x3bbd753f	0.005781799
74	0xbd35824a	-0.044313706
75	0x3c196b3d	0.0093639465
76	0xbc29ef87	-0.010372049
77	0xbcc277c1	-0.023738744
78	0x3c807fe8	0.01568599
79	0x3d0b72b9	0.034044955
80	0xbcc50bdc	-0.024053507
81	0x3caafc5d	0.02087229
82	0x3d6df9d3	0.05809958
83	0xbd68f562	-0.05687464
84	0x3cd8e9cd	0.026478672
85	0xbcb775bc	-0.022395007
86	0xbcea3287	-0.028588546
87	0xbc7d6c53	-0.015467721
88	0xbc54e092	-0.012992995
89	0x3c274bc2	0.010210933
90	0x3d4a4399	0.049380872
91	0x3d5768cd	0.05259018
92	0xbd495a39	-0.04915831
93	0x3aed71df	0.0018115601
94	0xbd783a4c	-0.06060247
95	0x3d51ed15	0.05125149
96	0x3be49465	0.006975698
97	0xbb9686de	-0.004593714
98	0xbcaeadfe	-0.0213232
99	0x3d41f699	0.047354314
100	0xbd35f085	-0.04441883
101	0x3cb3425e	0.021882232
102	0x3d22f8ec	0.03978817
103	0xbd795cd2	-0.060879536
104	0x3c040d05	0.008059745
105	0xbcf8724a	-0.030327935
106	0x3d671ce6	0.056424044
107	0xbd145aef	-0.036219534
108	0x3ca58e6c	0.020209514
109	0xbd67d89d	-0.056603063
110	0xbc64e2d8	-0.013970099
111	0x3ca4654e	0.020067837
112	0x3d0bb90c	0.03411202
113	0xbc3d757d	-0.011563656
114	0xba5677b2	-0.0008181288
115	0xbbbe0f23	-0.0058001443
116	0x3c178e54	0.009250242
117	0xbd5cb4ef	-0.05388349
118	0xbcb2c580	-0.021822691
119	0x3c3ccdc3	0.011523667
120	0x3ce3b896	0.027797978
121	0xbd37266a	-0.04471437
122	0x3cab8a8a	0.020940084
123	0xbb2eeaca	-0.0026690238
124	0xbce8d141	-0.028420093
125	0xbcf584fb	-0.029970637
126	0x3d30a230	0.043123424
127	0x3d108d9e	0.035291307
128	0x3d236f30	0.03990096
129	0x3b89c889	0.004204814
130	0xbca78e7b	-0.020453682
131	0xbcb0bca3	-0.021574324
132	0xbd280102	-0.041016586
133	0x3cf21cc5	0.029554734
134	0xbd57bf66	-0.052672766
135	0xbd199bde	-0.037502162
136	0xbd0d7d70	-0.034543455
137	0xbca73c02	-0.020414356
138	0x3bbb7b4f	0.0057214866
139	0x3c626d35	0.013819982
140	0x3d160e2b	0.036634605
141	0xbcc57a0b	-0.024106046
142	0xbd2304cb	-0.039799493
143	0x3d03146b	0.032001894
144	0x3cb4fc4a	0.022092957
145	0x3ba920db	0.0051613874
146	0xbd3a23e1	-0.045444373
147	0x3d1f3cc8	0.038876325
148	0x3bf7a876	0.007557924
149	0xbd4db6b7	-0.05022308
150	0xbcc3327a	-0.02382778
151	0xbc9f1872	-0.019420836
152	0xbc93bcf4	-0.018034436
153	0x3d3e0f6a	0.04640142
154	0x3c3a4426	0.011368787
155	0x3d111bdd	0.035426963
156	0x3cd889a6	0.026432823
157	0x3c58cde7	0.013232685
158	0xbc4f842e	-0.012665791
159	0xbd07add2	-0.033124752
160	0x3d10992f	0.035302337
161	0x3c62209d	0.013801721
162	0x3c8a75b9	0.016901838
163	0xbcefd765	-0.029277513
164	0x3cb1ea46	0.021718156
165	0x3c958c44	0.01825536
166	0xba878862	-0.0010340328
167	0x3d537bed	0.051631857
168	0x3d0e8736	0.034796916
169	0x3cb4cbbd	0.022069806
170	0x3ce3c0a6	0.027801823
171	0xbcb6aa37	-0.022297962
172	0xbd6f0035	-0.058349807
173	0x3c5c1755	0.013433297
174	0x3d3b60d2	0.045746632
175	0x3d0950fa	0.03352449
176	0xbcf6598f	-0.030072002
177	0x3b0abe30	0.002117049
178	0xbd3eacff	-0.0465517
179	0xbced0963	-0.02893514
180	0x3d485234	0.04890652
181	0xbd441b6c	-0.047877714
182	0x3d058bce	0.03260403
183	0xbd0e2bc9	-0.034709726
184	0x3d677419	0.056507204
185	0x3ccd3101	0.025047781
186	0x3ce24bf3	0.027624106
187	0x3bfdabd3	0.0077414303
188	0x3cc6c04d	0.024261618
189	0x3d0f544a	0.034992494
190	0xbd582de6	-0.052778147
191	0x3d4234e1	0.04741371
192	0x3ac162ed	0.0014754214
193	0xbcbb0e03	-0.02283383
194	0xbd00d863	-0.031456362
195	0x3d0a921f	0.03383076
196	0x3bd00a6c	0.0063488986
197	0xbd00998a	-0.031396426
198	0x3d3fa4d8	0.046788067
199	0x3d548597	0.051885214
200	0xbac33296	-0.0014892395
201	0x3d087225	0.03331198
202	0x3d0ce3f8	0.034397095
203	0x3c8730ed	0.016502822
204	0x3c8b6425	0.017015526
205	0xbcf63621	-0.030055108
206	0x3ca15c0c	0.019697212
207	0xbca70940	-0.020390153
208	0x3d5d137d	0.053973664
209	0x3cd8a8b6	0.026447635
210	0x3d516237	0.051119056
211	0x3c8faf6f	0.017539708
212	0x3cd0ee93	0.025504386
213	0xbcee1d25	-0.029066632
214	0x3d2a95e8	0.041646868
215	0xbce489f8	-0.02789782
216	0x3c322d41	0.010875047
217	0x3a5dedb9	0.00084659044
218	0x3be91a3c	0.007113723
219	0x39a31747	0.00031107126
220	0xbd4ad940	-0.049523592
221	0xbd3ee7da	-0.04660783
222	0x3d53beec	0.05169575
223	0xbc043e7a	-0.008071536
224	0xbc232d77	-0.00995957
225	0xbccfc085	-0.025360355
226	0x3cbb36a9	0.022853212
227	0x3c020e52	0.007937985
228	0xbcdbc78d	-0.026828552
229	0xbccd33f4	-0.025049187
230	0x3cb5c1a5	0.022187063
231	0xbce15eca	-0.02751102
232	0xbcb4ef7d	-0.022086853
233	0xbd0ca40b	-0.03433613
234	0x3c36663e	0.011132775
235	0x3d4d0f3b	0.050063353
236	0x3d49d9bc	0.049279913
237	0xbd07aed0	-0.0331257
238	0x3c414394	0.011795897
239	0x3c96e10e	0.018417861
240	0x3ce16d76	0.027518015
241	0xbd6960f8	-0.056977242
242	0x3c601e77	0.013679138
243	0x3d3808c6	0.044930242
244	0x3cddb63e	0.027064439
245	0x3d111146	0.035416864
246	0xbd1cf1ce	-0.03831654
247	0xbd651020	-0.05592358
248	0xbaaa1245	-0.0012975415
249	0xbcaf48b7	-0.021396978
250	0x3d065039	0.03279135
251	0xbd3f4e36	-0.046705447
252	0x3a81013a	0.0009842284
253	0x3d0e0629	0.034673844
254	0x3c4c0462	0.012452217
255	0x3c8f1d09	0.0174699

features.Conv2D_1.bias f4 [32]
0	0x3cb3246e	0.021867957
1	0x3c468810	0.012117401
2	0x3d07d873	0.033165406
3	0x3c9597bf	0.018260835
4	0x3d596c95	0.053082068
5	0x3cd2bdd2	0.025725279
6	0x3d5fb56e	0.054616384
7	0x3d505a16	0.050867163
8	0x3c030f0d	0.007999194
9	0x3d3c6fd0	0.04600507
10	0xbc15bcf3	-0.009139287
11	0xbc38769e	-0.011258749
12	0xbd6621cb	-0.05618457
13	0xbb40685e	-0.0029359083
14	0xbd116bad	-0.03550308
15	0x3d2487d5	0.040168602
16	0x3d2df1a3	0.04246677
17	0xbd165b13	-0.03670795
18	0xbd31964d	-0.04335623
19	0x3d121e50	0.03567344
20	0xbc055516	-0.008137962
21	0xbd613708	-0.054984123
22	0xbbeeb917	-0.007285248
23	0xbc544ee9	-0.012958267
24	0x3ca0d487	0.019632591
25	0x3d4b35d2	0.049611874
26	0x3b02dcae	0.001996796
27	0x3aa76756	0.0012771885
28	0xbd257b77	-0.04040095
29	0xbcadb0fd	-0.021202559
30	0xbd47d8c3	-0.048790704
31	0xbce6e6bb	-0.028186193

features.Conv2D_3.weight f4 [32, 32, 3, 3]
0	0x3d3e7351	0.046496693
1	0xbd5f98f9	-0.054589245
2	0xbc9b91d6	-0.018990438
3	0x3cc253f4	0.023721673
4	0xbc545b77	-0.01296126
5	0xbd0f0d2c	-0.03492467
6	0xbc3456f6	-0.011007061
7	0x3d4b97b3	0.04970522
8	0xbb9a22b4	-0.004703844
9	0xbc1709d8	-0.0092186555
10	0x3d5efa8b	0.054438155
11	0xbc8203f7	-0.015871031
12	0xbc05bd98	-0.008162878
13	0x3d1cace1	0.038250808
14	0x3cc5d722	0.024150435
15	0x3cd0df20	0.02549702
16	0x3d13e745	0.036109228
17	0x3ce8d8ff	0.028423784
18	0x3cf47d82	0.029845003
19	0x3cf6c0ff	0.030121325
20	0x3d30ca4f	0.043161687
21	0xbd4a380a	-0.04936985
22	0xbd53ca49	-0.051706586
23	0x3d24ed23	0.040265214
24	0x3c0f941c	0.008763339
25	0xbd5b41cf	-0.053529557
26	0xbc460014	-0.01208498
27	0xbaa3888a	-0.0012476605
28	0x3d4a2cd4	0.049359158
29	0x3c15d63d	0.009145317
30	0x3d027706	0.03185179
31	0x3d3fc188	0.046815425
32	0x3c8f9ab4	0.017529823
33	0xbd338f94	-0.0438381
34	0x3d47a64b	0.048742574
35	0x3b7b81f8	0.0038377028
36	0x3d170fd1	0.036880318
37	0xbd02cfdb	-0.031936508
38	0x3cd35db8	0.025801525
39	0x39b13eab	0.00033806762
40	0x3cc2b7ef	0.023769347
41	0xbd24e831	-0.040260497
42	0x3bd9d04d	0.006647146
43	0xbd19f4d1	-0.03758699
44	0xbc48fb5d	-0.012266961
45	0xbcb025b2	-0.02150235
46	0xbc3aba59	-0.011396968
47	0xbd6214e4	-0.055195704
48	0xbc6f4f49	-0.014606305
49	0x3d443bca	0.04790858
50	0xbcf63bbd	-0.030057782
51	0x3d0663e5	0.03281011
52	0x3ccdd0ec	0.025124036
53	0x3cfa739b	0.030572703
54	0xbd48a2c9	-0.04898337
55	0x3c378144	0.011200253
56	0xbbc6bd17	-0.0060650217
57	0x3b338aed	0.0027396039
58	0xbd1e7813	-0.03868873
59	0xbd238f08	-0.039931327
60	0xbd174865	-0.036934275
61	0x3aa6b4d3	0.0012718685
62	0xbc0642be	-0.0081946235
63	0x3d140a32	0.036142536
64	0xbd23a4ef	-0.039952215
65	0xbc73a565	-0.014870976
66	0x3d1e05e2	0.03857983
67	0x3c40e959	0.011774384
68	0x3c2461e0	0.010033101
69	0xbd34030d	-0.043948222
70	0x3bfb29ad	0.0076648802
71	0xbd46f625	-0.048574585
72	0xbbf1e013	-0.007381448
73	0x3ca8eb40	0.020619988
74	0xbc419a45	-0.011816566
75	0x3d310e23	0.043226372
76	0x3ceca1c0	0.028885722
77	0x3ce21a9b	0.027600577
78	0x3c1bbbd8	0.009505235
79	0x3b83ec7b	0.0040259934
80	0xbc50a188	-0.012733825
81	0x3d61f1ad	0.05516212
82	0x3d569130	0.052384555
83	0x3d2281b8	0.03967449
84	0x3cefb2e7	0.029260112
85	0x3c285be8	0.010275818
86	0xbd3d088d	-0.046150733
87	0x3b87cfc1	0.0041446392
88	0x3c579dbb	0.0131601645
89	0xbd3d5bb6	-0.04623004
90	0x3d54912a	0.05189625
91	0x3bc77598	0.0060870163
92	0xbd22fec0	-0.03979373
93	0xbc6ad262	-0.014332386
94	0x3d55b72c	0.05217664
95	0xbcc246d3	-0.023715412
96	0xbcf68e9b	-0.030097296
97	0x3c539aba	0.012915308
98	0x3d2b578f	0.04183155
99	0x3d4c11c4	0.04982163
100	0x3d3ac2a6	0.045595787
101	0xbc4d4771	-0.01252924
102	0xbc06f783	-0.008237722
103	0xbcab4807	-0.020908369
104	0xbce9bb24	-0.028531618
105	0x3c91dfc9	0.017806904
106	0x3d442c1e	0.047893636
107	0xbba8ac14	-0.0051474664
108	0x3d10ba8e	0.035334162
109	0x3ca6ed9c	0.020376973
110	0x3c8457ff	0.016155241
111	0xbd31baff	-0.043391224
112	0xbd4809c3	-0.048837435
113	0xbd0e7245	-0.034776945
114	0xbd500b14	-0.050791815
115	0xbd3120d4	-0.043244198
116	0xbd2ba39c	-0.041904077
117	0xbd508f17	-0.05091771
118	0xbd14e4a9	-0.03635088
119	0x3c9a047b	0.018800965
120	0x3d2962d9	0.041354034
121	0x3d408cb1	0.047009174
122	0x3d2b297d	0.041787613
123	0x3b2a713a	0.002600743
124	0x389f043c	7.5824995e-05
125	0xbaebcdbd	-0.0017990392
126	0x3b22dcaf	0.0024850776
127	0x3cd65987	0.026165737
128	0xbcee6981	-0.029103043
129	0xbd57bd45	-0.052670736
130	0xbcdaecf2	-0.026724312
131	0x3d33b2d3	0.043871712
132	0xbc39942e	-0.011326833
133	0x3d010cae	0.031506233
134	0xbd31f721	-0.04344857
135	0xbd3da6d8	-0.046301693
136	0x3b9a1646	0.004702362
137	0xbbc95e79	-0.006145295
138	0xbbe76824	-0.007061975
139	0xbd541814	-0.051780775
140	0x3d64b8dc	0.05584036
141	0xbd45d07a	-0.048294522
142	0x3d2c2c9a	0.042034723
143	0x3bd8a91c	0.0066119563
144	0x3d13f69e	0.036123864
145	0x3ccef8d2	0.025265131
146	0x3cdead09	0.027182119
147	0xbb72dcbc	-0.0037057837
148	0x3cbcb4bb	0.023035398
149	0xbceda8aa	-0.02901109
150	0x3c841e8f	0.016127853
151	0x3c7ce78f	0.015436067
152	0xbcad749a	-0.021173764
153	0xbbfed0d8	-0.007776361
154	0x3bb19fc6	0.005420658
155	0x3d3c9dd4	0.046048954
156	0xbd3cb7b6	-0.046073638
157	0xbd557e96	-0.052122675
158	0x3c9e4e70	0.019324511
159	0x3a4d31ed	0.0007827569
160	0x3cadf9ab	0.021237215
161	0xbd2f49b2	-0.04279489
162	0xbd25d0a2	-0.04048217
163	0x3cfba00e	0.030715968
164	0x3aba193b	0.0014198193
165	0xbd216448	-0.039402276
166	0x3c86043b	0.01635944
167	0xbd2507c4	-0.04029061
168	0x3c4c2451	0.01245983
169	0xbd61c42e	-0.055118732
170	0xbcb0404d	-0.021515036
171	0xbbeae8bc	-0.0071688574
172	0x3d6ff356	0.058581673
173	0x3d6a7135	0.05723687
174	0xbd4716bc	-0.048605666
175	0xbd415d88	-0.04720834
176	0xbc461245	-0.012089317
177	0xbc870592	-0.016482148
178	0x3d53fb4b	0.051753324
179	0xbcd83d89	-0.02639653
180	0xbcf7c9f9	-0.030247675
181	0xbc4fd3ac	-0.012684744
182	0xbd62e8e7	-0.055397894
183	0xba83eed4	-0.0010065683
184	0x3cc9a4c3	0.024614697
185	0x3d54adf9	0.051923726
186	0xbca77170	-0.020439833
187	0x3c1594b8	0.009129696
188	0xbd427aa9	-0.04748026
189	0x3cd7b298	0.026330277
190	0xbd300c4e	-0.042980485
191	0x3d343eb1	0.0440051
192	0x3c2ca0fb	0.010536428
193	0x3d2c27e5	0.042030234
194	0x3cc78544	0.024355538
195	0x3cc7976e	0.0243642
196	0x3cf7975a	0.030223537
197	0xbd067fd2	-0.032836743
198	0xbcee62e5	-0.029099891
199	0xbce8e67d	-0.028430218
200	0xbd424d57	-0.04743704
201	0x3cdf1ee5	0.027236411
202	0x3baf4bd9	0.005349618
203	0xbd1dbe27	-0.03851142
204	0xbd3d48c8	-0.046211988
205	0xbd38347e	-0.044971935
206	0xbc4a81ef	-0.01236008
207	0xbcaf3b87	-0.02139069
208	0xbd0ed876	-0.034874402
209	0x3c8e2edb	0.017356327
210	0x3d2d37cc	0.04228954
211	0xbbb9c402	-0.005669118
212	0xbad58026	-0.0016288802
213	0x3c2c02ab	0.010498683
214	0xbc85084b	-0.016239306
215	0xbc9f79ea	-0.019467313
216	0xbce71b68	-0.02821131
217	0xbcb0e2a6	-0.02159245
218	0x3d1cbf41	0.03826833
219	0xbc0233ae	-0.007946892
220	0x3d0b89dd	0.034067024
221	0xbc6aa431	-0.014321373
222	0xbce8e875	-0.028431157
223	0xbcff8db7	-0.031195505
224	0x3ce7781f	0.02825552
225	0x3c9ef5e1	0.019404354
226	0x3d069985	0.03286125
227	0x3c98df97	0.018661303
228	0x3d2a6e19	0.041608904
229	0xbc6b2f3a	-0.014354521
230	0xbd40d4af	-0.04707783
231	0x3bedb182	0.0072538266
232	0xbcb0cedb	-0.021583011
233	0xbd4e51fa	-0.050371148
234	0xbb098fd4	-0.002099027
235	0x3b97f2a0	0.0046370775
236	0x3d2d5c34	0.04232426
237	0x3d3c8cc7	0.046032693
238	0xbaf6823a	-0.0018807121
239	0xbcc88a6b	-0.024480065
240	0x3c213e62	0.009841533
241	0x38b768bb	8.7456276e-05
242	0xbc65126a	-0.013981441
243	0xbc2afb01	-0.010435821
244	0x3cea484c	0.028598927
245	0xbc5fb1d9	-0.013653242
246	0xbcdb888a	-0.026798505
247	0x3ae2cd22	0.0017303566
248	0xbd3886b4	-0.045050338
249	0xbd1c5973	-0.038171243
250	0xbbd03401	-0.0063538556
251	0x3d4f4719	0.050604913
252	0xbb46a254	-0.0030309157
253	0x3cf026d6	0.029315393
254	0x3ced422b	0.028962215
255	0xbd40e980	-0.047097683

features.Conv2D_3.bias f4 [32]
0	0xbd32dbc5	-0.04366662
1	0xbd4b562e	-0.049642734
2	0xbcf5b111	-0.029991658
3	0xbc524532	-0.01283388
4	0xb94ff86e	-0.00019833606
5	0xbc5ad0dd	-0.013355461
6	0xbd323ada	-0.043513156
7	0xbd0b61ca	-0.034028806
8	0xbc4e91a5	-0.012607967
9	0xbc24eb14	-0.010065813
10	0xbd67726c	-0.056505606
11	0x3c1b637e	0.00948417
12	0x3d6eee27	0.05833259
13	0x3cda417a	0.02664255
14	0xbd15f34c	-0.03660898
15	0xbd0fc109	-0.035096202
16	0xbc29bf29	-0.010360518
17	0x3c823044	0.015892155
18	0x3d0fb679	0.03508613
19	0x3d61b09a	0.05510006
20	0xbbe8ac7f	-0.0071006413
21	0xba2bbcd6	-0.0006551271
22	0x3d06e4ca	0.032933034
23	0x3d5fd023	0.054641854
24	0x3c14ab64	0.009074066
25	0xb9ee4a07	-0.00045450052
26	0x3c31215b	0.010811175
27	0x3d3903c6	0.045169614
28	0x3d701096	0.058609568
29	0x3c9ec1aa	0.019379456
30	0xbd1c8bc3	-0.038219225
31	0x3b32cc9a	0.0027282597

features.Conv2D_4.weight f4 [32, 32, 3, 3]
0	0xbd024dcd	-0.031812478
1	0xbafd4cdc	-0.0019325274
2	0xbd45d861	-0.048302058
3	0x3c49b811	0.012311951
4	0x3d3f914a	0.046769418
5	0xbce663a1	-0.028123679
6	0xbcc907fd	-0.024539942
7	0xbd46e717	-0.04856023
8	0x3d4086c6	0.04700353
9	0x3c475bbb	0.012167866
10	0x3d3d3bb0	0.0461995
11	0x3cd1c1e0	0.025605142
12	0xbd0d6120	-0.034516454
13	0x3cfb2bf3	0.030660605
14	0xbd1aad9f	-0.037763234
15	0xbd6a081c	-0.05713664
16	0xbc97020d	-0.018433595
17	0xbd532202	-0.051546104
18	0x3c9d955d	0.019236261
19	0x3b445a4d	0.002996105
20	0x3cb17092	0.021660123
21	0xbaa38d91	-0.0012478103
22	0x3d158e1e	0.036512487
23	0xbd22c788	-0.03974107
24	0x3d516166	0.051118277
25	0xbd5ab1ea	-0.05339233
26	0xbcea675b	-0.028613737
27	0xbd1a930c	-0.03773789
28	0x3cff3c87	0.031156791
29	0xbd6f05c9	-0.058355127
30	0x3aeeb5ed	0.0018212177
31	0xbd16c537	-0.036809172
32	0x3c0282e3	0.007965776
33	0x3b82dbc4	0.0039934833
34	0xbc837c4e	-0.016050484
35	0xbd6eea9f	-0.05832922
36	0x3cdcdacb	0.026959797
37	0x3c42e906	0.011896377
38	0x3cb164b4	0.021654464
39	0xbbc14a2d	-0.005898735
40	0xbc80a8b6	-0.015705448
41	0xbc45b9a0	-0.012068182
42	0x3c370beb	0.011172275
43	0xbd51663e	-0.051122896
44	0xbcf2f5cc	-0.02965822
45	0xbcd4c5e5	-0.02597327
46	0xbd7712d0	-0.060320675
47	0x3aa0d18c	0.0012269481
48	0x3d2f61d6	0.042817913
49	0xbd291c49	-0.04128674
50	0xbd2f161c	-0.042745695
51	0xbcf379d8	-0.029721186
52	0x3c05e5e3	0.008172485
53	0xbd139042	-0.036026247
54	0xbc31e38d	-0.010857475
55	0x3c41d96b	0.011831622
56	0xbd29baff	-0.0414381
57	0x3ce4688b	0.027881881
58	0x3ce201ce	0.027588751
59	0x3d068dec	0.03285019
60	0x3c1e5326	0.009663379
61	0x3d129b8a	0.035792865
62	0x3cd2c6e0	0.025729597
63	0xbcbfca95	-0.023412028
64	0x3d3ce297	0.04611453
65	0xbd33d52b	-0.043904465
66	0xbd3edf70	-0.046599805
67	0x3d38aa60	0.045084357
68	0x3cd9d3b5	0.026590208
69	0x3d2f6f6d	0.042830873
70	0x3d24aa44	0.04020144
71	0xbbcb6e42	-0.006208212
72	0xbccdc0af	-0.025116293
73	0x3cac66ca	0.021045107
74	0xbd2dcc3f	-0.042431112
75	0x3caee5c8	0.021349803
76	0xbc2185b6	-0.009858539
77	0xbd5b0d9e	-0.053479783
78	0x3d57870e	0.052619033
79	0x3c4326d0	0.011911109
80	0xbd0c7b85	-0.034297485
81	0x3ce68446	0.028139245
82	0xbc8d9cd8	-0.017286703
83	0xbc27f3dd	-0.010251013
84	0x3d5497d6	0.051902615
85	0x3c8d8a8d	0.01727798
86	0xbd3c7bd1	-0.046016518
87	0x3ce209eb	0.02759262
88	0xbd53cb0d	-0.051707316
89	0xbd05dec4	-0.03268315
90	0xbd18b5f6	-0.037282906
91	0xb986158d	-0.00025574528
92	0xbceca6da	-0.028888155
93	0x3a5f4d0c	0.0008518256
94	0x3baac37a	0.005211291
95	0x3c7c26be	0.015390096
96	0x3c033c20	0.00800994
97	0xbca3e8fd	-0.020008558
98	0x3cf220b1	0.029556604
99	0x3d29f053	0.041488957
100	0x3d037485	0.032093544
101	0x3d2d3cae	0.042294197
102	0xbcd049c8	-0.025425807
103	0x3c8c8f15	0.01715807
104	0xbcc50f52	-0.024055157
105	0xbcee7ad8	-0.02911131
106	0x3ce66e8a	0.028128881
107	0x3cb06763	0.021533674
108	0xbc9ead2d	-0.019369686
109	0x3cdaed20	0.026724398
110	0x3d01d1ef	0.03169435
111	0xbd07f111	-0.033188883
112	0xbd2e9122	-0.04261888
113	0xbcbd4fc8	-0.023109332
114	0x3d3e94a7	0.046528485
115	0x3c91cffc	0.01779937
116	0x3c37b69e	0.011212973
117	0x3c539adb	0.012915338
118	0x3d29ae70	0.041426122
119	0x3cb6be23	0.022307461
120	0x3d24e2ae	0.04025524
121	0x3c9accb4	0.018896438
122	0x3d5ed676	0.054403745
123	0xbcc05b9b	-0.02348118
124	0xbc614e8b	-0.013751636
125	0xbcaf351d	-0.021387631
126	0x3d1bd976	0.038049184
127	0x3d56cb0c	0.052439734
128	0x3c00daf3	0.007864702
129	0x3c12e3a8	0.00896541
130	0xbc20f451	-0.009823875
131	0x3ceada46	0.028668534
132	0x3d3f4f39	0.046706412
133	0xb9917f13	-0.00027751233
134	0xbc74ca21	-0.014940769
135	0xbb34511d	-0.0027514168
136	0x3cd852d1	0.026406677
137	0x3d2c82ba	0.042116858
138	0x3c8be0e3	0.017075008
139	0xbd2cccb7	-0.04218742
140	0x3c2421b1	0.010017798
141	0x3cd07d1e	0.025450286
142	0xbc972d91	-0.018454345
143	0xbcdc0d04	-0.026861675
144	0xbd40c85f	-0.04706609
145	0x3bdf7081	0.0068188314
146	0x3c77983c	0.015111979
147	0x3b3a5cf6	0.0028436757
148	0xbc89ec00	-0.016836166
149	0xba5909dc	-0.0008279362
150	0x3caa1ce7	0.020765735
151	0xbd3f6645	-0.04672839
152	0x3cc28260	0.023743808
153	0x38d8fad2	0.000103464015
154	0x3d0b9c10	0.03408438
155	0xbd30f717	-0.043204393
156	0x3d55cf69	0.052199755
157	0xbd6d51fd	-0.05793952
158	0xbc979564	-0.018503852
159	0xbc9b668b	-0.018969795
160	0x3c3c285f	0.011484235
161	0xbcfb3697	-0.030665679
162	0xbc97c76b	-0.018527707
163	0x3d54cd4f	0.05195361
164	0xbd593d82	-0.053037174
165	0x3c94eec6	0.018180262
166	0x3b85b6ed	0.0040806443
167	0x3c855c6d	0.016279424
168	0xbccdf45e	-0.025140937
169	0xbd319a91	-0.043360297
170	0xbcfb5796	-0.030681413
171	0x3d322a8c	0.043497607
172	0xbd0c4e78	-0.03425452
173	0xbc1e37f1	-0.009656892
174	0x3d6d35d3	0.05791266
175	0xbcaec056	-0.021331947
176	0x3b8d1668	0.0043056495
177	0x3d1fb27a	0.038988568
178	0x3c8a42cb	0.016877552
179	0x3d6a154b	0.057149213
180	0xbd044d81	-0.032300476
181	0xbd095283	-0.033525955
182	0xbaa34bb2	-0.0012458472
183	0x3cceebed	0.025258983
184	0xbd6b43b1	-0.057437602
185	0x3d3546bc	0.04425691
186	0x3bfa15c7	0.0076319906
187	0x3c5568ac	0.013025444
188	0x3d63f7e6	0.055656336
189	0x3ca113a9	0.019662695
190	0x3ca0900c	0.019599937
191	0x3c8f5591	0.017496856
192	0x3c8b46e5	0.017001579
193	0x3c96f044	0.018425114
194	0x3d47030f	0.0485869
195	0xbd3a74f3	-0.045521688
196	0x3d4386c5	0.047735948
197	0x3c0d2de6	0.0086169
198	0xbd3a35e7	-0.04546156
199	0xbbbaa509	-0.0056959433
200	0x3d372562	0.044713385
201	0x3d05b295	0.032641012
202	0xbc86c643	-0.01645196
203	0xbd576286	-0.052584194
204	0x3b72ae41	0.0037030133
205	0x3ab8d6fb	0.0014102155
206	0x3cc48f0c	0.023993991
207	0x3d0316c7	0.032004144
208	0xbc88c7f6	-0.016696911
209	0xbd1659a1	-0.03670657
210	0xbc551edc	-0.013007846
211	0x3c02bd5f	0.00797972
212	0xbd2e0483	-0.04248477
213	0xbbe32893	-0.006932327
214	0x3c945395	0.018106261
215	0x3ce58744	0.028018601
216	0x3cd36e1a	0.025809336
217	0xbc985fce	-0.01860037
218	0xbcf0a721	-0.029376568
219	0xbbd7ff33	-0.0065917014
220	0xbd035322	-0.032061704
221	0xbd1b8760	-0.0379709
222	0xbc30c1a5	-0.010788356
223	0x3c9600b5	0.018310884
224	0xbc07cdaf	-0.008288785
225	0x3c29628e	0.010338439
226	0x3cdb4cf1	0.026770087
227	0xbd4632d7	-0.04838833
228	0x3d4aaf2a	0.049483456
229	0xbd27d907	-0.040978458
230	0x3bd38472	0.0064549977
231	0xbcc07354	-0.023492493
232	0xbd53fd7c	-0.051755413
233	0xbcfddfb4	-0.030990459
234	0x3bbd4753	0.005776325
235	0x3d34abb0	0.044109046
236	0x3d00a217	0.03140458
237	0xbb532967	-0.0032220723
238	0x3cb7320a	0.022362728
239	0xbd4d4c6e	-0.050121717
240	0x3b2594f5	0.0025265787
241	0x3d6212ac	0.05519359
242	0x3d3a3ea8	0.04546991
243	0x3ba22f2d	0.0049494714
244	0x3ca71241	0.020394446
245	0x3d131a5a	0.035913803
246	0xbcfc2bec	-0.030782662
247	0x3d0ecfe5	0.034866232
248	0x3cba56e3	0.022746509
249	0xbd252ef5	-0.040327985
250	0xbd0ffbb9	-0.03515217
251	0x3d573dde	0.052549236
252	0x3d15b672	0.036550947
253	0x3c60630e	0.0136954915
254	0xbcd1a6a6	-0.02559216
255	0xbd20d1bb	-0.039262515

features.Conv2D_4.bias f4 [32]
0	0xbd3b2bfc	-0.045696244
1	0x3d215fe4	0.03939809
2	0x3d28221f	0.041048165
3	0x3cc2c54c	0.02377572
4	0xbd6b2efe	-0.057417862
5	0x3cb9dfb3	0.022689676
6	0xbce6c4c1	-0.028169991
7	0xbd6c071d	-0.05762397
8	0xbcdfee5b	-0.027335336
9	0xbd208f1e	-0.039198987
10	0xbc981c81	-0.01856828
11	0x3c8d4088	0.017242685
12	0xbd3c1aba	-0.045923926
13	0xbd322694	-0.043493822
14	0x3d7188fc	0.05896853
15	0x3d1af79f	0.037833806
16	0x3d49a35a	0.04922805
17	0x3cec31ca	0.028832335
18	0xbc7db23a	-0.015484387
19	0x3d0372f7	0.03209206
20	0xbbe366e0	-0.006939754
21	0x3c84c8d7	0.01620905
22	0xbb1b1142	-0.002366141
23	0x3cbb6412	0.022874866
24	0x3d011daf	0.03152245
25	0xbd664dad	-0.05622642
26	0xbc9b6f40	-0.018973947
27	0xbd514757	-0.051093426
28	0xbd03a6e2	-0.032141574
29	0xbc4ea10e	-0.012611641
30	0x3cb003c7	0.021486176
31	0x3d054e2b	0.03254525

features.Conv2D_6.weight f4 [32, 32, 3, 3]
0	0x3d37b45c	0.04484974
1	0xbc9edbb5	-0.019391874
2	0x3cb04910	0.021519214
3	0x3d433b31	0.04766387
4	0x3d2f5738	0.042807788
5	0xbc589e90	-0.013221398
6	0x3d3838b1	0.04497594
7	0xbce9df9e	-0.028549012
8	0xbc04a061	-0.008094878
9	0xbd352827	-0.044227745
10	0xbcb0cbd3	-0.021581566
11	0xbb8d049a	-0.004303527
12	0x3cd5b9e7	0.026089622
13	0x3b5c4302	0.0033609276
14	0xbce18721	-0.027530255
15	0x3d0063ea	0.031345285
16	0x3d28e9e1	0.04123867
17	0xbbd20e10	-0.006410368
18	0xbd153c59	-0.036434505
19	0xbc899abc	-0.016797416
20	0xbc04e372	-0.008110868
21	0x3d67559b	0.056478124
22	0xbd65a86d	-0.056068826
23	0x3d427d2f	0.047482666
24	0xbcfbff31	-0.030761333
25	0x3d2336a3	0.039847028
26	0xbc2a9e96	-0.010413786
27	0x3c56d1bf	0.013111531
28	0xbd37b7a6	-0.044852875
29	0x3d021e8a	0.031767406
30	0x3d0ba855	0.03409608
31	0x3cd75053	0.026283419
32	0xbccc8317	-0.024964852
33	0x3d364233	0.044496726
34	0xbb8258d2	-0.0039778734
35	0x3d30d268	0.04316941
36	0xbccd71dd	-0.025078708
37	0xbd34938b	-0.04408602
38	0xbd1becd7	-0.038067665
39	0xbd426680	-0.047461033
40	0xbcad76d9	-0.021174835
41	0x3d4ede24	0.05050482
42	0xbbc6d7e6	-0.0060682176
43	0x3ca4f27c	0.020135157
44	0xbc8ff9a7	-0.017575098
45	0xbd5fb049	-0.054611478
46	0x3bdbd510	0.0067087486
47	0xbd49ec04	-0.049297348
48	0x3d4ae45e	0.049534194
49	0x3c19a0e7	0.009376741
50	0xbcfe4432	-0.031038377
51	0xbd101e8a	-0.035185374
52	0x3cb2cc28	0.021825865
53	0xbd61392b	-0.05498616
54	0x3a9e0060	0.0012054555
55	0xbd22026c	-0.03955309
56	0xbcfe6f6e	-0.031058993
57	0x3b78aa91	0.0037943462
58	0x3ce61284	0.028085
59	0x3c37a4fb	0.011208768
60	0xbc1ddc84	-0.009635095
61	0xbc249e75	-0.010047545
62	0xbd62f841	-0.055412535
63	0xbd31a5c2	-0.04337097
64	0x3d23c04d	0.039978314
65	0xbb12fbc1	-0.002242789
66	0xb9f5aa7d	-0.00046857065
67	0x3d0f45c7	0.034978654
68	0xbcdaabe4	-0.026693292
69	0xbaa2452a	-0.0012380232
70	0x3d2312b4	0.03981276
71	0x3d5744c7	0.052555826
72	0xbd4a2663	-0.049353015
73	0xbc6746a1	-0.01411596
74	0x3c776c31	0.015101478
75	0x3d089abe	0.0333507
76	0x3d322912	0.0434962
77	0x3d55f585	0.0522361
78	0x3b9a326c	0.004705718
79	0x3cfbc85b	0.030735185
80	0x3cb28f54	0.02179686
81	0x3ba789ad	0.005112848
82	0xbcb3e8d7	-0.021961613
83	0x3d388f03	0.04505826
84	0x3be7b818	0.007071506
85	0xbb96a8a6	-0.004597741
86	0xbd0c0263	-0.034181964
87	0xbc06ccb0	-0.008227512
88	0xbc446e8d	-0.011989248
89	0xbd178ffa	-0.03700254
90	0x3ca5faf3	0.020261263
91	0x3d475f85	0.04867508
92	0xbcb960e0	-0.022629201
93	0x3d3e9d1b	0.046536546
94	0xbd2e0a28	-0.042490155
95	0x3d3e3ca6	0.046444558
96	0xbcffbcd2	-0.031217966
97	0xbc8fd460	-0.017557323
98	0x3c0b3849	0.008497306
99	0x3b9ba963	0.004750417
100	0x3c771114	0.015079755
101	0xbc9d28fa	-0.019184578
102	0xbd4f9c35	-0.05068608
103	0x3c5b0a19	0.013369107
104	0x3cb767aa	0.022388298
105	0xbadc38da	-0.0016801611
106	0xbc1e4e58	-0.009662233
107	0x3d60a2f9	0.054842923
108	0x3d00c108	0.03143409
109	0x3c34573c	0.011007126
110	0xbcc8bc61	-0.024503889
111	0x3d165a66	0.036707304
112	0xbc200353	-0.009766418
113	0xbd0f991e	-0.035058133
114	0xbd5f613c	-0.05453609
115	0x3d4811cd	0.0488451
116	0xbd260f87	-0.04054215
117	0x3d476d39	0.048688147
118	0x3d1f9b86	0.038966678
119	0x3b8f8e1e	0.0043809554
120	0x3ce03031	0.02736673
121	0xbab58778	-0.0013849577
122	0x3d3be954	0.045876816
123	0xbba5aa60	-0.0050557107
124	0xbd2ad0a5	-0.041702885
125	0xbc1cd26f	-0.009571656
126	0xbd42bd55	-0.047543842
127	0x3d019335	0.03163453
128	0xbc549a6e	-0.012976272
129	0x3b2c6fd6	0.0026311777
130	0xbd4ab8af	-0.049492534
131	0xbcd86ded	-0.026419604
132	0x3d3abf34	0.0455925
133	0xbcf32cb5	-0.029684404
134	0xbc32e436	-0.010918668
135	0xbd230532	-0.039799877
136	0xbd4b6f49	-0.049666677
137	0xbc9ba886	-0.019001257
138	0x3ce65198	0.028115079
139	0xbce28e0e	-0.027655628
140	0x3d4110c4	0.04713513
141	0x3d1e677b	0.038672905
142	0xbd0528a1	-0.03250945
143	0xbd5341d5	-0.051576454
144	0xbd1d4acc	-0.03840141
145	0xbd31f5cc	-0.0434473
146	0xbd6c65b2	-0.05771417
147	0xbcd7b358	-0.026330635
148	0x3c4eb089	0.012615331
149	0x3ba70b9b	0.005097819
150	0x3ccc44a6	0.024935078
151	0xbc38a1e4	-0.0112690665
152	0x3d30959b	0.043111425
153	0xbd3e5b29	-0.046473656
154	0xb99e96d8	-0.00030248496
155	0xbd0d1956	-0.03444799
156	0xbd3fa6d7	-0.04678997
157	0x3a1a2d63	0.0005881397
158	0x3ba95f8e	0.0051688617
159	0x3cab625b	0.020920923
160	0xbd6f3379	-0.058398698
161	0x3d313820	0.043266416
162	0xbd4a2349	-0.049350057
163	0xbbb92e6c	-0.005651286
164	0xbd3b62bb	-0.045748454
165	0xbc8ae2aa	-0.016953785
166	0x3c10454b	0.008805583
167	0xbd2b7152	-0.041856118
168	0x3d525375	0.051349122
169	0x3d611dd5	0.05496009
170	0xbd175288	-0.036943942
171	0x3d034db1	0.032056514
172	0x3d551e02	0.05203057
173	0x3c9c41a9	0.019074278
174	0xbd09f1f2	-0.033678003
175	0xbcbcff41	-0.023070933
176	0x3c185728	0.009298123
177	0x3d297138	0.04136774
178	0xbab3f2e3	-0.0013729002
179	0xbbded28f	-0.006800003
180	0xbcf7316d	-0.030174935
181	0xbd344db7	-0.044019427
182	0xbd180a25	-0.03711905
183	0x3d343733	0.043997955
184	0xbc519813	-0.012792605
185	0xbcfe6527	-0.031054093
186	0x3d2d426f	0.042299684
187	0x3d1f1665	0.038839716
188	0x3c96612e	0.018356886
189	0x3d54bcf3	0.05193801
190	0xbc951da0	-0.018202603
191	0x3d22875e	0.039679877
192	0x3c921905	0.017834196
193	0x3a9c2ecd	0.0011915803
194	0xbb729732	-0.003701639
195	0xbd1b60f5	-0.037934262
196	0xbd3e984f	-0.04653197
197	0xbc52555f	-0.012837737
198	0xbd16c9d6	-0.03681358
199	0xbd1f34f5	-0.038868863
200	0x3d353e77	0.044249024
201	0x3c4f237b	0.012642737
202	0xbd096ba3	-0.033549916
203	0xbd07878c	-0.033088252
204	0xbd138885	-0.036018867
205	0x3a9a0148	0.001174965
206	0x3d518c22	0.05115903
207	0x3ba50f4c	0.005037224
208	0xbc74d73a	-0.014943892
209	0xbd105b4a	-0.03524331
210	0xbd2fb992	-0.042901583
211	0x3caafffa	0.020874012
212	0x3b02ebc3	0.001997695
213	0xbd678834	-0.056526378
214	0xbc3b2e71	-0.011424647
215	0x3d4a2315	0.049349863
216	0xbd206462	-0.039158233
217	0xbce88cbb	-0.028387418
218	0x3cdc4c11	0.02689174
219	0xbcb9c1b3	-0.02267537
220	0xbc410993	-0.011782068
221	0x3d4acc36	0.049511157
222	0x3cc5dbe1	0.024152698
223	0x3cee52b2	0.029092167
224	0x3ce11b7c	0.027478926
225	0xbd2a5f35	-0.041594703
226	0x3b0a3586	0.0021089031
227	0xbc599e6e	-0.0132824015
228	0x3b1e3792	0.002414201
229	0xbcb1dcbe	-0.021711703
230	0x3ccd660b	0.025073072
231	0xba16215b	-0.0005727016
232	0xbc2e51cb	-0.010639618
233	0xbb26417a	-0.0025368617
234	0x3d51e421	0.05124295
235	0xbca3367c	-0.019923441
236	0xbd5aeaf3	-0.05344672
237	0xbd271155	-0.040788013
238	0xbd4626eb	-0.04837696
239	0xbd362833	-0.04447193
240	0xbbf961b8	-0.007610526
241	0xbb3d30d7	-0.0028868222
242	0xbc8cbe0b	-0.017180463
243	0x3b1c01eb	0.0023804854
244	0x3d121e2a	0.035673298
245	0xbd0f9f26	-0.035063885
246	0xbd02b5de	-0.031911723
247	0x3a036dd4	0.0005013619
248	0xbc4f6897	-0.0126592135
249	0x3ceda101	0.029007437
250	0x3d20c175	0.039246995
251	0x3d0e5697	0.034750547
252	0xbcb1a535	-0.021685222
253	0x3d3b6a14	0.04575546
254	0xbcc77b25	-0.024350712
255	0x3b7198a4	0.0036864663

features.Conv2D_6.bias f4 [32]
0	0x3d44f2eb	0.048083227
1	0xbbe315fb	-0.0069301105
2	0x3c514384	0.012772445
3	0xbd1d0ffa	-0.038345315
4	0xbb8d4c4b	-0.0043120733
5	0xbd6ef0cc	-0.05833511
6	0x3ca2f872	0.019893859
7	0xbcec6ee0	-0.028861463
8	0x3cf62a79	0.03004955
9	0xbc07a8bb	-0.008279975
10	0x3c1a5610	0.009419933
11	0xbd0fd823	-0.035118233
12	0xbc376f57	-0.011195979
13	0xbd61a9f2	-0.055093713
14	0xbc7a8a6f	-0.015291794
15	0x3d614b2c	0.05500333
16	0xbbcca438	-0.0062451623
17	0xbd5bfd87	-0.05370858
18	0xbcc89475	-0.024484852
19	0xbcd955ab	-0.026530107
20	0x3d21ad12	0.039471693
21	0x3d5fd6b6	0.054648124
22	0x3d5dd275	0.054155786
23	0x3d3f57cf	0.0467146
24	0x3ccbb568	0.024866775
25	0xbd3c272e	-0.045935802
26	0x3d20779f	0.03917658
27	0xbb99fb32	-0.0046991343
28	0xbc1f48ce	-0.009721948
29	0xbd272956	-0.040810905
30	0xbd284b62	-0.041087516
31	0xbb5ac232	-0.003337991

features.Conv2D_7.weight f4 [32, 32, 3, 3]
0	0x3cd1b9cb	0.025601288
1	0xbd3d63ae	-0.04623764
2	0x3d0cef48	0.034407884
3	0xbd635e45	-0.055509824
4	0xbc4829db	-0.01221701
5	0x3ae34b41	0.0017341153
6	0xbc9f10c8	-0.019417182
7	0xbcacb125	-0.021080563
8	0x3bec6a36	0.00721481
9	0xbbfd1c78	-0.007724341
10	0x3d05e15c	0.032685623
11	0xbca8b040	-0.020591855
12	0xbc8bc568	-0.017061904
13	0xbc998a01	-0.018742563
14	0xbb4ed77b	-0.0031561542
15	0xbd5b1f5c	-0.053496704
16	0xbc8f7943	-0.017513877
17	0xbd434545	-0.047673482
18	0x3c992d33	0.01869831
19	0x3c58e902	0.013239147
20	0xbc9f476c	-0.019443236
21	0x3bf0d988	0.0073501505
22	0xbce2907d	-0.027656788
23	0xbd37a8d6	-0.04483875
24	0xbd177fcf	-0.036987122
25	0xbd75a358	-0.05997023
26	0xbd403749	-0.046927724
27	0xbd368e36	-0.044569217
28	0x3d345fda	0.044036724
29	0x3d54eb91	0.051982466
30	0xbc15d807	-0.009145743
31	0xbd44d9c2	-0.048059233
32	0xbc3e0d41	-0.01159984
33	0xbc4f40af	-0.012649699
34	0x3d03d691	0.03218705
35	0x3d2366f6	0.039893113
36	0xbca0b41d	-0.019617135
37	0xbd70923a	-0.058733203
38	0xbd3681d5	-0.04455741
39	0xbc4647f2	-0.012102114
40	0x3b46b24b	0.0030318673
41	0x3ae05a8d	0.001711683
42	0x3c0c0d22	0.008548053
43	0x3d5b790c	0.053582236
44	0x3bdbaa19	0.006703627
45	0x3d01fd20	0.03173554
46	0x3b2c655f	0.002630554
47	0xbbf7f34c	-0.007566845
48	0xbd5dfc80	-0.05419588
49	0x3cafb72a	0.021449644
50	0xbcba334a	-0.022729535
51	0x3d6502b4	0.05591078
52	0xbbb393c7	-0.005480263
53	0x3bc2977f	0.00593847
54	0x3c8f4c7b	0.017492523
55	0x3a12750e	0.00055869005
56	0xbca98493	-0.0206931
57	0x3d2d6af6	0.042338334
58	0xbc8a72b8	-0.016900405
59	0x3cc8e17b	0.02452158
60	0xbccaad91	-0.024740966
61	0x3c6108d8	0.013735019
62	0xbcf4e7ca	-0.029895682
63	0x3c9bfb15	0.019040624
64	0x3c94205e	0.01808184
65	0xbd04e235	-0.03244229
66	0x3cbcf0ef	0.023064105
67	0x3d50f0f5	0.051011045
68	0x3d26599e	0.04061281
69	0x3d415483	0.047199737
70	0xbcca15c8	-0.02466859
71	0xbaf293c6	-0.0018507175
72	0x3c4e9eae	0.012611074
73	0x3cea927e	0.028634306
74	0x3d43ec5a	0.047832824
75	0xbc9fad14	-0.01949171
76	0x3d46cbad	0.048534084
77	0xbca15953	-0.019695913
78	0xbc1a878f	-0.009431734
79	0xbd2d0e88	-0.042250186
80	0xbc53991c	-0.012914922
81	0x3d2c6259	0.04208598
82	0xba1cfe47	-0.0005988818
83	0xbc9fe766	-0.019519519
84	0xbd2dadf5	-0.042402226
85	0xbbd8928d	-0.006609267
86	0xbce16520	-0.02751404
87	0xbd4ff130	-0.050767124
88	0x3d1ab702	0.037772186
89	0x3c1eaca7	0.009684718
90	0x3d2a2831	0.041542236
91	0x3c10c563	0.008836123
92	0xbcbba876	-0.022907477
93	0x3d76d1ad	0.060258556
94	0xbce60889	-0.028080242
95	0x3d3981e6	0.045289896
96	0x3ab3d13c	0.0013718973
97	0xbd1897d0	-0.037254155
98	0xbd2725d0	-0.040807545
99	0x3c63a19c	0.013893511
100	0x3d5d5274	0.05403371
101	0xbcad96e7	-0.02119012
102	0xbc1283e5	-0.008942579
103	0x3d1a30ef	0.037644323
104	0xbd3cf93d	-0.04613613
105	0xbce91fd4	-0.02845756
106	0xbcc09a97	-0.023511214
107	0x3d2109ea	0.039316095
108	0xbd561159	-0.052262638
109	0xbd5b4226	-0.05352988
110	0x3c62eaa7	0.013849891
111	0xbd595d72	-0.053067632
112	0xbc9d3054	-0.019188084
113	0x3ce559b1	0.02799687
114	0xbc4db552	-0.012555437
115	0xbd33a862	-0.043861754
116	0xbb59411e	-0.0033150385
117	0xbc9bf2a3	-0.019036597
118	0x3d08a523	0.03336061
119	0x3cbb02e2	0.022828523
120	0xbd19deea	-0.037566103
121	0x3d186171	0.037202302
122	0x3d3a79d6	0.045526348
123	0xbca5cb2a	-0.020238478
124	0x3c0cd51b	0.00859573
125	0x3d3bd71d	0.045859445
126	0x3d2a6382	0.041598804
127	0xbbbc12c6	-0.0057395427
128	0x3bd74ca2	0.0065704146
129	0xbc800cfb	-0.01563119
130	0x3bc6a13e	0.006061702
131	0x3c4b3718	0.012403272
132	0xbbdd42f3	-0.0067523657
133	0xbd3b1aa1	-0.045679692
134	0x3cda6e31	0.026663871
135	0xbc84ab4a	-0.016194958
136	0x3d45f6bd	0.04833101
137	0xbd278612	-0.040899344
138	0xbc71d431	-0.014760063
139	0x3d3ad1d3	0.04561026
140	0x3ca796a7	0.020457579
141	0xbd0ebd2a	-0.03484837
142	0xbcd05245	-0.025429854
143	0xbc345089	-0.011005529
144	0xbd45ecbd	-0.048321474
145	0xbca91b55	-0.020642916
146	0xbc9a66be	-0.01884782
147	0x3d106955	0.035256702
148	0xbd5975e1	-0.053090934
149	0xbd22ee61	-0.039778117
150	0x3d33ee4f	0.04392844
151	0xbbb37ead	-0.0054777474
152	0x3d59c941	0.053170446
153	0x3d267d34	0.040646747
154	0xbcecbb4c	-0.028897904
155	0x3d0d6f11	0.03452975
156	0xbd2088f9	-0.039193127
157	0xbcba7884	-0.022762544
158	0x3d3b740a	0.04576496
159	0x3cba9664	0.02277679
160	0xbcdb267a	-0.026751745
161	0xbcea0ef8	-0.02857159
162	0xbb762376	-0.0037557757
163	0xba36922b	-0.000696453
164	0x3d047f17	0.032347765
165	0x3cb683b1	0.022279592
166	0xbc923042	-0.017845277
167	0x3b2bb157	0.0026198232
168	0xbd176e84	-0.03697063
169	0x3c653c18	0.013991378
170	0xbcb27f42	-0.021789197
171	0x3cf76da4	0.030203648
172	0x3cabd684	0.020976312
173	0xbd16a94b	-0.036782544
174	0x3cd5e98c	0.02611234
175	0xbc157532	-0.00912218
176	0x3c0c8c91	0.0085784355
177	0x3d0562d9	0.03256497
178	0xbcec818b	-0.028870365
179	0x3cd4fa26	0.025998186
180	0xbc059b91	-0.008154766
181	0xbbccc796	-0.0062493784
182	0x3d4cb298	0.049975008
183	0xbd06f2dc	-0.032946452
184	0xbd4d2c16	-0.05009087
185	0xbc935086	-0.017982733
186	0xbc066a46	-0.0082040485
187	0x3d36b65b	0.0446075
188	0xbd659a34	-0.056055263
189	0x3d767c97	0.060177412
190	0xbd532c35	-0.05155583
191	0x37ea8db9	2.7960969e-05
192	0x3bec71b5	0.0072157034
193	0x3cdeab9b	0.027181437
194	0xbcbd3feb	-0.023101768
195	0x3cbb191e	0.022839125
196	0x3c9dc1b6	0.019257408
197	0x3d623883	0.055229675
198	0x3c9c4972	0.01907799
199	0x3cf29745	0.029613147
200	0x3d1b792d	0.03795736
201	0xbd4950a4	-0.04914917
202	0x3d58ba26	0.0529119
203	0xbcbe638d	-0.023240829
204	0xbce4a35a	-0.027909923
205	0xbd1931b9	-0.037400935
206	0x3cce3119	0.025169896
207	0x3cde5d9c	0.027144246
208	0x3d39aa4a	0.045328416
209	0xbd0e9e07	-0.034818675
210	0xbd520104	-0.0512705
211	0x3ce3f079	0.027824627
212	0x3d005f20	0.03134072
213	0xbc22235c	-0.009896126
214	0xbc8dfa4f	-0.01733127
215	0xbce1d317	-0.027566476
216	0x3d177340	0.036975145
217	0xbd4bcd49	-0.049756322
218	0xbc546df9	-0.012965673
219	0xbc6076cf	-0.013700201
220	0xbcbddb88	-0.02317597
221	0xbd43a4ea	-0.047764696
222	0x3d09dc93	0.03365762
223	0x3d68bd50	0.056821167
224	0x3c8d183b	0.017223468
225	0xbd104897	-0.035225477
226	0xbd064d40	-0.032788515
227	0x3d124872	0.03571362
228	0xbcd268ad	-0.025684679
229	0x3c04c164	0.008102749
230	0x3c8bdec0	0.017073989
231	0x3cab658b	0.020922443
232	0x3d22117d	0.03956746
233	0xbc8e95a6	-0.017405342
234	0xbd161538	-0.03664133
235	0x3cc77ee8	0.024352506
236	0xbbfaf08d	-0.0076580704
237	0x3ce1a194	0.027542867
238	0xbd19a387	-0.037509467
239	0x3bbda32e	0.005787275
240	0xbd0c5399	-0.034259412
241	0x3cf7eb31	0.030263515
242	0xbcd8f120	-0.026482165
243	0xbd57101c	-0.052505597
244	0x3c19d73c	0.009389695
245	0x3ce0c7e2	0.027439062
246	0x3d6d5bef	0.057949003
247	0x3d1d14b2	0.038349815
248	0x3c7b34fa	0.015332455
249	0x3bd0b4ee	0.0063692247
250	0xbc2c1053	-0.010501939
251	0x3ca69858	0.020336315
252	0xbd544319	-0.0518218
253	0x3c59a75c	0.0132845305
254	0xbd57b1fe	-0.05265998
255	0x3cc0eb1a	0.023549605

features.Conv2D_7.bias f4 [32]
0	0x3cce5f54	0.02519194
1	0x3cb9ec3f	0.022695659
2	0xb8a7d5e3	-8.00302e-05
3	0xbce25160	-0.027626693
4	0x3ceb3216	0.028710406
5	0xbca06edc	-0.019584112
6	0x3cd848d2	0.02640191
7	0xbd31da64	-0.043421164
8	0x3ab4ef11	0.0013804157
9	0x3d3277a2	0.043571122
10	0x3c82bbcf	0.015958695
11	0xbb313a75	-0.00270429
12	0x3be0affc	0.0068569165
13	0x3c8aaa98	0.016927049
14	0x3d343618	0.0439969
15	0x3c99073a	0.018680204
16	0x3a47dff7	0.0007624621
17	0xbbb12500	-0.005406022
18	0x3c9eb500	0.019373417
19	0x3bb12625	0.0054061585
20	0xbd5687d2	-0.052375622
21	0xbca8d187	-0.020607723
22	0xbc7c0eb6	-0.015384367
23	0xbd4ed964	-0.05050029
24	0xbc46ff0c	-0.012145769
25	0xbc72276f	-0.0147799095
26	0x3ca42638	0.020037755
27	0xbd21d901	-0.03951359
28	0xbc5a63a4	-0.01332942
29	0xb8a1089f	-7.678684e-05
30	0xbcdb927c	-0.026803248
31	0xbcb60d7a	-0.022223223
