models/aug_bg_33_notr_0epoch_1.915loss_0.870acc.pt (torch, 863078 bytes, 24 tensors)

features.Conv2D_0.weight f4 [32, 1, 3, 3]
0.038862552 0.18184589 0.15599142 -0.05740896 0.27991045 -0.022450328 0.22533739 0.16246192
0.14110215 -0.13250686 -0.27832463 0.013005151 0.31633157 -0.09320974 0.11212651 0.053905215
0.15825465 -0.12497682 -0.17674717 -0.10870986 -0.036304582 0.051900268 -0.072714776 -0.17201519
-0.26970756 -0.2418311 0.17962623 0.26154226 0.1583374 0.2101881 0.019014498 -0.08158001
0.21637246 0.15009801 -0.2641354 0.24020338 0.121186316 0.2928986 0.09097757 0.11323257
-0.1378505 -0.06152998 0.2893455 0.31117755 -0.011085212 -0.033220515 0.17483482 0.26636043
-0.28986904 -0.25259686 -0.19789906 0.10035217 0.1912653 0.14475267 -0.14373533 -0.11318833
-0.140578 0.121538736 -0.12266167 -0.13476425 0.11472852 0.03109213 -0.25857562 -0.05156483
0.13629496 0.17170957 -0.0457316 0.17573775 -0.119123474 -0.31639642 0.13429795 -0.053309884
0.046217125 0.06237841 0.19733472 -0.00034612228 -0.0060308287 -0.32422265 -0.2050566 -0.25415063
0.07663838 -0.08501255 -0.13879359 0.20238021 -0.19989535 -0.11221457 -0.09965197 0.14741863
0.29117015 -0.08490511 0.11849309 -0.26996386 -0.06315229 -0.14109197 0.17315862 -0.11189499
0.11162287 0.030038074 -0.29016316 0.14213029 -0.058631 -0.1201278 -0.22446404 0.21874571
0.02626584 0.1751696 0.07443732 -0.30040446 -0.30773044 0.18659668 0.113769144 -0.086275764
-0.020747712 0.09820027 -0.28568134 0.10163543 0.009329381 0.028831568 -0.31866956 0.19880868
-0.25766322 -0.31039906 -0.06227828 0.30765674 0.28156492 -0.22711587 -0.24561633 -0.019524945
-0.013734163 0.07146353 0.010216028 -0.06482166 -0.29369187 0.07684844 0.043270912 -0.07353091
-0.045260496 -0.17431785 0.015355683 -0.1550423 -0.041767005 0.32094324 -0.21569058 0.20071189
0.049792252 0.05358967 -0.13551994 0.29058698 0.06014833 -0.03232341 -0.1614072 -0.20497514
-0.3185137 0.17315914 -0.09303265 -0.12263365 0.049332496 -0.096621275 0.055318616 -0.30857956
-0.14425133 0.0058199447 0.20990856 0.042124905 0.23645471 -0.028729329 -0.03934843 -0.07275186
-0.27264494 -0.07408502 -0.21963413 0.32134825 0.22124696 0.14032261 -0.20471254 -0.13843857
0.13105981 0.20751569 0.20105839 -0.1797406 -0.1392282 -0.26212582 -0.16944319 -0.31371832
-0.30081087 0.16066635 -0.29620633 0.2903361 0.13189095 -0.15486518 -0.2337985 0.26975897
-0.019395648 -0.32641208 0.28896764 -0.24141665 -0.13852207 -0.11594008 0.002764672 0.116055965
0.1961977 0.05654751 0.23869808 -0.2096068 0.058892757 0.33216625 -0.22762999 -0.29746577
-0.14477916 0.044721454 -0.23563217 -0.10590532 -0.21191528 0.073994294 0.2291482 -0.22304267
0.20986034 0.3074154 0.2528922 0.19197549 0.18227717 0.28051797 0.2194556 0.18320368
-0.25041777 -0.14005275 -0.22465342 -0.0111490805 0.321387 -0.31173578 -0.100262314 0.16278763
-0.3164232 -0.17611527 0.102371395 0.2693321 0.12085649 -0.2240993 -0.08112848 0.15330555
-0.28069344 0.18393104 -0.12991217 -0.24658664 0.17319342 -0.069459304 0.23514068 -0.30008796
-0.063243374 -0.009389366 -0.23881836 0.18841173 -0.25653067 -0.29434744 0.022187117 0.3042073
00000000: 572e 1f3d cf35 3a3e 37bc 1f3e a825 6bbd
00000010: 6c50 8f3e c0e9 b7bc d8be 663e 6b5c 263e
00000020: 157d 103e e1af 07be 9180 8ebe 8f13 553c
00000030: 36f6 a13e c0e4 bebd 95a2 e53d b7cb 5c3d
00000040: 820d 223e d9f3 ffbd 36fd 34be 46a3 debd
00000050: 1db4 14bd 6095 543d 7ceb 94bd c024 30be
00000060: 1c17 8abe 92a2 77be f0ef 373e dee8 853e
00000070: 3323 223e 8d3b 573e 4bc4 9b3c 6c13 a7bd
00000080: be90 5d3e 4bb3 193e c13c 87be e0f7 753e
00000090: 8830 f83d cef6 953e 7352 ba3d 7ae6 e73d
000000a0: ae28 0dbe dc06 7cbd 1825 943e aa52 9f3e
000000b0: c09e 35bc 3c12 08bd e607 333e 6560 883e
000000c0: b769 94be 6054 81be 0da6 4abe 7085 cd3d
000000d0: 0ddb 433e 0b3a 143e 5b2f 13be 48cf e7bd
000000e0: aef3 0fbe 4de9 f83d 0b36 fbbd a4ff 09be
000000f0: c9f6 ea3d ecb4 fe3c 0664 84be a535 53bd
00000100: e890 0b3e a2d4 2f3e 0f51 3bbd 99f4 333e
00000110: 02f7 f3bd b6fe a1be 6785 093e 775b 5abd
00000120: 2b4e 3d3d 8180 7f3d 1d12 4a3e bf77 b5b9
00000130: 429e c5bb 8300 a6be 5bfa 51be 0820 82be
00000140: 95f4 9c3d 0f1b aebd e81f 0ebe c23c 4f3e
00000150: 5eb1 4cbe c1d0 e5bd 5516 ccbd e9f4 163e
00000160: 4114 953e bbe2 adbd 81ac f23d b438 8abe
00000170: fd55 81bd 6a7a 10be 7e50 313e 3329 e5bd
00000180: 889a e43d 6812 f63c 4490 94be 9a8a 113e
00000190: 0f27 70bd 9005 f6bd e7d9 65be e0fe 5f3e
000001a0: 752b d73c a95f 333e 9872 983d 9dce 99be
000001b0: d88e 9dbe 3313 3f3e ccff e83d 59b1 b0bd
000001c0: 1bf7 a9bc 391d c93d d344 92be 3c26 d03d
000001d0: 43da 183c 2e30 ec3c a828 a3be 8194 4b3e
000001e0: 6fec 83be a0ec 9ebe 8217 7fbd 2f85 9d3e
000001f0: 4729 903e 1091 68be d982 7bbe c7f2 9fbc
00000200: 4105 61bc 795b 923d 2161 273c 38c1 84bd
00000210: c85e 96be b762 9d3d d73c 313d 6097 96bd
00000220: 1263 39bd 6180 32be 6796 7b3c 69c3 1ebe
00000230: e113 2bbd ac52 a43e fedd 5cbe 6b87 4d3e
00000240: f6f2 4b3d d880 5b3d bdc5 0abe d1c7 943e
00000250: 185e 763d 8d65 04bd ee47 25be 01e5 51be
00000260: 3a14 a3be a150 313e e787 bebd 5a27 fbbd
00000270: df10 4a3d 60e1 c5bd c695 623d 24fe 9dbe
00000280: 9fb6 13be 3cb5 be3b 45f2 563e 2a8b 2c3d
00000290: 2f21 723e c559 ebbc d22b 21bd edfe 94bd
000002a0: 1e98 8bbe e3b9 97bd c5e7 60be c287 a43e
000002b0: 908e 623e bbb0 0f3e 2aa0 51be d7c2 0dbe
000002c0: 8b34 063e fe7e 543e 40e2 4d3e eb0d 38be
000002d0: d691 0ebe 5b35 86be 8482 2dbe b09f a0be
000002e0: e203 9abe b885 243e 5ba8 97be efa6 943e
000002f0: 6c0e 073e fa94 1ebe e068 6fbe d91d 8a3e
00000300: 9fe3 9ebc 7c1f a7be 91f3 933e ed35 77be
00000310: bbd8 0dbe fe71 edbd 802f 353b c0ae ed3d
00000320: 0de8 483e 5d9e 673d 456d 743e 2aa3 56be
00000330: 8839 713d b211 aa3e d617 69be 6f4d 98be
00000340: fd40 14be d82d 373d 8f49 71be e3e4 d8bd
00000350: 5200 59be 528a 973d d3a5 6a3e 4c65 64be
00000360: a1e5 563e 8d65 9d3e 167b 813e 3995 443e
00000370: dea6 3a3e 0da0 8f3e f8b8 603e bf99 3b3e
00000380: c236 80be fd69 0fbe 8c0b 66be a2aa 36bc
00000390: d68c a43e d59b 9fbe 5456 cdbd cdb1 263e
000003a0: 3902 a2be 9057 34be 18a8 d13d e6e5 893e
000003b0: 9c83 f73d 497a 65be b026 a6bd 21fc 1c3e
000003c0: 0db7 8fbe 6b58 3c3e b207 05be 3581 7cbe
000003d0: 9e59 313e ae40 8ebd b8c8 703e 21a5 99be
000003e0: be85 81bd dbd5 19bc cd8c 74be 01ef 403e
000003f0: fd57 83be b5b4 96be c2c1 b53c 0fc1 9b3e

features.Conv2D_0.bias f4 [32]
-0.31409812 -0.3042097 0.25613183 -0.09570255 0.24923727 0.30146992 -0.21759062 -0.25503126
-0.0744789 -0.08767467 -0.17127146 0.16846621 0.27545196 0.25461718 -0.24595863 0.30358213
-0.2538846 -2.9401608e-06 0.21078597 0.33138645 -0.13589229 -0.2202183 -0.03676679 0.03525962
-0.24041183 0.06874956 0.33316427 -0.1396576 -0.17625019 -0.17293932 -0.20332998 0.17174967
00000000: 78d1 a0be 60c1 9bbe b623 833e b3ff c3bd
00000010: 0e38 7f3e 445a 9a3e 13d0 5ebe 7593 82be
00000020: 6588 98bd c78e b3bd c961 2fbe 6882 2c3e
00000030: 0a08 8d3e 2f5d 823e 94dc 7bbe 1e6f 9b3e
00000040: 2afd 81be 944f 45b6 47d8 573e 7cab a93e
00000050: 5927 0bbe e880 61be c698 16bd 646c 103d
00000060: 852e 76be 92cc 8c3d 8294 aa3e 6702 0fbe
00000070: ee7a 34be 0117 31be bc35 50be 25df 2f3e

features.Conv2D_1.weight f4 [32, 32, 3, 3]
0.031387124 0.007829606 0.008046725 -0.017596945 -0.03137373 -0.036954485 0.056554716 -0.026344704
0.046173815 -0.04071509 0.01573753 0.019546852 -0.024248077 -0.029906966 -0.026322944 -0.04410778
-0.012614718 -0.028686946 0.016948713 0.022174424 -0.029372463 -0.008703431 -0.043369155 0.037021145
-0.005946073 -0.055538416 -0.009904416 -0.04585769 -0.037856687 0.018723344 -0.053388238 -0.017395211
0.060546156 0.0016634854 0.04139374 -0.032649565 0.0019243584 -0.011913351 0.008009695 0.0010460579
0.0024501898 0.006297308 0.034208383 -0.04109629 0.052465003 0.029262474 -0.021283763 -0.048490185
0.0039132764 0.017019754 -0.022876149 -0.03430611 0.049965695 0.021796009 -0.0394249 0.032215632
0.048571847 -0.0016685242 -0.032834638 -0.0278153 -0.0129842935 -0.0417422 -0.001614489 -0.02309083
-0.014111171 -0.043831 -0.038640864 -0.0049893586 -0.04635663 0.0036721898 -0.0055151195 0.011686227
-0.021921199 -0.04932132 0.03656548 -0.054270305 0.041987415 0.017994773 -0.034673467 -0.006565802
0.027842881 -0.0033823792 -0.0023486165 -0.05574631 0.055491988 0.035207644 0.034984794 0.037543893
0.0035626015 0.03591105 -0.010804353 0.033657856 -0.04668271 0.0027506794 -0.014296252 -0.042613734
0.011492169 0.05369213 0.023948653 -0.03735849 0.037565246 0.04666688 -0.03746588 0.044878233
-0.0138685955 0.02087406 -0.0057324334 -0.041360512 -0.043497425 -0.051558934 -0.0044233 0.016495207
0.00041355446 -0.0062713753 -0.0023228235 0.026748598 -0.038074594 -0.060061675 -0.033018462 -0.020259293
0.02212825 -0.010243633 0.042882897 -0.057616998 -0.014754373 0.027151419 0.007110317 0.040561374
0.0034422625 -0.05349149 0.019865787 -0.054539725 -0.05124321 0.026838649 0.028355312 0.03505601
0.022785092 -0.033751894 -0.02263758 0.005321722 0.026028631 -0.017421115 0.03527631 0.01652683
-0.0073647453 0.005111443 -0.0071950895 0.044276174 -0.043160107 0.009026233 0.03320737 0.021933489
0.022252707 -0.016213223 -0.010920044 0.024265517 -0.04627381 0.0073614884 -0.056141675 0.032129724
0.037186947 0.01230302 -0.057457786 -0.049906086 0.017547585 -0.032776903 0.055228453 0.017696664
-0.002192794 0.019234292 -0.033675842 -0.045710288 0.03676038 0.05794361 -0.050925575 -0.02582533
0.0555707 0.015736328 0.0026850093 0.05715877 -0.025636569 0.0009813828 0.0043928046 -0.02714965
-0.044476334 -0.057047192 0.05536504 0.023008982 0.021545244 -0.014952612 -0.03992691 0.0017951714
0.036108986 -0.050661463 0.0068665347 -0.01117145 -0.010288819 0.019649377 -0.03194193 -0.0050183376
0.023846239 -0.054531712 -0.04872643 0.04120509 -0.043253686 0.006161709 -0.047660634 -0.010280865
0.042281143 -0.022766143 -0.033238232 -0.05171367 0.05299399 -0.012283995 6.209265e-05 -0.022516418
0.027099399 0.0601093 -0.04419995 0.040417798 -0.03849415 -0.018503893 0.03751734 0.050989177
-0.019282022 -0.056120392 0.0193692 0.048614588 0.0036629685 0.017451491 0.04694289 -0.018590579
-0.02528144 0.04781516 -0.010383734 0.021655029 0.008217248 -0.008729419 -0.047929358 -0.04648969
-0.054603517 -0.04765252 0.035550717 -0.049243618 -0.051483903 -0.043290988 -0.01332186 -0.01403654
0.009158712 -0.025715634 0.013243867 -0.0059922407 0.020594161 -0.04946783 0.020857023 0.05371194
00000000: c98f 003d bf47 003c 69d6 033c 7827 90bc
00000010: be81 00bd 965d 17bd eba5 673d d9d0 d7bc
00000020: c120 3d3d dec4 26bd feeb 803c b820 a03c
00000030: e7a3 c6bc 74ff f4bc 37a3 d7bc 5caa 34bd
00000040: f6ad 4ebc e300 ebbc 07d8 8a3c 23a7 b53c
00000050: 859e f0bc d698 0ebc dba3 31bd 7ca3 173d
00000060: 47d7 c2bb 407c 63bd 2246 22bc 46d5 3bbd
00000070: 9d0f 1bbd b361 993c a0ad 5abd 6780 8ebc
00000080: 3fff 773d 4f09 da3a 7b8c 293d 8dbb 05bd
00000090: c13a fc3a 3730 43bc 193b 033c e11b 893a
000000a0: 5d93 203b a659 ce3b 171e 0c3d 9554 28bd
000000b0: 8be5 563d dbb7 ef3c 495b aebc a59d 46bd
000000c0: f13a 803b 036d 8b3c c366 bbbc 9084 0cbd
000000d0: d4a8 4c3d 8b8d b23c 017c 21bd 8af4 033d
000000e0: 46f3 463d 62b2 daba 9d7d 06bd e9dc e3bc
000000f0: 13bc 54bc def9 2abd 439d d3ba fb28 bdbc
00000100: 8a32 67bc 2288 33bd e245 1ebd c67d a3bb
00000110: 73e0 3dbd 1fa9 703b 2db8 b4bb 9777 3f3c
00000120: 1694 b3bc 2705 4abd afc5 153d 8a4a 5ebd
00000130: fffa 2b3d c669 933c c405 0ebd f025 d7bb
00000140: c116 e43c e8aa 5dbb 3feb 19bb 3e56 64bd
00000150: 914b 633d e435 103d 374c 0f3d a0c7 193d
00000160: 897a 693b 7717 133d be04 31bc d2dc 093d
00000170: 5f36 3fbd be44 343b d43a 6abc bd8b 2ebd
00000180: a749 3c3c 47ec 5b3d f72f c43c 3705 19bd
00000190: 04de 193d c525 3f3d d375 19bd 3dd2 373d
000001a0: 1b39 63bc 1400 ab3c 23d7 bbbb a469 29bd
000001b0: 5b2a 32bd 762f 53bd 54f1 90bb f520 873c
000001c0: 57d2 d839 1c80 cdbb 833a 18bb e01f db3c
000001d0: 1bf4 1bbd 3b03 76bd 5e3e 07bd d1f6 a5bc
000001e0: 4e46 b53c e9d4 27bc faa5 2f3d cdff 6bbd
000001f0: 53bc 71bc a76c de3c a9fd e83b af23 263d
00000200: 9597 613b e519 5bbd 93bd a23c 0c65 5fbd
00000210: 66e4 51bd badc db3c 6649 e83c e496 0f3d
00000220: cda7 ba3c 6d3f 0abd 7272 b9bc d761 ae3b
00000230: ff39 d53c bab6 8ebc e47d 103d 4663 873c
00000240: f653 f1bb e47d a73b c9c4 ebbb ef5a 353d
00000250: a7c8 30bd c4e2 133c 7404 083d dcad b33c
00000260: 4f4b b63c 98d1 84bc fce9 32bc 7ac8 c63c
00000270: 9b89 3dbd a438 f13b d0f4 65bd 759a 033d
00000280: 5751 183d 9b92 493c db58 6bbd 536a 4cbd
00000290: f4bf 8f3c 1341 06bd 3b37 623d 98f8 903c
000002a0: fbb4 0fbb 3c91 9d3c aeef 09bd b63a 3bbd
000002b0: 0d92 163d 4756 6d3d 5697 50bd a48f d3bc
000002c0: 1a9e 633d 79e9 803c fbf6 2f3b 501f 6a3d
000002d0: c803 d2bc bea1 803a 84f1 8f3b f168 debc
000002e0: d12c 36bd 51aa 69bd 74c6 623d 557d bc3c
000002f0: a77f b03c cdfb 74bc 668a 23bd f54b eb3a
00000300: 04e7 133d 6582 4fbd ab00 e13b 7508 37bc
00000310: 6f92 28bc bbf7 a03c 8bd5 02bd de70 a4bb
00000320: 3059 c33c a55c 5fbd 5d95 47bd abc6 283d
00000330: c72a 31bd 29e8 c93b cc37 43bd 1371 28bc
00000340: fe2e 2d3d 1080 babc d024 08bd b7d1 53bd
00000350: 3a10 593d cf42 49bc bd37 8238 5a74 b8bc
00000360: 8fff dd3c 2b35 763d 020b 35bd 228d 253d
00000370: 0bac 1dbd 7a95 97bc c8ab 193d 07da 503d
00000380: 55f5 9dbc 7fde 65bd 28ac 9e3c 1720 473d
00000390: 6a0e 703b 6ef6 8e3c 3047 403d 454b 98bc
000003a0: 061b cfbc d4d9 433d 8920 2abc e365 b13c
000003b0: a3a1 063c d605 0fbc 9351 44bd f96b 3ebd
000003c0: f0a7 5fbd 4a2f 43bd a19d 113d adb3 49bd
000003d0: c9e0 52bd e451 31bd ee43 5abc 84f9 65bc
000003e0: 6c0e 163c 98a9 d2bc cefc 583c 8f5a c4bb
000003f0: 16b5 a83c c89e 4abd 59dc aa3c 0d01 5c3d

features.Conv2D_1.bias f4 [32]
-0.046256848 0.044017516 0.0019318094 -0.02373452 0.015218919 0.008642742 0.05758421 -0.0075865
-0.0290348 -0.04712366 -0.019612102 0.03639987 0.02470113 0.050598316 0.009957301 0.044415034
0.03597115 0.058004707 0.025208632 0.043563355 0.053690564 0.0040645525 0.0025033588 -0.031009769
0.014707632 -0.039616082 0.05008975 0.043077998 0.046233267 0.012641398 0.049134694 -0.0144892195
00000000: d277 3dbd b64b 343d c434 fd3a e56e c2bc
00000010: c658 793c 4a9a 0d3c 6cdd 6b3d 2d98 f8bb
00000020: 64da edbc bd04 41bd 8fa9 a0bc 0818 153d
00000030: 065a ca3c 2e40 4f3d f323 233c 8aec 353d
00000040: 7c56 133d 5896 6d3d 5582 ce3c 7d6f 323d
00000050: a3ea 5b3d f02f 853b 640f 243b 3308 febc
00000060: 48f8 703c 7944 22bd e92a 4d3d 8e72 303d
00000070: 185f 3d3d de1d 4f3c 7641 493d 3164 6dbc

features.Conv2D_3.weight f4 [32, 32, 3, 3]
0.024654923 -0.053155046 -0.037664145 -0.035479773 -0.022141626 0.025224714 0.014126538 -0.040145867
-0.03969606 0.053869106 -0.028085055 -0.019019796 0.035634354 -0.019235317 0.025487576 0.03567224
-0.021551214 -0.012258346 -0.058536142 0.043856144 -0.022169704 -0.026279395 0.009089342 0.057604168
-0.010558368 0.0006607571 0.027529854 -0.0050670104 -0.013059409 0.02193993 -0.007239164 0.033252053
0.03742715 -0.028176706 -0.018560896 0.044080276 -0.04158768 -0.031519584 -0.013953093 -0.011227064
0.033140812 -0.039799973 -0.04804013 0.05228532 -0.010512355 0.009761372 0.04442248 0.011244033
0.02160578 -0.032367174 0.04911014 0.020214245 0.058217138 -0.023891626 0.03642324 -0.04132143
0.049518276 0.051211603 -0.0201012 -0.036012717 -0.013618494 -0.056739483 0.028870044 -0.059016448
-0.04668552 0.0029078035 0.042932548 0.049716353 -0.023831934 -0.020064814 -0.016117774 0.03364332
-0.041212723 0.028420612 -0.01319897 -0.02584868 0.0422543 -0.05158354 -0.00464785 0.032521904
0.042133898 -0.040297735 0.054629978 -0.028063338 0.02513052 -0.0571885 -0.035151977 0.039575994
0.058312837 -0.014124186 0.002505779 -0.05076549 -0.051343728 0.027412893 -0.006423964 -0.055901185
-0.019739937 0.031136421 -0.03323646 0.034822293 -0.0030310499 0.0302973 -0.03229421 0.02158864
0.021775711 -0.030848907 0.054577596 0.010873498 0.046809945 -0.05670909 0.021447003 0.038078386
-0.027734712 0.026907759 -0.03810984 0.00034955004 -0.014295358 0.043963537 -2.679239e-05 -0.03728105
-0.046836924 0.018281465 0.04927487 0.012692097 -0.04804143 0.034629468 0.024915371 0.055536922
-0.030593386 -0.042384773 -0.025321675 0.019754618 -0.04816527 -0.034663875 0.034547728 -0.008550576
-0.056372374 -0.0441398 0.01768211 0.0063007353 -0.04083606 -0.03115726 0.0042332634 -0.040368255
0.05633496 0.03621077 -0.04464301 -0.029837823 0.04760839 0.032994248 -0.042161737 -0.0046761693
0.011614239 0.04234233 -0.008332155 -0.0009501931 -0.02998111 -0.016215315 -0.03054053 0.006916842
-0.043341804 -0.05451166 -0.01744048 0.020508941 0.038373157 0.024388224 0.026551818 0.019650625
-0.031003524 -0.0155343 -0.00919255 -0.024084479 0.004921171 0.050462667 0.054981433 0.00919557
-0.034196787 0.033872467 -0.051581882 -0.03792468 0.0018149634 0.01654478 0.037757322 -0.007868712
0.02828229 -0.01846217 0.03928065 -0.039525103 -0.014374771 0.04577818 0.0014257482 -0.008280843
-0.03514074 -0.007065959 -0.027310587 -0.048692066 -0.047960803 0.025334872 -0.04809854 -0.049270794
-0.043391857 0.01326593 -0.027544806 -0.010224318 -0.0030694604 0.0010487882 0.04879213 -0.00434719
0.022555517 -0.008656249 0.057177447 0.037547648 -0.0013166774 0.059720922 0.010479229 -0.047322787
-0.040754482 -0.03763783 -0.00022079023 0.048575256 0.0029548472 -0.0020576213 0.026611432 0.030796673
0.05218304 0.0033686047 -0.012097121 -0.044177674 0.009407955 0.021055724 0.026782028 0.019614238
-0.053968888 -0.00055205525 0.053286172 -0.008010892 -0.030045018 0.045579247 -0.044664547 -0.04964004
0.03825479 -0.019720335 -0.03551108 -0.050765596 -0.042001337 0.009482888 -0.0025317 0.0055536954
0.026839986 -0.031246016 -0.0092738215 -0.009639928 0.05744728 0.022288818 -0.052736565 0.042506885
00000000: 1ff9 c93c 1bb9 59bd b845 1abd 3d53 11bd
00000010: 5b62 b5bc 0fa4 ce3c ff72 673c fe6f 24bd
00000020: 5698 22bd daa5 5c3d a112 e6bc 67cf 9bbc
00000030: 54f5 113d 6293 9dbc 52cb d03c 0e1d 123d
00000040: 2c8c b0bc 3bd7 48bc 98c3 6fbd 80a2 333d
00000050: 3d9d b5bc e347 d7bc 77eb 143c 59f2 6b3d
00000060: 01fd 2cbc a936 2d3a 4a86 e13c 2a09 a6bb
00000070: 22f7 55bc 5ebb b33c 8236 edbb 4e33 083d
00000080: 364d 193d d6d2 e6bc 050d 98bc 858d 343d
00000090: d857 2abd ae1a 01bd 849b 64bc b8f1 37bc
000000a0: a9be 073d 4c05 23bd bac5 44bd 2229 563d
000000b0: 033c 2cbc 29ee 1f3c 59f4 353d e538 383c
000000c0: 9bfe b03c 7193 04bd b727 493d 5898 a53c
000000d0: 1875 6e3d 5fb8 c3bc 8930 153d a940 29bd
000000e0: add3 4a3d 42c3 513d 46ab a4bc 1282 13bd
000000f0: 1b20 5fbc a967 68bd df80 ec3c 3bbb 71bd
00000100: 5139 3fbd d990 3e3b 0ada 2f3d 60a3 4b3d
00000110: 303b c3bc f75e a4bc 6c09 84bc 94cd 093d
00000120: acce 28bd 58d2 e83c 7e40 58bc 9cc0 d3bc
00000130: d812 2d3d 4349 53bd fe4c 98bb b035 053d
00000140: 9894 2c3d 3d0f 25bd afc3 5f3d 16e5 e5bc
00000150: 85de cd3c 7d3e 6abd 85fb 0fbd 701a 223d
00000160: 71d9 6e3d 2169 67bc ff37 243b 79ef 4fbd
00000170: cd4d 52bd 0191 e03c 1e80 d2bb a4f8 64bd
00000180: a6b5 a1bc cf11 ff3c f422 08bd d2a1 0e3d
00000190: 94a4 46bb 0b32 f83c ef46 04bd a9da b03c
000001a0: fa62 b23c d9b6 fcbc c28c 5f3d c226 323c
000001b0: c9bb 3f3d ca47 68bd a0b1 af3c 15f8 1b3d
000001c0: e833 e3bc a96d dc3c 1019 1cbd d043 b739
000001d0: 1437 6abc 1c13 343d 38c0 e0b7 04b4 18bd
000001e0: 13d8 3fbd 03c3 953c 72d4 493d 83f2 4f3c
000001f0: 17c7 44bd a1d7 0d3d 521b cc3c af7a 633d
00000200: fb9e fabc a89b 2dbd 676f cfbc 70d4 a13c
00000210: f248 45bd b5fb 0dbd eb81 0d3d b717 0cbc
00000220: b8e6 66bd efcb 34bd 13da 903c 6676 ce3b
00000230: b643 27bd 833d ffbc 30b7 8a3b 2f59 25bd
00000240: 7dbf 663d bf51 143d 97db 36bd 736e f4bc
00000250: 0401 433d fa24 073d c9b1 2cbd 8d3a 99bb
00000260: a649 3e3c 276f 2d3d 9783 08bc 6116 79ba
00000270: f29a f5bc fbd5 84bc 2230 fabc ada6 e23b
00000280: 2d87 31bd 9e47 5fbd 56df 8ebc 5e02 a83c
00000290: 2c2d 1d3d d0c9 c73c 3383 d93c 59fa a03c
000002a0: 1afb fdbc 9483 7ebc 599c 16bc d04c c5bc
000002b0: c641 a13b f1b1 4e3d 3634 613d 04a9 163c
000002c0: ee11 0cbd dbbd 0a3d 8647 53bd e956 1bbd
000002d0: 11e4 ed3a eb88 873c 6ca7 1a3d c5eb 00bc
000002e0: 43b0 e73c fa3d 97bc bfe4 203d 13e5 21bd
000002f0: 2984 6bbc e781 3b3d 2ce0 ba3a 5fac 07bc
00000300: bdef 0fbd 8f89 e7bb 74ba dfbc 5571 47bd
00000310: 8c72 44bd 148b cf3c fa02 45bd 2cd0 49bd
00000320: a9bb 31bd 5859 593c a5a5 e1bc e683 27bc
00000330: 0029 49bb 7e77 893a 42da 473d df72 8ebb
00000340: 59c6 b83c f1d2 0dbc e632 6a3d 90cb 193d
00000350: 5d94 acba ed9d 743d 12b1 2b3c 8ad5 41bd
00000360: 2cee 26bd 202a 1abd ed83 67b9 d9f6 463d
00000370: 1ca6 413b 28d9 06bb 3800 da3c 4e49 fc3c
00000380: e2bd 553d cfc3 5c3b 0133 46bc a6f3 34bd
00000390: d323 1a3c 0e7d ac3c fc65 db3c 0aae a03c
000003a0: 7b0e 5dbd cdb7 10ba 9a42 5a3d 1e40 03bc
000003b0: f820 f6bc 4eb1 3a3d 2cf2 36bd 5b53 4bbd
000003c0: 0eb1 1c3d 8a8c a1bc 1174 11bd 96ef 4fbd
000003d0: 9809 2cbd 1d5e 1b3c e1ea 25bb c6fb b53b
000003e0: 88df db3c a5f7 ffbc 3af1 17bc caf0 1dbc
000003f0: d74d 6b3d 0a97 b63c 4c02 58bd b31b 2e3d

features.Conv2D_3.bias f4 [32]
0.051697027 0.025216166 0.018076392 -0.05644856 0.020323375 0.027460162 -0.041318994 0.04105164
-0.014154742 0.007410294 0.0002987177 -0.04833707 -0.04695197 -0.005902256 0.010900947 -0.05788239
0.030641904 -0.012267454 0.043418076 -0.011111121 0.015756909 0.0024312362 -0.030561132 0.036370315
0.010797672 0.055727255 0.036875363 -0.013133974 -0.028204987 -0.052905172 -0.005777747 -0.032988757
00000000: 43c0 533d 2292 ce3c f114 943c 9b36 67bd
00000010: 357d a63c 22f4 e03c 1b3e 29bd c425 283d
00000020: 4ae9 67bc 0dd2 f23b 369d 9c39 17fd 45bd
00000030: b550 40bd b667 c1bb e399 323c 1616 6dbd
00000040: bb04 fb3c 6efd 48bc 27d7 313d 6b0b 36bc
00000050: a214 813c 6055 1f3b 575b fabc 0af9 143d
00000060: b8e8 303c 4342 643d 9f0a 173d e12f 57bc
00000070: 250e e7bc 18b3 58bd 4153 bdbb 381f 07bd

features.Conv2D_4.weight f4 [32, 32, 3, 3]
-0.009282849 -0.029483575 0.041247524 -0.016032236 0.037304062 0.0074378145 0.022894181 0.04426797
0.04589418 0.015721876 0.019813763 -0.03868487 0.00014138922 0.03674848 -0.043538556 -0.050394926
0.0040286477 -0.028205335 -0.009446249 0.050280884 -0.03543623 0.048996747 0.014662661 -0.048573975
0.005953116 -0.018799815 0.0417546 0.032583434 0.0404945 0.013206138 0.05021311 -0.0066744303
-0.032127444 0.05253812 -0.029578006 0.017034525 0.032066148 0.04655421 -0.0043486976 -0.032996032
0.05131785 -0.0010417457 -0.025723666 -0.0015815464 -0.024608703 -0.043084502 0.026679385 0.0029606984
-0.025363216 -0.029290307 -0.034659877 0.0429539 -0.013250747 -0.037961014 -0.02639495 -0.021283349
0.042979926 0.042569928 0.0010990887 0.03909907 -0.016673313 -0.024705254 0.026551453 -0.004844507
0.0085835 -0.00053957483 -0.052815028 -0.040267438 -0.024618661 0.016879482 0.040320255 -0.004315384
0.029881869 -0.0062186467 0.014023642 0.0020243959 0.031483486 -0.03492501 0.049117304 0.00327876
0.011647754 -0.030342262 -0.011693898 -0.050120536 -0.01575504 0.044745345 0.013670199 0.037440587
0.0071294615 -0.042923402 -0.01938694 -0.0040767216 0.00018340381 0.050408766 -0.0048925374 -0.023806771
-0.023121102 0.041454572 -0.011193874 -0.020875197 0.0005143228 0.049390327 -0.020201288 0.0144289965
-0.004485961 -0.0510568 -0.05247736 -0.0041474383 0.023359813 -0.002361784 0.012387972 0.011431401
-0.04465679 0.048034567 -0.04172063 0.026872061 0.007687295 0.033350836 -0.001980234 0.03135774
0.021938648 -0.0009947154 0.031463236 0.03127793 0.01906501 0.039313335 -0.02461536 -0.032677773
-0.014946194 -0.01910826 -0.004707047 -0.05430338 -0.007854083 -0.0026479831 -0.010976224 0.0409768
0.012959528 0.049590524 -0.029092854 -0.014135445 -0.024960022 -0.00014933475 0.03935291 -0.028206272
0.040468108 0.032837767 0.022938864 0.016329212 0.0059160343 -0.0061912816 -0.025483137 0.046070166
0.001614296 -0.033118058 -0.018647194 -0.034183513 -0.033288144 -0.015322059 0.02134966 0.026747402
0.012483858 -0.01993469 -0.003258953 -0.008126277 0.04366634 -0.02412851 0.04385257 0.008746664
-0.0035774275 0.04180103 0.03533512 0.007870087 -0.011968984 -0.013261838 0.028654598 -0.011333896
0.032745767 -0.020489983 -0.034280103 0.041980714 -0.047613595 -0.0008763207 0.025563808 0.03066259
0.00927558 0.011558482 0.023621853 -0.045808237 0.040698778 0.015841046 -0.036085494 -0.0044762753
-0.009180522 -0.0037082983 -0.023832757 0.03905663 0.01165975 -0.039907243 0.031584736 0.033696167
0.011263521 -0.042734973 -0.046444204 -0.03927238 0.0012070421 -0.0077650305 0.024001066 -0.026594691
0.022488037 -0.020883026 0.020217698 -0.044885907 0.036734898 -0.03382047 -0.023982555 -0.009488336
0.00011196259 0.028532205 0.011296136 -0.02180709 -0.052732505 -0.051619664 0.035863105 0.006141147
-0.018086681 -0.021100502 -0.045788486 0.046179112 0.053513814 -0.02979528 0.032394387 0.023835119
0.042725474 -0.029831551 0.006348006 -0.0398575 0.00997831 0.042967588 0.042250223 -0.046232607
-0.0018436031 0.04979454 0.035940845 0.0005593848 0.041319467 -0.0068735303 0.007814498 0.02007185
0.030948238 0.030598756 -0.009867814 -0.0028334423 -0.0059163626 -0.039552763 0.020347966 -0.01702441
00000000: 1717 18bc 8a87 f1bc 2af3 283d 0956 83bc
00000010: 25cc 183d e9b8 f33b 948c bb3c 5552 353d
00000020: 89fb 3b3d 2acb 803c 7950 a23c 0774 1ebd
00000030: e141 1439 9385 163d 7c55 32bd e96a 4ebd
00000040: bf02 843b e00e e7bc 71c4 1abc 54f3 4d3d
00000050: 9525 11bd d0b0 483d a83b 703c 81f5 46bd
00000060: 5b12 c33b 1202 9abc df06 2b3d 3576 053d
00000070: 90dd 253d 8f5e 583c 43ac 4d3d 2eb5 dabb
00000080: 1198 03bd 3632 573d 934d f2bc fd8b 8b3c
00000090: cb57 033d a1af 3e3d 857f 8ebb d926 07bd
000000a0: aa32 523d 2f8b 88ba 70ba d2bc e44b cfba
000000b0: 3198 c9bc 6079 30bd ba8e da3c 4708 423b
000000c0: 85c6 cfbc 3af2 efbc 84f7 0dbd 6ef0 2f3d
000000d0: a919 59bc 027d 1bbd 393a d8bc 6b5a aebc
000000e0: b80b 303d ce5d 2e3d 4c0f 903a 5926 203d
000000f0: 7996 88bc ac62 cabc 6f82 d93c acbe 9ebb
00000100: cfa1 0c3c 4172 0dba 9254 58bd 78ef 24bd
00000110: 13ad c9bc d746 8a3c da26 253d 1168 8dbb
00000120: d2ca f43c cac5 cbbb 6bc3 653c baab 043b
00000130: d4f4 003d 870d 0fbd 3a2f 493d 77e0 563b
00000140: 39d6 3e3c 5690 f8bc c397 3fbc 314b 4dbd
00000150: b710 81bc e546 373d f8f8 5f3c 4d5b 193d
00000160: 429e e93b 73d0 2fbd 5cd1 9ebc 0596 85bb
00000170: 1650 4039 6c79 4e3d 9451 a0bb 6b06 c3bc
00000180: 7768 bdbc 45cc 293d 8366 37bc 7602 abbc
00000190: 9ed3 063a 834d 4a3d 2c7d a5bc 9967 6c3c
000001a0: f8fe 92bb ef20 51bd 80f2 56bd 3ce7 87bb
000001b0: 145d bf3c 29c8 1abb ecf6 4a3c c54a 3b3c
000001c0: 0aea 36bd e5bf 443d 40e3 2abd cc22 dc3c
000001d0: b4e5 fb3b e39a 083d d0c6 01bb f970 003d
000001e0: aeb8 b33c 1c61 82ba 98df 003d 491d 003d
000001f0: 392e 9c3c 0507 213d 27a6 c9bc 21d9 05bd
00000200: e2e0 74bc ed88 9cbc 923d 9abb 396d 5ebd
00000210: 69ae 00bc c989 2dbb 9fd5 33bc 4ad7 273d
00000220: 3354 543c 6f1f 4b3d 2354 eebc 5a98 67bc
00000230: f678 ccbc be96 1cb9 8430 213d d710 e7bc
00000240: e3c1 253d e580 063d 49ea bb3c d7c4 853c
00000250: 4bdb c13b 3ce0 cabb 03c2 d0bc 12b4 3c3d
00000260: c996 d33a cda6 07bd 00c2 98bc 0304 0cbd
00000270: 2659 08bd 6009 7bbc 7be5 ae3c 5e1d db3c
00000280: 1889 4c3c 134e a3bc 2994 55bb 1324 05bc
00000290: 7adb 323d 27a9 c5bc c19e 333d 2b4e 0f3c
000002a0: 4673 6abb 8f37 2b3d 8fbb 103d 8af1 003c
000002b0: 8f19 44bc 2e48 59bc 0cbd ea3c ceb1 39bc
000002c0: 6d20 063d 9cda a7bc 4b69 0cbd f8f3 2b3d
000002d0: 7906 43bd e3b8 65ba 316b d13c 1d30 fb3c
000002e0: 9af8 173c ca5f 3d3c 9e82 c13c 6ba1 3bbd
000002f0: c3b3 263d 15c5 813c 62ce 13bd b8ad 92bb
00000300: e669 16bc ec06 73bb ea3c c3bc d8f9 1f3d
00000310: 8908 3f3c c775 23bd ff5e 013d fe04 0a3d
00000320: a28a 383c de0a 2fbd 473c 3ebd 13dc 20bd
00000330: 9d35 9e3a cc71 febb e29d c43c 1cdd d9bc
00000340: d538 b83c e112 abbc 969f a53c 49da 37bd
00000350: 5577 163d 5587 0abd 1077 c4bc f774 1bbc
00000360: 75cd ea38 5fbc e93c 6e13 393c c8a4 b2bc
00000370: 0afe 57bd 246f 53bd 31e5 123d ad3b c93b
00000380: 852a 94bc f6da acbc b58c 3bbd 4f26 3d3d
00000390: 4d31 5b3d 3b15 f4bc faaf 043d de41 c33c
000003a0: e800 2f3d 4c61 f4bc ef02 d03b 9e41 23bd
000003b0: 117c 233c c8fe 2f3d 920e 2d3d 675e 3dbd
000003c0: 0ea5 f1ba 5cf5 4b3d b536 133d aea3 123a
000003d0: 9a3e 293d 5a3b e1bb 6108 003c b86d a43c
000003e0: 2987 fd3c 3eaa fa3c 9dac 21bc 46b1 39bb
000003f0: 0cde c1bb 1402 22bd c7b0 a63c c776 8bbc

features.Conv2D_4.bias f4 [32]
-0.039487753 0.044780135 -0.05414539 0.026614219 0.01840278 -0.053242836 0.05284263 -0.025580438
0.030678706 0.0053937156 -0.038903963 -0.041738518 0.029263357 0.010789982 0.028736694 -0.0012815738
-0.033869527 0.051205758 -0.05068032 0.03807441 0.0075424886 -0.010099089 -0.0014992682 0.038889226
-0.0009999163 -0.0013113793 0.020346649 -0.021646746 -0.057466272 -0.010185458 0.054226983 -0.02513109
00000000: e9bd 21bd 606b 373d 8ec7 5dbd 1006 da3c
00000010: 6dc1 963c 2915 5abd 8371 583d 118e d1bc
00000020: e951 fb3c c4bd b03b c359 1fbd 02f6 2abd
00000030: b5b9 ef3c 77c8 303c 3769 eb3c 7bfa a7ba
00000040: c6ba 0abd 21bd 513d 2b96 4fbd eaf3 1b3d
00000050: fb26 f73b a676 25bc 1883 c4ba 4f4a 1f3d
00000060: a00f 83ba 96e2 abba 04ae a63c 8454 b1bc
00000070: c161 6bbd e8e0 26bc 1d1d 5e3d b7df cdbc

features.Conv2D_6.weight f4 [32, 32, 3, 3]
-0.03945917 0.00010377176 0.009278299 -0.023706298 -0.04195102 -0.028101286 -0.019620683 -0.012382304
0.004901554 0.023302505 -0.0062728855 -0.054590147 0.039254207 0.03842103 -0.015399046 -0.051926967
-0.028595993 0.0326707 0.026693733 -0.019690296 -0.028468052 0.013222684 -0.016021024 0.030158075
-0.002404609 0.0021463681 0.04736259 0.032896392 0.033588745 -0.044863448 -0.029061351 -0.052048467
0.046382427 -0.020107044 0.050657682 0.023130106 -0.011442191 -0.047191635 -0.033953197 -0.010777231
0.050193265 -0.055177983 -0.042383175 0.047028415 -0.036269568 0.036963746 0.035424415 -0.05440332
-0.00636889 -0.05394938 -0.044826657 0.016558055 -0.02602429 0.0006325108 0.056141984 0.006989665
0.030914843 -0.049353994 0.05522754 0.021887658 0.057604916 0.028989166 0.056911826 0.015589751
-0.05222999 -0.022855645 0.010925033 -0.006565792 0.005129939 -0.015786234 0.024815654 -0.0457783
0.05089623 0.029977081 -0.04813266 -0.043672424 0.025842434 -0.017288884 0.05620539 0.03495873
0.03530411 -0.04463518 0.04692149 -0.0176804 -3.237494e-06 -0.035753276 0.02776326 0.02897575
0.06371346 -0.02687058 -0.020094547 0.028523616 -0.015208183 0.054621086 -0.026421988 -0.034433007
-0.03431218 -0.03206365 0.03816098 0.030385468 0.015767643 0.015957702 -0.03823222 0.0515359
-0.04622754 0.053765785 -0.03590555 -0.052935466 -0.03649398 0.046277937 0.058716785 -0.017031489
-0.037092503 -0.044467606 -0.022670176 -0.02457748 -0.027515016 -0.053491954 0.007005483 0.017109726
0.056416932 0.03458541 -0.05435497 0.043898843 0.04766518 -0.042799175 -0.03331438 0.05467878
-0.015867539 -0.041002106 0.019489272 0.023626914 -0.058580946 0.048226662 0.031966254 0.051589776
-0.021409716 -0.046346545 -0.037533715 0.019681849 -0.037329633 0.010591946 -0.04997317 0.036360763
0.0133113675 -0.034517303 -0.030834518 -0.05273789 0.005297237 0.0335754 0.009990135 0.029419117
0.017960815 -0.05837026 0.0020724884 -0.022857353 0.05555843 0.016761484 -0.018037308 0.038101587
0.05167475 0.042797413 -0.027838694 -0.031134825 -0.039681662 0.045723114 -0.020378431 -0.03967617
-0.0078638205 -0.021794377 -0.053296324 -0.044260614 0.028489377 -0.022118974 0.026729248 0.053263478
-0.0037076166 0.017501958 0.031432584 0.05151539 -0.055659257 0.004088466 -0.020728879 -0.04973177
0.036435857 0.05466004 -0.018531738 -0.015756926 0.058137648 -0.03956719 -0.04945827 0.013046387
0.024759274 -0.04664763 0.05449512 -0.01955212 0.029440332 -0.032300826 -0.027786348 -0.031481627
-0.01195901 -0.0005196173 -0.050780054 -0.034087803 0.05691881 -0.009526579 0.051743906 0.054739363
0.0424785 0.0288864 -0.024755688 0.045918904 0.055318408 -0.025933642 -0.050103795 0.010263511
-0.035345845 0.028508075 0.040496822 -0.039304778 0.045893367 -0.0020195488 -0.034640897 0.033432696
0.04229558 0.030522024 -0.021075418 -0.041247297 0.02835428 0.0023380644 0.03972706 0.0424685
-0.0515416 0.012799748 -0.059736703 -0.031587087 -0.040161833 0.027320314 0.048335724 -0.055467844
-0.054604918 0.028662242 0.0010773833 0.034876823 0.03327895 0.035106022 0.022357268 0.04183339
0.010279293 0.026051529 -0.04792217 -0.0199484 -0.017061105 0.017450644 -0.042704567 0.044135742
00000000: f09f 21bd 0aa0 d938 0204 183c b633 c2bc
00000010: d5d4 2bbd ab34 e6bc 8ebb a0bc 26df 4abc
00000020: 379d a03b e5e4 be3c c78c cdbb eb99 5fbd
00000030: 05c9 203d 5f5f 1d3d 484c 7cbc 5fb1 54bd
00000040: 2542 eabc b6d1 053d d1ac da3c 8b4d a1bc
00000050: d535 e9bc f5a3 583c 863e 83bc 110e f73c
00000060: a596 1dbb 15aa 0c3b 46ff 413d 5ebe 063d
00000070: 5a94 093d bcc2 37bd 1212 eebc c630 55bd
00000080: 80fb 3d3d 87b7 a4bc 6e7e 4f3d 597b bd3c
00000090: 0778 3bbc 044c 41bd 8212 0bbd fc92 30bc
000000a0: 7497 4d3d 4f02 62bd fb99 2dbd dea0 403d
000000b0: 668f 14bd 4c67 173d 3119 113d 04d6 5ebd
000000c0: 1fb2 d0bb 06fa 5cbd 289c 37bd c2a4 873c
000000d0: e430 d5bc 15cf 253a 23f5 653d 8f09 e53b
000000e0: 2041 fd3c 6a27 4abd 4636 623d bf4d b33c
000000f0: 22f3 6b3d b07a ed3c 601c 693d 286c 7f3c
00000100: 1def 55bd c33b bbbc e9fe 323c db25 d7bb
00000110: 0c19 a83b 2252 81bc 334a cb3c 0782 3bbd
00000120: 9178 503d 7f92 f53c c126 45bd dbe1 32bd
00000130: 83b3 d33c 6ba1 8dbc 9f37 663d e330 0f3d
00000140: 0b9b 103d 61d3 36bd c030 403d 7cd6 90bc
00000150: b943 59b6 0772 12bd c76f e33c 8d5e ed3c
00000160: 347c 823d b11f dcbc 529d a4bc 5caa e93c
00000170: be2b 79bc 5cba 5f3d ed72 d8bc a009 0dbd
00000180: ee8a 0cbd 2d55 03bd b04e 1c3d f2ea f83c
00000190: 252b 813c bab9 823c 6399 1cbd 4f17 533d
000001a0: 1759 3dbd 8339 5c3d b311 13bd dcd2 58bd
000001b0: b67a 15bd ef8d 3d3d 0381 703d 9f85 8bbc
000001c0: 4fee 17bd aa23 36bd ceb6 b9bc b656 c9bc
000001d0: 2c67 e1bc 611a 5bbd 408e e53b b229 8c3c
000001e0: 7115 673d 6ea9 0d3d 51a3 5ebd 46cf 333d
000001f0: 903c 433d 304e 2fbd a974 08bd dbf6 5f3d
00000200: a4fc 81bc d3f1 27bd f7a7 9f3c 3b8d c13c
00000210: 93f2 6fbd 5289 453d 0cef 023d cd4f 533d
00000220: 6e63 afbc e0d5 3dbd f4bc 19bd d43b a13c
00000230: f5e6 18bd d789 2d3c abb0 4cbd 06ef 143d
00000240: ec17 5a3c 0462 0dbd ac98 fcbc b003 58bd
00000250: 7294 ad3b 5c86 093d aaad 233c 5c00 f13c
00000260: 8f22 933c a715 6fbd 96d2 073b 583f bbbc
00000270: 3c91 633d 614f 893c fac2 93bc 6910 1c3d
00000280: e7a8 533d 574c 2f3d f90d e4bc 760e ffbc
00000290: 3d89 22bd 2948 3b3d abf0 a6bc 7b83 22bd
000002a0: 41d7 00bc 1f8a b2bc 3f4d 5abd 9e4a 35bd
000002b0: 8e62 e93c da32 b5bc 4cf7 da3c ce2a 5a3d
000002c0: 7cfb 72bb 4460 8f3c 74bf 003d cd01 533d
000002d0: f6fa 63bd 8af8 853b 9ccf a9bc 8ab3 4bbd
000002e0: c43d 153d 35e3 5f3d dfcf 97bc ab14 81bc
000002f0: be21 6e3d 3511 22bd c194 4abd 83c0 553c
00000300: f6d3 ca3c 9611 3fbd 4636 5f3d c42b a0bc
00000310: da2c f13c df4d 04bd 32a0 e3bc e1f2 00bd
00000320: b9ef 43bc ed36 08ba bffe 4fbd a79f 0bbd
00000330: b323 693d 5e15 1cbc 6bf1 533d 6236 603d
00000340: f0fd 2d3d 2ca3 ec3c 71cc cabc 7615 3c3d
00000350: 8e95 623d ca72 d4bc a339 4dbd 4928 283c
00000360: cec6 10bd c489 e93c ffdf 253d 0cfe 20bd
00000370: affa 3b3d 685a 04bb 9de3 0dbd b9f0 083d
00000380: 213e 2d3d 5309 fa3c 5ba6 acbc edf2 28bd
00000390: 3c47 e83c 363a 193b d7b8 223d 73f3 2d3d
000003a0: 491d 53bd 09b6 513c 79ae 74bd 7661 01bd
000003b0: bc80 24bd dace df3c aefb 453d 4032 63bd
000003c0: 68a9 5fbd 14cd ea3c fc36 8d3a 00db 0e3d
000003d0: 824f 083d 55cb 0f3d 9726 b73c 7d59 2b3d
000003e0: 7b6a 283c 046a d53c 0a4a 44bd d46a a3bc
000003f0: bbc3 8bbc a7f4 8e3c fcea 2ebd aec7 343d

features.Conv2D_6.bias f4 [32]
0.016168643 0.025269475 0.051979773 -0.020049132 0.055695344 0.046960674 0.047467753 -0.007988554
0.043794256 -0.031475317 -0.037136655 -0.030343043 0.031131813 0.01974393 -0.027741158 -0.019989695
0.025910601 -0.04009332 0.047764227 -0.010355568 -0.022761896 0.052370515 -0.01328877 0.0015823351
-0.036068343 -0.015224886 -0.040238585 -0.048429124 -0.02906373 -0.0032672794 0.008458569 -0.05728487
00000000: 1a74 843c ee01 cf3c bee8 543d 143e a4bc
00000010: cd20 643d d659 403d 8c6d 423d 6de2 02bc
00000020: 9b61 333d 43ec 00bd 9b1c 18bd f991 f8bc
00000030: 2508 ff3c 06be a13c 6d41 e3bc 6ec1 a3bc
00000040: 7842 d43c e538 24bd 6ca4 433d 66aa 29bc
00000050: 2877 babc 7782 563d 24b9 59bc 5b66 cf3a
00000060: 66bc 13bd cd71 79bc 37d1 24bd 9e5d 46bd
00000070: 0f17 eebc da1f 56bb cf95 0a3c 8aa3 6abd

features.Conv2D_7.weight f4 [32, 32, 3, 3]
-0.013401083 0.0030568012 -0.011811069 -0.0490388 -0.023990355 -0.034092627 0.011619569 0.007557168
0.04694333 -0.036930494 0.000915601 0.017240878 -0.053477332 0.028177595 0.016678905 0.041379172
-0.039675023 0.0017756564 0.056503132 0.05074923 0.018592995 0.047577545 0.029629087 -0.026111431
0.00316563 -0.013553271 -0.020863114 -0.0069727735 0.036928315 0.03823994 -0.061438728 0.005700229
0.027097788 -0.021561848 -0.02238294 -0.033126507 -0.0015232717 0.012451554 -0.060210086 -0.053347997
0.0009561698 0.05373246 0.0032316276 0.041443557 -0.05670984 0.047269035 0.0070400583 0.04957261
0.037046522 -0.03317703 0.036567748 -0.013869978 -0.041097473 0.044185758 -0.011518051 0.0066770534
0.040674724 0.025559675 0.03861127 0.053920474 -0.05529675 -0.022853427 -0.0381244 0.051664703
-0.030297576 -0.005408125 -0.016742993 -0.035488013 -0.038641356 -0.053281844 0.010319369 0.031995423
0.03967448 0.048720397 -0.018249601 -0.021463715 -0.002324727 -0.006774288 -0.0146379275 0.050041005
-0.043775566 0.03471713 0.025642531 0.032272846 0.04958334 0.05521987 -0.043714043 -0.025851225
0.024457388 0.038428586 -0.035542082 -0.05020677 0.04033402 0.019313134 -0.037545785 -0.036236346
0.0448881 0.0001669606 0.050287332 0.020194687 0.05127452 -0.010575409 -0.006295847 -0.056921918
-0.024923226 0.0059310133 0.048501287 -0.0035671853 -0.048857454 0.044203088 0.039838485 -0.005156957
0.05121556 0.01138789 -0.011830872 0.037551 0.05494444 -0.025642235 -0.021376334 -0.039984368
0.03934965 0.053513397 -0.051976517 -0.026923228 -0.013067462 0.04951349 0.036524557 -0.01542504
-0.021500776 -0.03299004 -0.021714969 -0.037198924 -0.055293456 0.046923596 -0.049356487 -0.045634404
-0.014231519 -0.008569004 -0.030882189 -0.050175816 -0.04566571 0.041140474 0.040932555 -0.010033781
0.031663742 -0.032880872 -0.04593741 0.029461682 -0.006390016 0.01289863 -0.04398862 0.044983447
0.0053902827 -0.04219874 0.016692769 -0.023082908 -0.044706464 -0.038487885 -0.024646943 -0.05492136
-0.022192102 0.042192984 0.0236735 0.023648392 0.02728894 -0.0463758 0.00027965338 -0.04188724
-0.022619806 0.007596388 -0.0029112685 -0.05231225 -0.012439188 -0.044473007 -0.045244116 -0.017897941
0.03879116 0.0254063 0.028836602 0.017296642 -0.038607053 -0.010575196 -0.010508608 -0.024251094
-0.040918827 -0.040071186 0.014914583 -0.012387023 0.03623013 -0.00046375472 0.006705628 0.03410359
-0.040217947 -0.05354153 -0.053739272 -0.022494819 0.044694986 0.0042264755 -0.020550884 -0.060048856
-0.0275457 -0.0078053772 -0.0030226577 0.0010274954 -0.0444478 0.030751115 0.05094377 -0.054355543
0.044931546 0.030196661 -0.04670498 -0.00031087862 -0.020555923 0.049892332 -0.037534177 -0.03747539
-0.01547356 0.018616294 -0.04281578 -0.02263611 -0.033812366 0.00650276 -0.03286632 -0.010225195
-0.009393989 -0.030991578 -0.02757353 -0.049144253 -0.049975302 0.031226134 0.05047373 -0.016885541
-0.019015012 -0.007811293 0.047374215 0.048048615 0.050295778 0.021762969 -0.013682653 0.011298127
-0.053446557 -0.0481781 0.046236068 0.026289642 0.024594106 0.05169844 0.046250906 -0.02028379
-0.008492302 0.003972448 0.032565653 0.050165467 -0.009461551 0.022679342 0.0064412644 0.032396097
00000000: 3790 5bbc 9d54 483b 3783 41bc e9dc 48bd
00000010: 6c87 c4bc b6a4 0bbd 0160 3e3c 1fa2 f73b
00000020: a647 403d 6e44 17bd f104 703a be3c 8d3c
00000030: 0c0b 5bbd b3d4 e63c 33a2 883c 357d 293d
00000040: 4782 22bd 24bd e83a d46f 673d 6dde 4f3d
00000050: 5650 983c ace0 423d b3b8 f23c a4e7 d5bc
00000060: 7576 4f3b 8a0e 5ebc 1fe9 aabc dd7b e4bb
00000070: 2542 173d 7ca1 1c3d 2da7 7bbd fdc8 ba3b
00000080: 2efc dd3c 79a2 b0bc 6d5c b7bc a9af 07bd
00000090: 84a8 c7ba 9a01 4c3c da9e 76bd 6e83 5abd
000000a0: 78a7 7a3a 9116 5c3d b7c9 533b b8c0 293d
000000b0: 9448 68bd 2d9d 413d 4ab0 e63b a60c 4b3d
000000c0: 18be 173d a3e4 07bd 10c8 153d e73e 63bc
000000d0: d355 28bd 20fc 343d 35b6 3cbc 2fcb da3b
000000e0: 8a9a 263d 8662 d13c da26 1e3d b7db 5c3d
000000f0: d87e 62bd 1c37 bbbc 5528 1cbd 5e9e 533d
00000100: 9f32 f8bc a436 b1bb 9a28 89bc e15b 11bd
00000110: 6646 1ebd 103e 5abd 9212 293c a20d 033d
00000120: b581 223d 0a8f 473d 3080 95bc acd4 afbc
00000130: 725a 18bb d9fa ddbb ebd3 6fbc ccf7 4c3d
00000140: 024e 33bd 8d33 0e3d 4910 d23c 8830 043d
00000150: e617 4b3d 3b2e 623d 7f0d 33bd f3c5 d3bc
00000160: dc5a c83c 4b67 1d3d 9394 11bd 9da5 4dbd
00000170: 4935 253d 9436 9e3c 9cc9 19bd 906c 14bd
00000180: 96dc 373d 2512 2f39 17fa 4d3d 546f a53c
00000190: 3b05 523d 7b44 2dbc 644d cebb f526 69bd
000001a0: cb2b ccbc f258 c23b 49a9 463d 70c7 69bb
000001b0: c11e 48bd 4c0e 353d ae2d 233d b1fb a8bb
000001c0: 68c7 513d 4694 3a3c 46d6 41bc 14cf 193d
000001d0: 6c0d 613d aa0f d2bc 6c1d afbc a6c6 23bd
000001e0: 192d 213d dd30 5b3d 54e5 54bd 1a8e dcbc
000001f0: e818 56bc a8ce 4a3d c69a 153d 4fb9 7cbc
00000200: 6522 b0bc 9020 07bd 97e3 b1bc e65d 18bd
00000210: 647b 62bd f532 403d 072a 4abd 24eb 3abd
00000220: 512b 69bc 0265 0cbc a5fc fcbc 2885 4dbd
00000230: f80b 3bbd ea82 283d e5a8 273d ba64 24bc
00000240: d7b1 013d 18ae 06bd de28 3cbd a059 f13c
00000250: 5763 d1bb c754 533c 692d 34bd 9040 383d
00000260: f8a0 b03b 96d8 2cbd 46bf 883c 5e18 bdbc
00000270: 201e 37bd 79a5 1dbd 63e8 c9bc 38f5 60bd
00000280: 36cc b5bc 8dd2 2c3d eeee c13c 46ba c13c
00000290: 0e8d df3c 8df4 3dbd 719e 9239 f491 2bbd
000002a0: 2c4d b9bc 1feb f83b fbca 3ebb 5f45 56bd
000002b0: bccd 4bbc 5429 36bd e551 39bd b49e 92bc
000002c0: 7be3 1e3d df20 d03c bd3a ec3c b0b1 8d3c
000002d0: 6e22 1ebd 9643 2dbc 4c2c 2cbc 3baa c6bc
000002e0: 809a 27bd af21 24bd 4c5c 743c f1f2 4abc
000002f0: 0b66 143d 1b24 f3b9 e2ba db3b 35b0 0b3d
00000300: 93bb 24bd 5d4e 5bbd b61d 5cbd 0e47 b8bc
00000310: 1712 373d 3f7e 8a3b 545a a8bc caf5 75bd
00000320: 85a7 e1bc 40c4 ffbb c817 46bb 06ad 863a
00000330: e50e 36bd c3e9 fb3c 6aaa 503d eba3 5ebd
00000340: 240a 383d fd5e f73c b94d 3fbd 6cfd a2b9
00000350: e564 a8bc e75b 4c3d 70bd 19bd cb7f 19bd
00000360: d184 7dbc 3381 983c 995f 2fbd 5d6f b9bc
00000370: d67e 0abd 1b15 d53b d69e 06bd 9487 27bc
00000380: 3fe9 19bc 0de2 fdbc e2e1 e1bc 7c4b 49bd
00000390: e7b2 4cbd f3cd ff3c 8bbd 4e3d 8c53 8abc
000003a0: 5fc5 9bbc e0f5 ffbb 770b 423d a0ce 443d
000003b0: f202 4e3d 4148 b23c 352d 60bc c71b 393c
000003c0: c7ea 5abd 6656 45bd 0862 3d3d 605d d73c
000003d0: 9479 c93c bec1 533d 9771 3d3d 312a a6bc
000003e0: 4c23 0bbc 4f2b 823b 9063 053d 4e7a 4d3d
000003f0: 9f04 1bbc 07ca b93c 3e11 d33b c5b1 043d

features.Conv2D_7.bias f4 [32]
-3.5490687e-06 0.027365167 -0.035990413 0.037537288 -4.1477528e-05 0.050024934 -0.023588352 0.02542272
-0.048165854 0.022244146 0.044871043 -0.05242383 0.047888752 -0.036279712 0.01333519 -0.0055205356
0.040661704 -0.026276793 0.023629515 0.010315933 -0.046266798 -0.027434178 -0.010620583 -0.0025813526
-0.025030341 0.0135678835 -0.041876588 -0.0060021146 -0.037662145 -0.027276676 -0.01990014 -0.04751159
00000000: 892c 6eb6 ea2c e03c af6a 13bd b3c0 193d
00000010: 28f8 2db8 f2e6 4c3d 5c3c c1bc 4f43 d03c
00000020: 8f49 45bd 5b39 b63c b3ca 373d 5fba 56bd
00000030: ff26 443d 099a 14bd d77b 5a3c 9ce5 b4bb
00000040: e38c 263d 6e42 d7bc af92 c13c 2904 293c
00000050: 4182 3dbd a4bd e0bc f401 2ebc e92b 29bb
00000060: 6e0c cdbc d44b 5e3c c986 2bbd 63ad c4bb
00000070: 9f43 1abd 5673 dfbc 9e05 a3bc 839b 42bd

classification.0.weight f4 [256, 512]
0.0047672587 0.010342366 0.03418718 -0.032111943 -0.0075263414 -0.0011525762 0.008218161 -0.024749953
0.037854675 -0.02163715 -0.0058355364 0.038535114 0.004606072 -0.021731824 0.02515414 0.023153689
0.0051510534 0.009430203 -0.0031434034 -0.010786669 -0.011125493 0.020180043 0.017668677 0.014736385
-0.02694581 0.014159829 -0.016945666 -0.024951015 -0.026046554 0.030968472 -0.020295506 -0.0076494045
0.018088402 -0.017078243 0.015890356 0.008720442 0.02061984 -0.02325817 0.038334396 0.014494452
0.0049744537 0.013130095 -0.019433388 0.03705778 -0.028531142 0.016412722 -0.042622976 0.03927712
-0.035606332 0.019851785 -0.042257957 0.02647885 -0.032000463 -0.036553636 -0.014337351 -0.017838221
0.014098778 0.019169917 -0.0451746 -0.010438483 0.03465464 0.035585444 -0.018380819 0.033450484
-0.012178581 0.039079696 -0.04049763 -0.007343027 -0.027044492 -0.012037082 0.013849519 -0.037752595
0.03246096 0.02469554 0.0029547156 0.03573319 0.009961123 -0.011818426 0.012160622 0.024240352
0.004159214 0.023482047 -0.036106944 0.012192793 0.020249356 -0.017879905 -0.027986025 -0.0169273
0.040521618 0.03665369 -0.0001298136 -0.014702682 -0.039071713 -0.01582056 0.010297394 0.024574509
-0.026647916 -0.00018227943 -0.011788411 -0.00735639 0.005682484 0.0022495512 -0.025386732 -0.012201503
-0.027151532 -0.033046577 0.034934163 0.025558125 -0.015943697 0.010481661 -0.0035276397 -0.01870253
0.042376194 0.021485556 0.0011365203 -0.033451512 -0.040081106 -0.025755737 -0.006362638 0.031011716
-0.04252882 0.010596015 0.0042053955 0.0007441172 -0.0022452287 0.018918393 0.004240833 0.039495554
-0.0033318487 -0.027513124 -0.00801252 0.019268416 0.0041415743 0.010678508 0.022646066 0.010487428
0.017845755 0.0039544017 0.0052221934 0.014285663 0.014028182 -0.0003949425 0.029017275 0.03721282
-0.0051929816 0.0043121157 0.04127642 -0.005630865 -0.024836266 0.0036760792 0.020719176 -0.01657405
0.0021185142 -0.015209934 -0.0083663035 0.035118293 -0.026808256 0.024290336 -0.035967298 -0.0066960836
-0.038971905 0.04016052 0.029561644 0.037987757 -0.032332223 0.021179438 -0.04789556 0.020802725
-0.01277375 -0.018019203 -0.0073718135 0.015827212 -0.01439439 0.042987175 0.011147863 -0.013856637
0.0068509583 0.027137833 0.026823506 -0.02346761 0.036154434 0.03181018 7.8924924e-05 -0.00045811446
0.009416378 0.016314803 -0.0041795685 0.019766347 -0.026943704 -0.014424138 -0.023927525 -0.027323745
0.028054269 -0.04148711 -0.03322412 0.010010793 -0.008113551 0.016499233 0.013885539 -0.02361889
0.025374126 0.046771307 0.018319795 0.01621206 0.011281126 0.010428749 -0.017273124 -0.02715156
0.03661039 0.0105148405 -0.029366897 0.029730016 0.024501085 -0.009502605 0.013646528 -0.013061203
0.025660174 -0.0012988794 0.02862398 -0.027573617 0.0069040973 0.011029745 0.01661448 -0.034539014
-0.02494039 0.01411195 0.03674832 0.005309684 0.0010130787 -0.02321049 -0.025091983 0.0016649961
-0.026398974 0.039150834 0.04737508 0.0037502707 0.0005406389 0.03464496 0.024408981 -0.013881631
-0.009701147 0.026095098 -0.007812865 -0.017879756 0.022482542 -0.03757662 -0.013418813 -0.012270782
-0.02919474 0.03297589 -0.002479586 -0.0073341248 -0.019479379 -0.037855804 0.0013457334 -0.007532116
00000000: aa36 9c3b 0773 293c db07 0c3d d087 03bd
00000010: 879f f6bb 0a12 97ba 77a5 063c 6ac0 cabc
00000020: 810d 1b3d 6440 b1bc 0738 bfbb ffd6 1d3d
00000030: 88ee 963b f006 b2bc 0e10 ce3c ceac bd3c
00000040: 2bca a83b 2381 1a3c 8f01 4ebb 92ba 30bc
00000050: b347 36bc 9e50 a53c e7bd 903c e170 713c
00000060: 76bd dcbc a1fe 673c a3d1 8abc 1266 ccbc
00000070: 955f d5bc 98b1 fd3c c342 a6bc dba7 fabb
00000080: 212e 943c ace7 8bbc 7e2c 823c 2fe0 0e3c
00000090: f0ea a83c eb87 bebc 8704 1d3d 237a 6d3c
000000a0: be00 a33b 9c1f 573c c532 9fbc e6c9 173d
000000b0: 24ba e9bc f973 863c 6e95 2ebd 0ce1 203d
000000c0: f2d7 11bd 36a0 a23c ae16 2dbd 2cea d83c
000000d0: eb12 03bd 44b9 15bd 35e7 6abc 7621 92bc
000000e0: 90fe 663c 3b0a 9d3c 0009 39bd 2c06 2bbc
000000f0: 06f2 0d3d 0bc2 113d 5f93 96bc 6003 093d
00000100: ac88 47bc 0812 203d d8e0 25bd c69d f0bb
00000110: 698c ddbc 2e37 45bc 18e9 623c 77a2 1abd
00000120: c9f5 043d 4d4e ca3c e7a3 413b f75c 123d
00000130: fa33 233c 12a2 41bc 583d 473c b493 c63c
00000140: 044a 883b 6c5d c03c e0e4 13bd 48c4 473c
00000150: fae1 a53c e178 92bc f342 e5bc 1fab 8abc
00000160: fff9 253d 2e22 163d 931e 08b9 85e3 70bc
00000170: a909 20bd 1e9a 81bc 67b6 283c 7b50 c93c
00000180: bb4c dabc 4322 3fb9 2e24 41bc df0d f1bb
00000190: 2134 ba3b 356d 133b d6f7 cfbc d0e8 47bc
000001a0: e46c debc d95b 07bd 2017 0f3d 465f d13c
000001b0: 5b9c 82bc 46bb 2b3c f92f 67bb 0c36 99bc
000001c0: a992 2d3d 7a02 b03c 4bf7 943a 7404 09bd
000001d0: 162c 24bd b2fd d2bc ad7d d0bb 480c fe3c
000001e0: b332 2ebd e89a 2d3c 6acd 893b dc10 433a
000001f0: b024 13bb bffa 9a3c b0f6 8a3b 17c6 213d
00000200: 255b 5abb 3463 e1bc f246 03bc ccd8 9d3c
00000210: 0bb6 873b e9f4 2e3c 3e84 b93c 76d3 2b3c
00000220: 4331 923c ed93 813b ef1e ab3b 6a0e 6a3c
00000230: 76d6 653c 4910 cfb9 a3b5 ed3c 786c 183d
00000240: e329 aabb a64c 8d3b 7711 293d 1f83 b8bb
00000250: 6d75 cbbc 60ea 703b 43bb a93c 4dc6 87bc
00000260: c5d6 0a3b 1633 79bc d212 09bc 33d8 0f3d
00000270: fd9c dbbc 87fc c63c 7252 13bd d26a dbbb
00000280: 01a1 1fbd 5b7f 243d 432b f23c 0d99 1b3d
00000290: cb6e 04bd 8080 ad3c 222e 44bd 7a6a aa3c
000002a0: fe48 51bc 029d 93bc 418f f1bb 12a8 813c
000002b0: 73d6 6bbc 5213 303d 87a5 363c f306 63bc
000002c0: 017e e03b 2950 de3c f8bc db3c 253f c0bc
000002d0: ac16 143d 644b 023d 7f84 a538 152f f0b9
000002e0: 2747 1a3c 9fa6 853c c3f4 88bb 09ed a13c
000002f0: 0bb9 dcbc 3853 6cbc a803 c4bc 0cd6 dfbc
00000300: 11d2 e53c 63ee 29bd 0416 08bd 4f04 243c
00000310: b3ee 04bc 6629 873c 2c80 633c 677c c1bc
00000320: 66dd cf3c 4593 3f3d 6513 963c 27cf 843c
00000330: 79d4 383c 58dd 2a3c 5e80 8dbc f36c debc
00000340: c7f4 153d 7046 2c3c d992 f0bc 5d8c f33c
00000350: 80b6 c83c d0b0 1bbc b095 5f3c a8fe 55bc
00000360: 4935 d23c 293f aaba d67c ea3c 11e2 e1bc
00000370: c43b e23b 1bb6 343c 171b 883c c878 0dbd
00000380: ca4f ccbc cf35 673c 6885 163d dcfc ad3b
00000390: 48c9 843a ed23 bebc b48d cdbc 003c da3a
000003a0: a942 d8bc a05c 203d 5f0c 423d 1ac7 753b
000003b0: aab9 0d3a e0e7 0d3d 58f5 c73c c86f 63bc
000003c0: 8ff1 1ebc 63c5 d53c 8801 00bc 9178 92bc
000003d0: 4f2d b83c f1e9 19bd 95da 5bbc 640b 49bc
000003e0: cf29 efbc ba11 073d 8d80 22bb 1953 f0bb
000003f0: 3893 9fbc b00e 1bbd 5263 b03a f8cf f6bb
