models/simple_9_epoch_1.469_loss_0.997_acc.pt (torch, 863018 bytes, 24 tensors)

features.Conv2D_0.weight f4 [32, 1, 3, 3]
000000 a8 2b d9 bc 4f a6 14 3d 97 8b 58 3d ac 37 0f bd
       -0.026510075 0.036291417 0.0528675 -0.034965202
000010 30 b0 a7 b9 0c f6 16 3d d9 70 4e bd b9 ce 65 3c
       -0.00031983992 0.036855742 -0.05040059 0.014026337
000020 2c 0d 83 3c 86 8b 46 3d dc 02 70 bc 2c 6a 3e bd
       0.015997492 0.048472904 -0.014649119 -0.046487972
000030 17 0e 6d bc 13 59 30 3d 18 e4 19 bc 5a 75 0e 3d
       -0.014468691 0.043053698 -0.009392761 0.034779884
000040 98 da 07 3d 27 1f f8 3c 4b 16 0a 3b 78 cf 56 bc
       0.03316745 0.030288292 0.0021070417 -0.013110988
000050 5e c9 b0 3c cf b0 76 3c 92 bb e4 3c bf 38 f1 3c
       0.021580394 0.015056803 0.027921472 0.029446004
000060 38 a8 12 3d af fe 7a bd ca da c4 bc f2 fa 4a 3d
       0.035804957 -0.06127804 -0.024030108 0.049555726
000070 ea ce 3f 3d 5c d4 be 3c 5b f0 62 3d 09 00 70 3d
       0.046828188 0.02329462 0.055405002 0.058593784
000080 12 2d 92 3d c4 cd 1e 3b de 7e 81 bd d8 83 5a bd
       0.07137503 0.0024231533 -0.06323026 -0.053348392
000090 c7 7f 35 be 6d 99 c2 bd aa 39 c6 3d 8a 0f 59 3c
       -0.17724524 -0.0950192 0.09678967 0.013248334
0000a0 24 69 c2 3d 14 70 8f 3d a7 54 0c bc 57 38 b2 3d
       0.0949271 0.07003799 -0.008565105 0.08702152
0000b0 f3 c2 3a 3e 0e 01 01 be 27 da 2a 3d bd c9 9c 3d
       0.1823843 -0.12598059 0.041711953 0.07655666
0000c0 c4 83 87 3c a0 42 44 bc d0 72 1a 3e c9 72 ab 3d
       0.016542323 -0.011978775 0.1508286 0.08371503
0000d0 ee 80 5d 3e 67 a5 8b 3e 7e 57 85 bd e1 66 82 bd
       0.21631214 0.2727463 -0.065108284 -0.06367279
0000e0 79 be 8e bd aa 5e cf bc 25 ea 88 bd 9a c2 f0 bc
       -0.069699235 -0.025313694 -0.066852845 -0.029389668
0000f0 2f 13 19 3c 53 d8 12 bd b5 61 2a 3c 85 2e e2 bd
       0.009342953 -0.035850834 0.010399272 -0.11044029
000100 d7 9a d8 bd 87 cd ef bd 6c 47 cf bc bb 90 98 bd
       -0.10576408 -0.11709123 -0.025302611 -0.0744948
000110 79 7f 21 be 0d 18 27 3c 38 03 ee bd 1c 2f 10 be
       -0.15771283 0.010198605 -0.11621708 -0.14080471
000120 55 4c 34 bd 43 96 85 3c b3 4d 9b bd 25 89 b7 3d
       -0.04401811 0.016307002 -0.07583179 0.08961705
000130 55 1b 52 bd c6 90 1d 3d c6 20 05 3e 1c 0d 8e 3d
       -0.051295597 0.038468145 0.13000783 0.06936094
000140 65 7e e0 bd 56 b7 37 3e df 81 28 3e 0f 39 7b 3e
       -0.10961608 0.17941031 0.16455792 0.24533485
000150 97 fc f8 bd 76 0e 11 3d 6b 6f 44 3e d7 f2 35 be
       -0.12157553 0.03541418 0.19183128 -0.17768417
000160 51 50 d8 3b 0d 5a be bd 0c 65 10 ba 7e 38 81 3a
       0.0066013713 -0.092945196 -0.0005508221 0.0009858755
000170 b9 d0 08 3a e1 ec 81 ba 9a 38 65 3a 21 ef 26 3a
       0.00052190904 -0.0009912514 0.0008744091 0.00063680304
000180 07 57 00 bb 6c 8a 2c 3a 5e bb 43 3a 83 12 1a bc
       -0.0019583122 0.0006581906 0.00074665796 -0.009403828
000190 5e bd 71 3b cb fa 30 3b f2 26 b8 bc 9c 4b 94 b9
       0.0036886553 0.0027004953 -0.022479508 -0.00028285093
0001a0 ed 5a 69 3b 3b 30 6f bc 5a 21 01 bb 06 f0 00 bb
       0.0035607175 -0.014598901 -0.0019703717 -0.0019674315
0001b0 12 8f 60 39 48 9f 16 bd d4 2c c5 bd ed 1a 06 3c
       0.00021415603 -0.036772996 -0.09627691 0.008185131
0001c0 c3 3f a2 bd 2d d3 aa bd de 57 d8 bb d5 62 58 bd
       -0.07922318 -0.0834106 -0.0066022715 -0.05282863
0001d0 32 0a 1a bd 56 56 fb 3a 29 37 47 3b c6 5f 39 ba
       -0.03760738 0.001917551 0.0030397868 -0.00070714613
0001e0 1b 8d bc 3b 5a b2 9d ba 45 bd a8 3a f0 7d 89 38
       0.005754126 -0.0012031302 0.001287379 6.556127e-05
0001f0 c4 17 ba bb 47 55 54 3a 38 95 cf bd 5c cc 04 be
       -0.0056791026 0.00080998655 -0.10135883 -0.12968582
000200 b6 81 ec bd 58 12 e0 3b 49 ed 94 bd ab 05 07 bd
       -0.11548178 0.0068381242 -0.07271821 -0.03296439
000210 42 46 89 3c d1 b2 24 3d 48 dc e9 bc 81 36 00 3e
       0.016757134 0.040209595 -0.028547421 0.12520792
000220 2a 41 b6 bd 3b 47 8e 3d c9 ea e7 3d 6a d4 14 3d
       -0.08899148 0.0694718 0.113240786 0.036335386
000230 c0 30 08 be 0e c3 14 3e 9d d8 b9 bd 16 33 15 be
       -0.13299847 0.14527532 -0.09074519 -0.14570269
000240 59 05 a8 3d 04 70 eb bc cd ca 1a 3b 46 99 a5 3a
       0.08204145 -0.028739937 0.0023619414 0.001263418
000250 01 ea 29 3e 33 a5 da 3d f6 95 64 3d 08 b3 f3 bc
       0.16593172 0.106760405 0.055807076 -0.029748455
000260 52 2a d3 3d a9 9d 2d 3e c8 0a 0f 3e 1c b4 aa bd
       0.10310806 0.16954674 0.13968956 -0.083351344
000270 12 f3 b7 bd d7 ad 44 3e a8 6e 61 3d 78 2c 07 3e
       -0.08981909 0.1920694 0.05503717 0.13200557
000280 99 28 25 3e 7e 33 16 bb 37 98 b2 3d f4 cd ad 3d
       0.16128768 -0.0022918875 0.08720439 0.08486548
000290 a5 f2 08 3e 58 8a 4b 3e ee 61 86 be 86 d8 5b be
       0.13373812 0.19876993 -0.2624659 -0.21469316
0002a0 8b e4 11 be 12 06 93 bd 2a b7 93 3d a0 7e e0 3b
       -0.14247338 -0.07178892 0.0721267 0.0068510324
0002b0 29 dd 35 bb ad a9 2e bc 3a 05 31 bc 6c 38 2f bc
       -0.002775023 -0.010660571 -0.010804469 -0.010694604
0002c0 cb d0 22 3c 0a 5b 91 bc de dc a7 3b 50 e2 f2 bc
       0.009937475 -0.017743606 0.005122765 -0.02964893
0002d0 79 b0 64 bd bd 06 9e 3c 40 4b 26 3d 6c 68 ed bc
       -0.05583236 0.019290322 0.040599108 -0.028980456
0002e0 76 59 54 3d 90 7b 20 3d aa fb f2 bc a4 fa 50 bc
       0.05184313 0.03918034 -0.029661018 -0.01275507
0002f0 50 39 7e 3c 30 0c b2 bc 3a 3e 26 3c cb c0 c0 bc
       0.015516594 -0.021734327 0.010146672 -0.02352943
000300 ae 1a 24 3d 32 ab 88 3c 9c 01 74 bd af 9b 0b 3d
       0.040064506 0.016683195 -0.059571847 0.03408402
000310 96 db 24 bc a2 be c2 bc 8d 68 b6 3b f7 aa 0e 3d
       -0.010062119 -0.023772541 0.0055666626 0.034831014
000320 d9 72 f6 bd 3d 97 41 3d 1f f5 40 3d ad d0 af 3d
       -0.12033624 0.047263373 0.047108766 0.085847236
000330 85 a6 b2 3d e7 70 a8 bd 8a 9d cc bd 13 8e 00 3e
       0.08723167 -0.082246594 -0.09990986 0.12554197
000340 4d 59 b4 3d f2 3b b0 bd ac 2e d2 3d a4 5b e0 bd
       0.08806095 -0.08605184 0.10262808 -0.10954979
000350 cf b1 e7 bd b1 e0 16 3e c2 62 73 bb 4c 33 7f 3d
       -0.11313211 0.1473415 -0.0037137722 0.06230478
000360 ac a8 e8 bb fa 9b a2 3d c4 ee 3a 3e e5 76 3a be
       -0.0071001854 0.079399064 0.18255144 -0.18209417
000370 ba 6c 98 bd 3e aa cb 3d 72 1f 33 be db 97 56 3d
       -0.07442613 0.099445805 -0.17492464 0.052390914
000380 0d ba 10 3d e1 18 3b be 96 62 30 3e 0a 34 51 3d
       0.03533368 -0.1827121 0.17225108 0.05107502
000390 24 56 54 be 4b c7 6e 3e 00 02 a5 bc f8 bf 58 3e
       -0.20735985 0.23318212 -0.020142555 0.2116698
0003a0 1a a8 3c 3e ef 48 58 3e 6e bf f4 bd 84 3c 53 3d
       0.184235 0.21121572 -0.11950575 0.051571384
0003b0 5f e3 06 bd dd 56 6d 3e 2f 60 6e 3e dd bb ec 3d
       -0.03293168 0.23177667 0.23278879 0.115592696
0003c0 d1 c8 ed 3d 14 10 85 3d 0a 8c 2d 3e b5 69 a1 3a
       0.11610568 0.06497207 0.16947952 0.0012314828
0003d0 50 63 49 bd da 72 d9 3c 97 8e 04 3d 86 7d 7e bd
       -0.049166977 0.026544023 0.032362547 -0.062131427
0003e0 86 73 12 3d cf c9 dc bc d3 cf 92 bd be 5e 11 bd
       0.035754703 -0.026951699 -0.071685456 -0.035490744
0003f0 c2 35 d8 3a fa 12 c4 ba 96 cb 72 ba 99 8e 8e ba
       0.0016495513 -0.0014959269 -0.0009261904 -0.0010876238

features.Conv2D_0.bias f4 [32]
000000 9f 50 1e bd e8 d7 b8 bb 2f 15 9b 3a 8a 42 50 3d
       -0.038651105 -0.0056409724 0.0011831875 0.050844707
000010 ce ca 16 3e 2e 3c 7f be ec 96 52 ba c6 77 6b 3d
       0.14725801 -0.249253 -0.00080333534 0.05748727
000020 85 27 f0 3d 02 f2 42 be 26 9b 2d bb bc 43 35 bc
       0.11726288 -0.19037631 -0.002649018 -0.011063512
000030 be 5e 91 3c f3 27 9d bb 28 3f 71 3d 1e 6e 05 3e
       0.017745372 -0.004796022 0.05889812 0.13030288
000040 ba c6 56 be f5 bc b9 3c 5a 7f 69 3e 93 35 0d bd
       -0.20974246 0.02267311 0.22802487 -0.03447492
000050 98 fd e3 bc 46 61 43 3c 16 a9 a4 3d 98 5e 58 bd
       -0.027830884 0.011925047 0.08040063 -0.052824587
000060 a6 b7 b4 bb 9f 87 2a bd 18 f0 2d be bb be 9d bd
       -0.0055150567 -0.041633245 -0.1698612 -0.077023946
000070 ef 8e 36 bc ad 84 1b 3e 26 1a 97 3e 8f e3 81 bb
       -0.011142476 0.1518733 0.29512137 -0.0039638947

features.Conv2D_1.weight f4 [32, 32, 3, 3]
000000 3f 0a 47 ba 3d bc 29 b9 13 63 23 bb 3e fc 4c ba
       -0.00075927743 -0.0001618722 -0.002493088 -0.00078195694
000010 28 86 75 b8 4c 77 50 b8 cb 36 12 b9 0c 7d 7d 39
       -5.8537495e-05 -4.970217e-05 -0.00013944057 0.00024174544
000020 20 4d 57 b7 ad b0 e8 ba 78 2d 60 bb 6d 27 22 bb
       -1.2832956e-05 -0.0017752849 -0.003420679 -0.0024742738
000030 fd a6 18 bb 93 75 82 bb a7 9e 42 bb 6e 10 86 bb
       -0.0023292892 -0.003981301 -0.0029696615 -0.004091314
000040 6f 6a d0 bb 38 bb 03 bc 38 ad 58 bb eb b8 45 bb
       -0.006360344 -0.008040242 -0.003306223 -0.0030170034
000050 6e 10 b7 bb e8 20 4f bb d0 69 56 bb 20 00 19 bb
       -0.0055866754 -0.0031605307 -0.0032716878 -0.0023346022
000060 ce 8d eb ba 0a 43 ee ba 8a 34 07 bb 7c a9 94 bc
       -0.0017971338 -0.0018177938 -0.002063068 -0.018147223
000070 c3 15 92 bc ab b4 8d bc 88 77 49 bc 22 42 5d bc
       -0.017832642 -0.017298063 -0.012296565 -0.013504537
000080 17 b0 51 bc f4 9d 07 bc be 9a 2b bc 68 ca 29 bc
       -0.012798331 -0.008277405 -0.010473905 -0.010363199
000090 f9 84 8a bc 39 87 91 bc e7 fc 6e bc 7f df 82 bc
       -0.01690911 -0.017764674 -0.014586664 -0.015975712
0000a0 f8 09 8a bc b5 62 6d bc 23 82 b2 bc 1a 62 a7 bc
       -0.016850457 -0.014488866 -0.02179057 -0.02043252
0000b0 ee ef 95 bc 86 b7 ce 3b 13 d2 38 3c 63 6a 3b 3c
       -0.018302884 0.006308499 0.011280554 0.011438939
0000c0 59 af 33 3c 38 02 40 3c f1 7c 00 3c 54 5b 92 bb
       0.010967099 0.011719279 0.007842288 -0.0044664536
0000d0 3b c7 c5 ba 89 29 89 bb 76 51 aa bc 39 63 9b bc
       -0.0015089283 -0.0041858596 -0.020790797 -0.018968211
0000e0 a8 4c 85 bc 79 6f 8b bc 10 37 75 bc 53 91 58 bc
       -0.016271904 -0.017020928 -0.014966741 -0.013218242
0000f0 1d 7f 93 bc e2 44 88 bc 26 c3 7f bc 75 74 a6 bc
       -0.018004948 -0.016634408 -0.015610492 -0.020319203
000100 83 4d 8c bc 70 54 86 bc 35 7d 98 bc da 2e 82 bc
       -0.017126804 -0.016397685 -0.01861439 -0.015891481
000110 b1 3d 73 bc 29 f9 95 bc 2e 12 80 bc f6 92 80 bc
       -0.014846251 -0.018307285 -0.015633669 -0.015695076
000120 21 67 72 bc e1 2a 82 bc 09 4d 89 bc 27 b9 87 bc
       -0.014795096 -0.015889587 -0.016760366 -0.01656778
000130 a5 53 88 bc b9 d9 7d bc 3c c2 b3 bc 36 ed b0 bc
       -0.016641447 -0.015493804 -0.021943204 -0.021597486
000140 e9 54 95 bc 7f 6e 33 bc 2f 20 0b bc c2 20 ce bb
       -0.018228965 -0.010951637 -0.00849156 -0.006290526
000150 de 8e f2 bb 7e 85 93 ba 04 65 b7 3a 20 e1 ee 3b
       -0.007402285 -0.0011254994 0.0013991897 0.0072900206
000160 4d 41 c2 3b 8a 46 52 3b dc d9 c7 b6 ca cd e8 b6
       0.0059281946 0.0032085502 -5.9560243e-06 -6.938096e-06
000170 38 b8 0b 37 7d 26 12 b7 96 7c d8 b6 32 4f 4d 37
       8.327937e-06 -8.711239e-06 -6.4518053e-06 1.2237391e-05
000180 37 94 18 35 96 a3 d4 b6 ba 5d 9e b7 5a 54 43 ba
       5.6840094e-07 -6.3371363e-06 -1.8878713e-05 -0.0007451229
000190 9d 1a 97 ba cd 83 8a ba cd 9a 8c ba de ba a5 ba
       -0.0011528317 -0.0010567844 -0.0010727287 -0.0012644192
0001a0 38 92 a5 ba df 00 9f ba fc 92 b9 ba f3 ff a5 ba
       -0.0012632078 -0.0012130997 -0.0014158185 -0.001266478
0001b0 df aa 9a bc a6 d2 85 bc e3 c1 81 bc ba 16 8b bc
       -0.018880306 -0.016335797 -0.015839523 -0.01697861
0001c0 b7 9c 77 bc 2e fa 70 bc 7d f3 97 bc 0b dd 82 bc
       -0.015113047 -0.014708085 -0.018548721 -0.015974542
0001d0 47 46 82 bc d6 0e e2 37 78 f2 ef 37 eb 97 01 39
       -0.015902651 2.6948208e-05 2.8603929e-05 0.00012358993
0001e0 53 8e dc b7 9b fb 10 b7 3d 81 95 38 19 5e 4b b7
       -2.6292319e-05 -8.64165e-06 7.128946e-05 -1.2121652e-05
0001f0 2a 23 1f b7 70 39 f2 36 a5 06 c5 bc 5f 54 b0 bc
       -9.485326e-06 7.2188486e-06 -0.02405102 -0.021524606
000200 6d 38 9a bc 44 30 af bc b7 a0 8b bc e4 f8 82 bc
       -0.018825734 -0.02138532 -0.017044408 -0.01598782
000210 f9 be a1 bc fa 9f 90 bc 0a 9c 84 bc 0b 48 c4 bc
       -0.019744383 -0.017654408 -0.016187686 -0.023960134
000220 9b 73 9b bc 49 20 b6 bc 2e 12 d2 bc 9c 71 b3 bc
       -0.018976023 -0.022232192 -0.025643434 -0.02190476
000230 61 3a b6 bc b4 da a8 bc 73 45 aa bc f7 b0 90 bc
       -0.022244634 -0.020612098 -0.02078507 -0.017662508
000240 2c f5 b8 3b 6b 3c b3 3b c2 bf d3 3b 4b 68 fc 3b
       0.005644461 0.005469849 0.0064620683 0.0077028624
000250 6a 6d f5 3b 75 9c e6 3b 34 a3 37 3b f9 5d 64 3b
       0.00748985 0.007037694 0.002802086 0.003484605
000260 f6 aa 26 3b 3a 8a bb bb be fd fd bb ff 99 27 bc
       0.002543149 -0.005723265 -0.0077511957 -0.010229587
000270 e3 88 ef bb c4 17 df bb f2 5a 16 bc 92 38 23 bc
       -0.0073100193 -0.006808253 -0.0091769565 -0.009962218
000280 dc 98 f6 bb 37 a1 25 bc ea 8a e0 bc 25 aa c7 bc
       -0.0075255465 -0.010109237 -0.02740999 -0.024373123
000290 cf 49 cf bc c6 43 0d bd 3e a9 06 bd a1 02 f9 bc
       -0.02530375 -0.034488462 -0.032876246 -0.030396761
0002a0 f4 a5 c2 bc 0d f6 d7 bc 07 fe c4 bc f6 7b a9 3a
       -0.023760773 -0.026362443 -0.02404691 0.001293062
0002b0 76 20 4b 39 a9 39 9e ba fd 7f 06 3a d0 dc 07 3a
       0.00019371681 -0.0012071627 0.0005130766 0.0005182745
0002c0 a8 05 b0 ba 2a 82 22 ba 10 57 56 ba 99 3a 06 bb
       -0.001342942 -0.00061992055 -0.00081764255 -0.0020481704
0002d0 68 e5 8a ba 46 b2 97 b9 ba 4d 9e ba 56 48 8f ba
       -0.0010596933 -0.00028933788 -0.0012077608 -0.0010931592
0002e0 ec 76 9e b9 2a 3a 35 ba b4 4c 8a 38 44 4e 00 b7
       -0.00030224712 -0.0006913269 6.59464e-05 -7.647617e-06
0002f0 d4 82 5c 39 33 70 d4 bb ca af f1 bb 6e 47 e9 bb
       0.00021029572 -0.0064831018 -0.007375692 -0.007119111
000300 4c 2a fd bb a6 f6 02 bc f5 85 10 bc 23 bf 06 bc
       -0.0077259894 -0.007993376 -0.008821 -0.0082242815
000310 f5 bf f3 bb 46 7c 22 bc e2 b9 9d bc e9 7c b9 bc
       -0.0074386545 -0.009917324 -0.019253675 -0.02264257
000320 e7 4d ad bc f9 44 8e bc 4a e8 9a bc ea 8f 97 bc
       -0.02115531 -0.017366873 -0.018909592 -0.01850124
000330 c8 b6 83 bc 84 6b 8e bc 88 f2 86 bc ee eb 1f ba
       -0.016078368 -0.017385252 -0.01647307 -0.0006100525
000340 a0 2a 97 bb 79 69 85 bb 6b a0 97 ba a3 24 f6 bb
       -0.0046132356 -0.004071411 -0.0011568194 -0.0075116917
000350 ec 16 a4 bb 7b 94 c6 bb 3b a9 04 bc 19 a1 c3 bb
       -0.0050076153 -0.0060601807 -0.008096988 -0.005970132
000360 ce 10 78 bc a9 9e 3d bc 69 5e 71 bb 76 42 9e bc
       -0.015140725 -0.011573472 -0.0036829954 -0.0193188
000370 a1 c0 6a bc 08 92 c3 bb e0 67 3a bc 23 70 33 bc
       -0.014328153 -0.005968336 -0.011377305 -0.010952028
000380 f2 5f 69 bb 52 ee 8b bb e6 fe 08 bc 9a ed 95 bb
       -0.0035610166 -0.0042703534 -0.008361554 -0.0045754435
000390 2a 65 26 bc f1 fe 1b bc 8f f9 e7 bb ce 3e 91 bc
       -0.010155955 -0.009521232 -0.0070793102 -0.017730143
0003a0 7a 34 71 bc cc 9f 91 bc 6f 84 26 3b 84 c5 58 ba
       -0.014721984 -0.017776392 0.0025408526 -0.0008269178
0003b0 66 77 38 3a cb d1 34 3b 9b 4c 38 ba 54 44 58 3a
       0.0007036835 0.0027590867 -0.0007030458 0.0008249928
0003c0 d5 2f 03 bc 8b 77 70 bb 7a eb c1 bb 92 89 36 bb
       -0.0080070095 -0.0036692347 -0.0059179636 -0.0027852994
0003d0 27 bc 3d bb 1b ab 55 bb 4a 5a 6c bb 41 ff 86 bb
       -0.002895126 -0.0032603208 -0.0036064559 -0.004119784
0003e0 a8 cc 5a bb 0b cc 4f bb ae e3 87 bb b1 03 36 bb
       -0.0033386145 -0.0031707312 -0.0041470146 -0.0027773196
0003f0 ac cd 45 38 0a e7 a4 38 45 fc 58 38 7b 3f f1 38
       4.7160007e-05 7.863164e-05 5.1733357e-05 0.000115036

features.Conv2D_1.bias f4 [32]
000000 6a cd b6 bc 85 41 37 bd 2b 3d e8 bb b1 65 99 bc
       -0.022314746 -0.04474022 -0.00708737 -0.018725248
000010 b4 af 5a 3c 94 d0 4a 3c 13 e7 09 3b 86 b0 80 bb
       0.013347555 0.01237883 0.0021042272 -0.0039272932
000020 e8 a2 17 3b 4a 34 9c bb 96 a5 e0 3c 98 c6 8a 3c
       0.0023137871 -0.0047669755 0.027422708 0.0169404
000030 4a 43 4c 3d c5 50 85 bd 20 69 ac 3c 44 e8 1b 3b
       0.04986886 -0.06509546 0.021046221 0.0023789564
000040 de e9 4a 3d af 6f 93 bd 4b fa 78 bd 9b 8f 87 b3
       0.04953944 -0.07199036 -0.060785573 -6.312549e-08
000050 04 47 10 3d 10 4e df 3a ea 00 79 bd 74 0d 8a bd
       0.035223976 0.0017036814 -0.060791887 -0.06740847
000060 d7 6c 5c bc b5 78 8a 3c f8 0e d0 3c 64 ba 4b 3d
       -0.013453684 0.01690326 0.025397763 0.049738303
000070 0f aa fb bc 5f 2c 17 bd bf 00 3e bd 99 6c dc 3c
       -0.030720739 -0.03690755 -0.04638743 0.026907252

features.Conv2D_3.weight f4 [32, 32, 3, 3]
000000 01 f3 8a bc 89 0f 87 bc 01 35 98 bc ae 4a 9e bc
       -0.016961576 -0.0164869 -0.018579962 -0.01932272
000010 fc 6d b6 bc 9a 9f d9 bc 3b 92 cb bc 99 8b f2 bc
       -0.022269242 -0.026565362 -0.024850002 -0.029607581
000020 26 21 0c bd 32 a9 2e 3a 8e d9 6e 3b 98 1f 61 38
       -0.0342113 0.00066627853 0.003644559 5.3673604e-05
000030 75 46 22 3b ce 12 cc 3b 4d a5 c7 3a b7 6d 28 3b
       0.0024761234 0.0062278276 0.0015231759 0.002570016
000040 11 72 a4 3b 22 89 4a 3b 0d 52 e0 bc 26 78 9b bc
       0.0050184806 0.0030904491 -0.027382875 -0.01897819
000050 a4 b0 ec 3b 90 19 0e bd 28 d8 64 bc 79 87 87 3c
       0.0072232056 -0.034692347 -0.013967551 0.01654409
000060 af a9 2a 3d 30 06 b2 3c e7 35 d5 3c a3 f3 92 bc
       0.04166573 0.021731466 0.02602668 -0.01793844
000070 cb 37 8e bc e8 12 52 bc f0 31 4a 3c ff 65 6e bc
       -0.017360589 -0.01282189 0.012341008 -0.014550685
000080 25 14 97 bc b4 73 3a 3c 0b f6 57 3c 8b a2 d6 bb
       -0.018442223 0.011380125 0.01318122 -0.0065501384
000090 8a 3d a8 39 7a 08 50 b9 81 bb 26 b9 5b 7a 99 b9
       0.00032089307 -0.00019839584 -0.00015900844 -0.00029273596
0000a0 e3 21 85 b9 46 d6 73 39 76 95 20 3b 9e e9 5c 3b
       -0.00025392984 0.00023254109 0.0024503148 0.0033708583
0000b0 39 9e 5a 3b d1 70 22 bc bf c5 29 bc e8 73 ea bb
       0.0033358468 -0.009914593 -0.010362088 -0.0071549304
0000c0 ca ba 20 ba 4e 02 d4 3b 7c bc 14 3b 8e 2f 0e bc
       -0.00061313494 0.0064700013 0.0022695353 -0.00867833
0000d0 89 53 e9 b9 c9 24 3a 3a db 78 94 bc 2e 8e 7d bc
       -0.00044503462 0.00071008183 -0.018124035 -0.015475793
0000e0 51 ff 50 bc be 4b c4 bc 54 f2 15 bb 64 35 4e bb
       -0.012756185 -0.023961898 -0.0022880035 -0.0031464929
0000f0 41 f9 f2 3c f2 8c ec 3c ed 38 a6 3c 88 6a 1f 37
       0.02965987 0.028875802 0.020290816 9.501942e-06
000100 d0 6b 28 37 61 cc 25 37 a9 f6 de 36 2a 08 e9 36
       1.0038682e-05 9.882352e-06 6.6448306e-06 6.9448915e-06
000110 eb 2b d8 36 99 f8 f6 36 22 49 fa 36 ff 33 e8 36
       6.4424144e-06 7.360312e-06 7.4590944e-06 6.920192e-06
000120 d7 cf ff ba d5 48 1b 3c 36 cc d6 3b f3 05 53 3c
       -0.0019516897 0.009477814 0.0065551056 0.012879836
000130 21 20 0c 3b 2e d0 90 3b 57 6c 7e 3c b9 3c 55 3b
       0.0021381455 0.004419348 0.01552876 0.0032537414
000140 ae 45 63 bb ee 02 e3 bb a3 c7 c2 bb 73 39 4c bb
       -0.0034678984 -0.0069278395 -0.0059442087 -0.0031162172
000150 27 79 e6 bb 1d 63 8b bb b0 87 1e b8 05 2c 75 3a
       -0.0070334855 -0.0042537586 -3.7796504e-05 0.0009352568
000160 ae cb 83 3b fe 81 3c bb 1e 58 10 b9 7b e0 45 bb
       0.0040220832 -0.0028764005 -0.00013765736 -0.0030193615
000170 7a 05 2f bc 0a 47 93 bb fd 12 b8 bb 7b 28 0a bc
       -0.010682458 -0.0044945525 -0.005617498 -0.008432503
000180 89 dc 0b 3b 49 02 a0 ba 42 af 15 bc a9 d0 a7 bc
       0.0021341166 -0.0012207712 -0.009136023 -0.02048524
000190 e7 d4 b3 bc 0e 9f a7 bc 31 ed 2f bc 70 25 26 bc
       -0.021952106 -0.020461585 -0.010737703 -0.010140762
0001a0 6d 04 05 bc 97 d4 38 bb 1f 4b 9b bb 25 09 45 bb
       -0.008118731 -0.0028202885 -0.0047391797 -0.0030065265
0001b0 72 b6 da bc cd 8b 2c 3b ba c6 34 3c 27 1c de 3c
       -0.026698325 0.0026328445 0.011033708 0.027113033
0001c0 95 b2 99 3c 59 e2 18 3c 84 14 82 3c 67 6d 31 bb
       0.018761912 0.009331309 0.015878923 -0.0027073266
0001d0 f0 cf b5 bc 93 96 e0 bc fd 07 10 bd 1a d2 b8 bc
       -0.022193879 -0.02741555 -0.03516387 -0.022561122
0001e0 e0 e9 80 bc b4 e0 75 bc 80 06 8f bb 39 7d bf 3c
       -0.01573652 -0.015007187 -0.0043647885 0.02337514
0001f0 ae b9 10 3d 9b a1 22 3d bb dc e3 bb 6b 9f f1 bc
       0.035333328 0.0397049 -0.0069538034 -0.029494962
000200 b0 f2 96 ba d6 71 f0 3c b7 72 91 3c 68 b4 d5 3b
       -0.0011516418 0.029351156 0.017754896 0.0065217502
000210 98 df ac 3b e4 90 c9 bb 0d 56 91 3c bb 29 9c bb
       0.005275678 -0.0061513055 0.017741228 -0.004765717
000220 ad 64 31 bc 5b a9 69 bc a1 bf 8a 3a af cf 27 bc
       -0.010827226 -0.014261569 0.0010585674 -0.010242387
000230 c2 ef 6c bc cf ab db 3a b2 aa e6 bb 0a 65 46 bc
       -0.01446146 0.0016759577 -0.0070393914 -0.0121090505
000240 51 61 d3 bc dd 51 f2 bc 8d 53 dc bc 0b 6b 3e bc
       -0.02580324 -0.029580051 -0.026895309 -0.011622201
000250 fe 5d cd bb 7c d8 3e bb ee 74 d2 bb f2 4b f5 ba
       -0.0062673083 -0.0029120734 -0.0064226305 -0.001871465
000260 df 1a 9f bb a7 e6 c9 bc 02 68 03 bd 76 2e 57 bc
       -0.004855498 -0.024646116 -0.03208161 -0.013133636
000270 6f 72 0f bd 90 07 14 bd 27 58 42 bc 1a 72 ee 3b
       -0.03502124 -0.036140025 -0.0118618375 0.0072767856
000280 c0 5e 87 3b d1 aa 0b 3d 43 9f 0f bd f3 f4 35 bd
       0.004131168 0.03409845 -0.035063993 -0.044423055
000290 f8 9d be bc 35 fb 32 bd f0 b1 e3 bc 49 e1 05 bc
       -0.023268685 -0.0436966 -0.027794808 -0.008171388
0002a0 ff 36 0e 3d de d1 19 3c 29 5c 31 3d 73 24 cf ae
       0.034720417 0.009388415 0.04330078 -9.419745e-11
0002b0 5a da 58 2d be 19 15 ae 7f 2f 1c af da 40 67 ae
       1.2326662e-11 -3.390154e-11 -1.4204991e-10 -5.258092e-11
0002c0 ea fc 8c af 94 a8 0a ae 05 40 89 ae 1e 46 13 af
       -2.5645558e-10 -3.1527295e-11 -6.241411e-11 -1.3394483e-10
0002d0 8f 8c 81 bc 72 ea a7 bc 2d de b8 bc bb 20 ee ba
       -0.015814094 -0.020497534 -0.02256688 -0.0018167713
0002e0 95 b9 5c bb 5e b7 40 bc c5 92 cb bb b0 52 99 bb
       -0.0033679951 -0.011762468 -0.0062125647 -0.0046790466
0002f0 22 6f 5c bb ac ed 4f bb d4 7c 86 bc 08 44 e6 bb
       -0.0033635576 -0.0031727357 -0.016416945 -0.007027153
000300 49 5d b4 3c 0e 33 73 3a c6 91 ba 3b 35 7a 0a 3d
       0.022017138 0.0009277322 0.005693647 0.033807952
000310 54 69 8c 3c 58 59 89 3c be 34 c7 bb 70 15 5b bc
       0.017140068 0.016766235 -0.0060792854 -0.01337181
000320 dd 69 49 bc 10 3c 87 bb c0 10 7b bc 20 f1 56 bc
       -0.012293306 -0.004127033 -0.015323818 -0.013119012
000330 ad 90 8c 3b 0f d1 0a bb d8 ac 37 b7 92 a5 5b bc
       0.0042897076 -0.0021181738 -1.0947893e-05 -0.013406174
000340 ae f1 62 bc 72 07 7c bb eb e9 7d bc 50 df 78 bc
       -0.013851566 -0.0038456586 -0.015497665 -0.015189961
000350 06 28 8f 3a bb a6 ba 39 76 7c 33 3b 61 c0 aa 3c
       0.0010921962 0.00035600908 0.0027387417 0.020843687
000360 98 ad d6 bc 51 d5 d5 bc f1 20 db bc 41 8c 11 bb
       -0.026205823 -0.026102694 -0.026749106 -0.0022208842
000370 2d 92 d1 bb 4e d0 ae bb 25 94 e2 bb 3d 83 3f 3c
       -0.0063955993 -0.0053348904 -0.006914633 0.0116890045
000380 73 99 65 ba 65 bd 99 3b 34 68 bf b7 fe fb 3d bc
       -0.00087585225 0.004691767 -2.2817498e-05 -0.011595724
000390 88 1f 8f 3b 6d f3 31 bc b8 2f 88 bc e1 07 9b ba
       0.0043677725 -0.01086126 -0.016624317 -0.001182791
0003a0 ec 07 45 bc 45 40 c6 bc bc b6 6a 3b 1c 87 1c 3c
       -0.0120258145 -0.024200568 0.0035814485 0.009553697
0003b0 02 9c ed 3b 4e 3d 2a bb 59 a8 c4 bc de 55 28 bc
       0.0072512636 -0.0025976482 -0.024006056 -0.010274379
0003c0 cd a1 06 3c 2d a7 0b bc 4c f9 03 3c d2 29 19 bb
       0.008217287 -0.0085237445 0.0080550425 -0.0023370874
0003d0 0c aa 10 bc ac fe 35 bc 57 30 a1 bb 89 ac 1e bc
       -0.008829605 -0.011108082 -0.0049190926 -0.00968469
0003e0 9c a7 84 bc 16 76 8d ba 78 b3 1d bc ed 88 a1 bc
       -0.016193204 -0.0010792639 -0.009625308 -0.019718612
0003f0 89 81 42 3b 93 d8 c4 3a 4f b1 7c ba 42 70 f0 ba
       0.002967926 0.0015018157 -0.0009639458 -0.0018344002

features.Conv2D_3.bias f4 [32]
000000 ef fd 95 bc 99 80 26 3a 6e df ae bc 1c 16 74 bb
       -0.018309562 0.000635156 -0.021346774 -0.0037244624
000010 47 d6 92 b9 8a fc bb 3d b8 fb 63 bb 26 7c fb bb
       -0.0002800694 0.091790274 -0.0034787487 -0.0076747118
000020 5e 47 99 3d 8f fa c9 3c f2 20 4f 3b 00 05 72 ba
       0.07484315 0.024655608 0.003160533 -0.00092323124
000030 6e f1 70 bd 1f 95 56 bd a0 f5 64 bd 70 15 52 3c
       -0.058823995 -0.052388307 -0.05589831 0.012822494
000040 74 e1 66 bc 5e cf e4 ba cf c1 cc bb 85 4d a5 3c
       -0.014091838 -0.001745682 -0.0062486897 0.020178566
000050 1a 34 93 b9 9a 0f ee 3c a2 99 94 3c 4f ec cf b6
       -0.00028076844 0.029060174 0.018139664 -6.1965907e-06
000060 36 fa 79 bb eb 31 38 bc e7 57 43 bb 07 d7 86 b9
       -0.0038143522 -0.01124237 -0.0029807033 -0.0002571868
000070 04 07 4e bc f7 ba 56 b4 ba 0a ac bc e5 fd cd b9
       -0.012574915 -1.999832e-07 -0.021001209 -0.00039289813

features.Conv2D_4.weight f4 [32, 32, 3, 3]
000000 7f 6a 85 bb 90 3c 03 bc c9 28 e6 bb 10 e5 24 39
       -0.004071533 -0.008010045 -0.007023905 0.00015725591
000010 ea 4c 43 bc cb 46 c8 bb 53 1b c6 bb 1c ea 94 3c
       -0.011920193 -0.006111955 -0.006045738 0.018178038
000020 5e 9b 2a 3c 1f 4a 87 bc 2a 0e 2f bd 1f 7e 99 bc
       0.010413019 -0.016514836 -0.042738117 -0.018736897
000030 97 94 aa 3c b0 a3 fb 3b 60 50 6c 3d 91 16 2f 3c
       0.020822806 0.007679425 0.05769384 0.010686533
000040 5a f4 eb bc 50 64 34 3b ce ad 44 3d d2 53 fc 3c
       -0.02880304 0.0027525611 0.048017316 0.030801687
000050 82 38 d9 bc e9 0b 63 3b ab d8 cc bb 77 96 d1 bc
       -0.026516203 0.003464455 -0.006251415 -0.025584443
000060 26 3e 9e bc b7 2b 2b bc 61 31 9d bb 7e b0 f3 3c
       -0.019316744 -0.010447434 -0.004797146 0.029747244
000070 96 02 cf ba 86 36 8d 3a 20 ba 4d 3a 69 73 64 bc
       -0.0015793617 0.0010773696 0.0007847864 -0.013943532
000080 fa b5 35 3c 4d cd 04 3d 9b 3a a1 3a 12 1d fb 3c
       0.01109075 0.032422353 0.0012300791 0.03065351
000090 d0 1a 38 36 91 d2 51 b5 ab a1 7b b5 99 97 17 36
       2.7433744e-06 -7.816498e-07 -9.3740044e-07 2.2588995e-06
0000a0 54 f4 9e b5 36 5b 25 b5 55 95 d4 36 5a 6f 3d 36
       -1.1843026e-06 -6.160002e-07 6.335477e-06 2.822801e-06
0000b0 92 f6 73 36 a3 1a c5 3c c8 0b d9 3c 5a d2 a2 3d
       3.6353345e-06 0.024060553 0.026494876 0.079502776
0000c0 73 8b 10 3d 49 9b 75 3b c8 e8 85 3d 84 9f 87 3c
       0.03528924 0.003747659 0.0653854 0.016555555
0000d0 69 a2 ea 3c c6 0f 54 3c 99 bd e9 b7 a5 06 61 37
       0.028641896 0.012943214 -2.7864053e-05 1.3412592e-05
0000e0 d8 20 8b b8 77 6b cb 39 a4 19 f8 39 81 be a4 39
       -6.634154e-05 0.00038799245 0.0004732135 0.00031422454
0000f0 06 68 d7 36 00 f4 3d 38 8e 7d 57 b8 0d 55 a9 bc
       6.4196092e-06 4.5288354e-05 -5.1376926e-05 -0.020670438
000100 4e dc 3d bc 67 b9 90 39 5e 26 c8 3c 6f f3 08 3d
       -0.011588169 0.00027603956 0.024432357 0.03343528
000110 bf ab 18 3d 5e 72 6b 3c 68 5b e0 3b 1f 1e 38 3b
       0.037273165 0.014370529 0.006846834 0.0028094125
000120 82 c8 08 bd e9 7e 08 3d d8 e0 ba bc bb d2 42 bd
       -0.033394344 0.033324156 -0.022812292 -0.04756425
000130 50 dc bc 3c 84 a7 a6 3a 97 c2 d5 bc d3 8c bc 3c
       0.023054272 0.0012714718 -0.026093764 0.023016369
000140 1c 19 1b bc 87 95 56 bc 4d 30 78 bc cc a7 f3 3c
       -0.009466436 -0.0130971735 -0.015148235 0.029743098
000150 7e 1e 32 bd 6c 06 19 bd e0 ef a5 3b 68 00 11 bd
       -0.04348611 -0.03735964 0.0050639957 -0.035400778
000160 6a 6b 89 bd 2e b2 32 bd 71 86 32 bc 03 d5 a9 3c
       -0.06709941 -0.043626957 -0.010896311 0.020731455
000170 e8 a2 45 3c 9d 55 c3 bc 61 b0 ad bb 7b 3f 39 bc
       0.012062766 -0.023844535 -0.005300567 -0.011306639
000180 e6 81 af bc 07 37 c4 ba f4 c6 23 bd a0 b5 40 36
       -0.021424245 -0.0014970013 -0.03998466 2.871595e-06
000190 55 49 94 b5 49 d5 d5 b5 eb 61 0a 36 04 c5 69 35
       -1.1048202e-06 -1.5931811e-06 2.0620598e-06 8.708596e-07
0001a0 de 2b 70 35 77 e6 87 37 2e 13 9f 37 8a 99 99 37
       8.94708e-07 1.6200573e-05 1.8963208e-05 1.8310518e-05
0001b0 fe c6 ee ba 16 82 c0 bc 0c 6a df bc c4 15 a9 bd
       -0.0018217263 -0.02349953 -0.027272247 -0.082561046
0001c0 5c 18 b7 bd b9 ea a2 bd 99 4c 95 bd e8 44 78 bd
       -0.08940193 -0.07954926 -0.072900005 -0.06061259
0001d0 58 21 c8 bc 07 4c 65 3d 4c ac 0e 3d c0 b4 04 3d
       -0.024429962 0.05598071 0.034832284 0.03239894
0001e0 dd c6 21 3d 27 c3 81 3b d9 02 62 3c d0 2f 44 bd
       0.03949629 0.0039600316 0.013794624 -0.04789716
0001f0 92 0d 50 bd 7d b3 0d bd 77 2b 15 3d ca 0a 2a bc
       -0.05079419 -0.034595 0.036418404 -0.010378549
000200 cc 52 30 3d 54 81 2a 3d 9f a5 b9 3c 2f a7 44 3d
       0.04304771 0.041627243 0.022661982 0.048011
000210 d8 4b c9 3c e7 6e 03 3d f1 1d 5e 3b 0b 5d 00 bd
       0.024572298 0.032088187 0.0033892358 -0.031338733
000220 9e a8 92 bc 7d 33 52 bc eb eb b6 3c 9d 38 ca 3b
       -0.017902669 -0.012829659 0.022329291 0.0061712996
000230 69 05 e4 ba 72 12 c5 3b 20 02 9a 3a 87 ca b8 bc
       -0.0017396632 0.0060141617 0.0011749901 -0.02255751
000240 b3 db 60 bd 00 63 11 bd 6a 35 6b bd 6f 40 a0 bb
       -0.05489702 -0.035494804 -0.057423986 -0.0048904936
000250 c8 5e e4 bc 94 a0 18 bd 0e 03 14 bc 84 d7 9b 3c
       -0.027877226 -0.037262514 -0.009033931 0.019023664
000260 8d 75 96 3c f5 fb 56 bb 46 a0 f5 3b d0 f6 1f bc
       0.0183666 -0.0032803987 0.0074959127 -0.0097634345
000270 08 64 a2 3c a9 8b 49 bc 85 41 52 bc fb e0 8b 3b
       0.01982309 -0.012301364 -0.012833004 0.004268763
000280 b8 f9 5c bc 09 50 29 bc 08 10 46 38 8a 82 ee 35
       -0.013487272 -0.010334023 4.722181e-05 1.7770374e-06
000290 09 9d a8 b7 11 a7 9a 38 fb c5 21 38 0f 65 87 37
       -2.0100286e-05 7.374411e-05 3.8569775e-05 1.6140313e-05
0002a0 71 0e 05 39 38 53 bd 38 f0 37 b9 38 21 fd 0c 3d
       0.00012689248 9.027723e-05 8.8319066e-05 0.03442109
0002b0 cd 4d 2f 3d 95 43 ce 3c 4c bb 66 bc 66 ef 39 3c
       0.042798806 0.02517871 -0.014082741 0.011348581
0002c0 91 a3 af bc 7d 43 7d bd 38 8d 80 bd 67 8e 7a bd
       -0.0214403 -0.06183194 -0.06276935 -0.06117096
0002d0 9a 33 f2 35 93 f2 c4 35 6e 6e dc 35 6a bd 4d 36
       1.8045423e-06 1.4673736e-06 1.6423417e-06 3.0657634e-06
0002e0 a2 d3 74 34 7a 2c 5b 35 f0 14 f3 36 09 6e bc 36
       2.2801262e-07 8.164858e-07 7.244402e-06 5.6156464e-06
0002f0 34 46 c4 36 19 ee 1f bd dd b1 9f bb c2 1f 44 3b
       5.849428e-06 -0.039045427 -0.004873498 0.0029926156
000300 bd bf d8 bd 30 ae 8b bd ca c5 da bd 58 7a cd bd
       -0.10583446 -0.06820333 -0.106822565 -0.10033101
000310 ac 86 34 bd af 47 c8 bd d0 91 3e bd c8 c0 37 bc
       -0.044073746 -0.097792976 -0.046525776 -0.011215396
000320 4b 41 69 3c e0 11 13 bc 73 e6 3b 3d 5a 7b 00 3d
       0.014236758 -0.00897643 0.04587407 0.031367637
000330 bb 3f 2a bd 24 50 0e 3c 58 5a 7f bc 68 d6 ee 31
       -0.041564684 0.008686099 -0.0155855045 6.951087e-09
000340 e2 c2 97 33 dc df 6d 33 d4 5d 24 b2 a8 d6 f8 32
       7.0669344e-08 5.538446e-08 -9.56739e-09 2.8968614e-08
000350 7f 0c 06 33 74 c8 33 34 b6 b4 96 34 18 0f 85 34
       3.121067e-08 1.6743599e-07 2.8071162e-07 2.4784163e-07
000360 e1 56 56 37 fc c4 95 b6 12 4f 37 b6 54 7a 8e 37
       1.2775622e-05 -4.463478e-06 -2.731515e-06 1.6984683e-05
000370 e4 ec 20 36 2d fc 51 36 fd bc 88 38 c9 3e 6e 38
       2.3979746e-06 3.1290213e-06 6.520187e-05 5.6802095e-05
000380 3e dc 75 38 ba fe 87 3b 3e 98 6b 39 34 3f 85 bc
       5.861767e-05 0.004150239 0.00022468061 -0.01626549
000390 ff ae c3 3b 61 01 7f bc 6b e4 d4 bc ee fb da bc
       0.005971789 -0.015564294 -0.025987824 -0.026731458
0003a0 42 35 93 bc 51 28 63 bc bf f4 02 39 fe d6 33 38
       -0.017969731 -0.013864593 0.00012488941 4.2877153e-05
0003b0 c0 ce 82 38 02 f0 53 38 60 ca 8c 37 d1 af 93 37
       6.237393e-05 5.0529845e-05 1.6783539e-05 1.7605636e-05
0003c0 63 16 77 38 e4 55 15 38 1a c5 1b 38 6a 20 2a 35
       5.891024e-05 3.560436e-05 3.7138445e-05 6.3377104e-07
0003d0 6c 6d 93 35 dc 1f 1d 35 a4 0f 86 35 b0 82 9f 34
       1.09842e-06 5.853342e-07 9.98833e-07 2.9711146e-07
0003e0 bb 5e 9c 34 4f fc 9b 36 46 91 c5 36 86 11 f8 36
       2.912619e-07 4.6487326e-06 5.8879696e-06 7.393016e-06
0003f0 4e b2 15 b9 a6 5d fc b9 09 5a e0 b9 f8 55 1c ba
       -0.00014276171 -0.0004813496 -0.0004279169 -0.0005963738

features.Conv2D_4.bias f4 [32]
000000 77 07 69 3d 3d 65 7d bb 29 dd 12 bd b4 f6 ee b7
       0.056891885 -0.003866508 -0.035855446 -2.8486691e-05
000010 d4 91 cc 3c 9c 98 68 b9 26 ee 09 3d e9 80 24 bc
       0.02497188 -0.00022182096 0.03367438 -0.0100405
000020 a6 35 3d 3b 01 de 57 3c b2 43 a0 3c da e2 b9 bc
       0.0028871088 0.013175488 0.01956353 -0.022691179
000030 e6 d1 3c b9 12 29 58 3b e4 cb 10 bd 78 28 22 3c
       -0.0001800727 0.0032983464 -0.035350695 0.009897344
000040 5c 4b ab 3c 8c 98 31 3d c0 22 29 3a 26 0b 69 bd
       0.020909958 0.04335837 0.00064520165 -0.056895398
000050 93 24 fa b3 54 ca 13 3c 91 a1 11 3b e1 fd 46 bd
       -1.1648185e-07 0.009020407 0.0022221545 -0.04858196
000060 61 e3 0e ba c0 f0 65 3c ec fa 0a bd 90 f5 82 3c
       -0.0005450752 0.01403445 -0.033930704 0.015986234
000070 49 1c bb 3c 4c 3a da bc ed b1 1d 3c 53 cc 8d bc
       0.022840636 -0.026639126 0.00962494 -0.017309343

features.Conv2D_6.weight f4 [32, 32, 3, 3]
000000 71 58 dc 30 11 a8 94 30 5a 6b 28 30 9c e6 ff 30
       1.6032243e-09 1.0816185e-09 6.12706e-10 1.8619235e-09
000010 a2 ee 3c 30 b5 ce 1c 31 42 75 d3 30 a5 87 0e 31
       6.873312e-10 2.2818487e-09 1.5385597e-09 2.0740825e-09
000020 72 65 03 31 71 1e 71 ab 82 89 f1 aa 83 fb 51 ab
       1.9120674e-09 -8.5662646e-13 -4.2905615e-13 -7.460076e-13
000030 49 02 96 aa d6 a7 88 ab f9 ae da ab 10 a6 8f aa
       -2.6646938e-13 -9.709965e-13 -1.5538396e-12 -2.5517132e-13
000040 21 e7 41 ab 65 ae 8a ab c5 70 d1 af 14 8a e4 af
       -6.888813e-13 -9.853894e-13 -3.8097006e-10 -4.157107e-10
000050 da 69 71 af 6e be 0b af 16 14 3c b0 59 21 3a b0
       -2.1956428e-10 -1.270963e-10 -6.8422545e-10 -6.7713796e-10
000060 e0 50 c6 af ac a5 f5 af 7b 45 c5 b0 c0 3d 5d a3
       -3.6073455e-10 -4.4682957e-10 -1.4353384e-09 -1.199351e-17
000070 38 04 2f a8 c8 bf af a7 d8 79 83 a6 24 c1 32 27
       -9.715366e-15 -4.8780187e-15 -9.122977e-16 2.4807164e-15
000080 9c 44 1f a7 fe cc c3 27 09 fd 20 28 35 68 a9 a7
       -2.2102876e-15 5.4345625e-15 8.9366525e-15 -4.7019904e-15
000090 00 77 fe 2b a9 c1 05 b0 f1 e5 a0 2f 08 70 67 b0
       1.8080815e-12 -4.8660326e-10 2.9267214e-10 -8.4196516e-10
0000a0 98 69 75 2f 28 88 c0 2f 16 42 b8 b0 8f 72 9c 2f
       2.2320135e-10 3.502134e-10 -1.3406545e-09 2.8457633e-10
0000b0 c5 4f da af c2 6b 26 a9 b7 ad 17 a9 43 2a d6 a8
       -3.971065e-10 -3.695287e-14 -3.367941e-14 -2.37771e-14
0000c0 d7 56 3f a9 52 9e 62 a9 da 47 16 a9 6e 2e 33 a9
       -4.248584e-14 -5.0319402e-14 -3.3369012e-14 -3.9786256e-14
0000d0 cc 63 a4 a9 bd 4b 09 a9 7c ff 59 30 e4 0a 7e 30
       -7.300375e-14 -3.0485803e-14 7.9307205e-10 9.242014e-10
0000e0 82 bc 86 30 89 c9 fb 30 55 97 0c 31 79 09 dd 30
       9.80336e-10 1.8319933e-09 2.0458704e-09 1.6082559e-09
0000f0 86 b8 5d 30 44 2d 72 30 76 fe 45 30 92 64 9e b0
       8.0661555e-10 8.8103413e-10 7.2029793e-10 -1.1524597e-09
000100 f4 09 36 b0 cc fa 4d ae 1c 97 e9 ae 64 24 a0 2e
       -6.622536e-10 -4.6834356e-11 -1.0622456e-10 7.282422e-11
000110 e1 24 24 30 fa ab 28 30 94 19 ca 2f 80 21 2c 2f
       5.971526e-10 6.136244e-10 3.676176e-10 1.565521e-10
000120 20 54 24 2d fa 97 27 af 1a b8 a6 ae 5e 5c 7d af
       9.341e-12 -1.5242554e-10 -7.581509e-11 -2.3043031e-10
000130 4c a6 a9 af 68 64 c4 2f 0c 2c e6 2e f5 68 eb 2e
       -3.0859082e-10 3.5723535e-10 1.04670134e-10 1.0705207e-10
000140 c0 34 ee 2d 0b 40 49 b0 09 4c ed af af c0 04 b0
       2.7080893e-11 -7.3214385e-10 -4.3164075e-10 -4.829514e-10
000150 14 b0 1f ae b2 2f cf 2f d2 3f 19 ad 24 f3 22 2f
       -3.6308803e-11 3.768697e-10 -8.711214e-12 1.4820195e-10
000160 4d f5 11 30 e0 04 80 2b 09 01 76 2f 31 fe ce 2f
       5.3099286e-10 9.0963e-13 2.2373937e-10 3.7651796e-10
000170 83 6c c3 2f d9 fd 30 af 84 b2 ac 2f fd 31 24 30
       3.5547396e-10 -1.6097292e-10 3.141346e-10 5.973389e-10
000180 b8 10 3e af 93 f0 bc ae d6 02 ab 2f 05 25 f6 30
       -1.7286339e-10 -8.591985e-11 3.1106734e-10 1.7909377e-09
000190 ed 2b e5 af dc 86 42 af 92 90 2f af 42 86 7f b0
       -4.1686068e-10 -1.7692109e-10 -1.5967519e-10 -9.295925e-10
0001a0 30 b9 ac b0 df 33 32 30 4a f7 bf 2f 0b c8 78 b0
       -1.256728e-09 6.4829736e-10 3.4918407e-10 -9.050615e-10
0001b0 19 e6 37 a9 70 74 84 a9 75 8d 17 a7 5d 8f 7a 29
       -4.083374e-14 -5.882176e-14 -2.1032144e-15 5.56355e-14
0001c0 92 5b cc a9 66 5a a7 a9 52 c8 99 29 27 8e 76 29
       -9.075305e-14 -7.4319714e-14 6.829315e-14 5.474627e-14
0001d0 a6 41 c6 29 31 94 b8 af 49 46 7b af 2a 37 24 b0
       8.8043545e-14 -3.35747e-10 -2.2853287e-10 -5.9741245e-10
0001e0 e2 9f 00 31 19 90 97 ae 26 bd 15 30 89 b5 b9 2f
       1.8717334e-09 -6.892282e-11 5.447468e-10 3.3780292e-10
0001f0 65 53 8a af 6c 3e d0 30 d4 f6 8b 2f b6 e0 c2 2f
       -2.516131e-10 1.5151733e-09 2.5459335e-10 3.544806e-10
000200 20 d0 f0 b0 d2 56 27 b1 58 c7 2e b1 78 69 a8 b0
       -1.7521451e-09 -2.435105e-09 -2.5433646e-09 -1.2253585e-09
000210 a7 06 29 31 6c 86 0f 31 38 fd 48 30 3c f3 fd 2f
       2.4596518e-09 2.0885649e-09 7.311942e-10 4.619326e-10
000220 f9 bd 0f 30 68 12 c0 2f a2 25 3b 30 a0 82 01 30
       5.2293064e-10 3.4937675e-10 6.8083683e-10 4.7115556e-10
000230 4d e8 2d 30 a1 fe ab 30 68 5c b5 30 d6 91 53 2f
       6.326715e-10 1.2514257e-09 1.3195747e-09 1.924215e-10
000240 cb 13 a7 b0 05 62 81 b0 ee be e8 2f 2e d9 a9 b0
       -1.2156475e-09 -9.413844e-10 4.2336218e-10 -1.2358095e-09
000250 77 59 d0 b0 ac 04 ae ae 6c b0 b0 2c ba e4 a2 b0
       -1.5159419e-09 -7.913434e-11 5.0218076e-12 -1.1852059e-09
000260 b1 70 4c b0 f0 c9 bc 30 a2 8b 0f 31 51 1e 23 31
       -7.437491e-10 1.3736194e-09 2.088861e-09 2.3736855e-09
000270 a2 72 cc 30 ed 1c 30 31 ac b0 2c 31 ce 60 a4 2f
       1.4875534e-09 2.5627813e-09 2.512972e-09 2.990021e-10
000280 44 53 4b 30 57 ab 61 30 ed ba ab 2a 58 9a 41 a9
       7.39693e-10 8.209801e-10 3.0505408e-13 -4.298848e-14
000290 bf ba f6 aa ea b1 2a ab a8 e5 58 2a 22 4c 01 aa
       -4.382796e-13 -6.064304e-13 1.9264332e-13 -1.1483915e-13
0002a0 20 98 0c ab 96 14 d1 2a b9 2c ce 2a ea a5 8b ad
       -4.994911e-13 3.7140142e-13 3.6623983e-13 -1.5876151e-11
0002b0 13 7d 8b ad 48 3f f2 ac 8b a0 1d ae 9b ed f9 2c
       -1.5858015e-11 -6.8850793e-12 -3.5840258e-11 7.103385e-12
0002c0 42 60 b1 ac 50 37 bd ad 56 db 38 ae eb 56 54 2e
       -5.0413293e-12 -2.1511376e-11 -4.2031566e-11 4.8280418e-11
0002d0 84 1e 90 22 30 ae ac 21 be 35 1d 23 6d 2a b7 a3
       3.9063588e-18 1.170128e-18 8.522367e-18 -1.9858868e-17
0002e0 15 1d 82 a4 08 8b 22 a2 46 a9 74 22 fc 07 8f 23
       -5.642778e-17 -2.2028697e-18 3.3157779e-18 1.5507473e-17
0002f0 13 c2 8e 24 82 f6 54 2f 79 d9 d5 2f 88 c1 f6 2f
       6.191146e-17 1.9368865e-10 3.8898998e-10 4.4884652e-10
000300 7d 9e b9 30 cb f9 b0 30 e1 20 f0 2f fa b3 0e 30
       1.3505567e-09 1.2876681e-09 4.3679108e-10 5.191506e-10
000310 bf be 87 30 0c c3 f3 2f 9d 35 a2 2f 1d 87 87 30
       9.876756e-10 4.4340032e-10 2.9505723e-10 9.860944e-10
000320 46 26 fe 2f fb 97 11 b0 68 ad c0 2f 40 fb f5 2f
       4.6229526e-10 -5.296667e-10 3.504781e-10 4.4743764e-10
000330 75 ea ab 2f b6 c3 37 30 da 6c 0e 30 e1 b2 fd b0
       3.127131e-10 6.6853134e-10 5.1813986e-10 -1.8459013e-09
000340 68 8e 73 30 c9 87 91 31 01 4b 85 b0 c6 8d d8 b0
       8.8605256e-10 4.2354924e-09 -9.698341e-10 -1.5756363e-09
000350 d1 7b 87 b1 12 cf 6f 30 aa bf 12 31 22 d2 15 b1
       -3.9430934e-09 8.724196e-10 2.1354745e-09 -2.18018e-09
000360 29 a8 d3 a9 25 6c 9b a9 cf af 6f a9 17 c5 c3 a9
       -9.3994535e-14 -6.902143e-14 -5.322115e-14 -8.693929e-14
000370 42 31 f1 a9 6a 8d af a9 91 30 83 a9 e6 41 8c a9
       -1.0711095e-13 -7.7960926e-14 -5.8259936e-14 -6.2286805e-14
000380 3c 89 76 a9 3e e2 e8 af c6 23 2f b0 a0 d1 36 af
       -5.4742005e-14 -4.236131e-10 -6.3715466e-10 -1.6627277e-10
000390 7a 0b 71 2e 3a 92 4a af 48 76 ba 2e a5 fd 16 30
       5.480725e-11 -1.8423743e-10 8.479312e-11 5.493013e-10
0003a0 42 a6 ec ae d3 d3 d2 2e a8 b2 15 ae c0 db e9 ad
       -1.0761571e-10 9.587322e-11 -3.4037356e-11 -2.6586622e-11
0003b0 b0 50 e4 2d c6 1b 8c ad 80 7a 47 29 a7 2c 3a 2e
       2.5956431e-11 -1.5928491e-11 4.4293128e-14 4.2331163e-11
0003c0 94 d8 1a 2d c8 88 09 ad 4a a3 04 ad 2a 30 d7 ae
       8.8019765e-12 -7.81792e-12 -7.539589e-12 -9.785624e-11
0003d0 28 5e dc ae ff 1a 4c 2f 81 7a d8 af 50 ae 94 31
       -1.0021167e-10 1.8563283e-10 -3.9377215e-10 4.327184e-09
0003e0 69 55 29 30 6c 7b 84 31 ab 61 b3 30 43 ed 63 30
       6.1603217e-10 3.855737e-09 1.3051723e-09 8.291929e-10
0003f0 ba 21 a5 30 f3 d0 09 31 1e 47 b7 30 a1 cc 47 b0
       1.2014916e-09 2.0054898e-09 1.3335215e-09 -7.2686573e-10

features.Conv2D_6.bias f4 [32]
000000 5d 63 76 b2 c6 7f 41 3b 7f 86 de bb 76 e3 a6 3c
       -1.4341677e-08 0.0029525622 -0.0067909355 0.020372134
000010 cf 28 16 3c a5 c8 a0 3b ce 71 5a b5 c5 88 2e 3d
       0.009165003 0.004906731 -8.1376936e-07 0.042610902
000020 0a 41 b2 b9 c4 a2 93 bb 9b 8a e9 3c da 0f 26 3d
       -0.00033999264 -0.004505487 0.028508475 0.04054246
000030 84 b6 7b b7 6a 62 bb ba 93 29 f0 bb 23 b9 76 3c
       -1.5003261e-05 -0.0014296297 -0.007329175 0.0150587885
000040 ca 5c d3 3c 44 97 c5 3b 8b cd 28 3d 11 7b c7 bc
       0.025801081 0.006029995 0.041211646 -0.024350675
000050 8e 5f c7 b8 fe 7e 55 bb 28 71 eb 3c 49 09 51 3c
       -9.506858e-05 -0.0032576914 0.02874048 0.012758561
000060 36 38 13 b9 86 ec e3 b3 12 98 c9 3c 0c e0 4c bb
       -0.00014039953 -1.06135346e-07 0.024608646 -0.0031261472
000070 79 04 b0 3c bd 6d b9 ba c3 83 4e ba 68 af 34 3c
       0.021486508 -0.0014147084 -0.00078779104 0.011028148

features.Conv2D_7.weight f4 [32, 32, 3, 3]
000000 86 66 a6 af 99 c6 ee b0 8f dd ac b0 7a 4b 87 2f
       -3.026807e-10 -1.7373224e-09 -1.2577618e-09 2.4609986e-10
000010 a2 97 14 b0 5f e8 2c b0 7a 9e 59 30 cf e7 15 31
       -5.405757e-10 -6.2903455e-10 7.916935e-10 2.1814122e-09
000020 6a f0 1f 30 d8 9e 40 3d 18 2c 56 3d 1f e1 ad 3c
       5.818551e-10 0.047026485 0.052288145 0.02122551
000030 b7 8b 59 3c 07 31 58 3b 07 ea 47 bc fe 7d 94 3d
       0.0132779395 0.0032988207 -0.012201793 0.072505936
000040 26 1c 7b 3d ec db 7a 3d 4b 25 38 39 ae b3 33 38
       0.06130614 0.06124489 0.000175615 4.2844265e-05
000050 86 b6 51 39 c9 5d 0d 39 17 f5 b9 35 77 02 4b 39
       0.00019999788 0.00013481746 1.3854905e-06 0.00019360507
000060 f6 0a 24 39 08 2c 66 38 ce 3d 5e 39 9c 0e 11 3d
       0.00015644342 5.487728e-05 0.00021194594 0.035414323
000070 e6 aa 9c bb 69 71 04 3d a9 06 c6 bc 96 bf aa 3c
       -0.004781115 0.03233472 -0.024173098 0.020843308
000080 38 47 82 bc 23 62 3f 3c 26 86 aa bc f2 3e a4 bb
       -0.0159031 0.011681112 -0.02081592 -0.0050123865
000090 23 d2 2d bd bd 2a 0d bc d4 f1 68 3d ef b1 a9 bc
       -0.04243673 -0.008616147 0.05687125 -0.020714728
0000a0 8f 03 ba bc bf 5d 86 bc fc d3 20 3d 80 31 48 3c
       -0.022706775 -0.016402123 0.039264664 0.012218833
0000b0 98 4a b5 3b 71 68 38 3c 82 bf 41 3d ae 5b e8 bc
       0.005532574 0.0112553695 0.047301777 -0.028364029
0000c0 80 c4 fb bc 79 1e 0a 3c 93 6a bc bb 5a d1 3a 3d
       -0.030733347 0.008430117 -0.0057500093 0.04560981
0000d0 12 34 23 3d ff db 3f 3d e8 3e f3 30 c8 1a 94 b2
       0.03984458 0.046840664 1.7698456e-09 -1.7241646e-08
0000e0 b6 9d bc 32 64 9b 16 33 c1 05 49 32 cf ca 72 b3
       2.19578e-08 3.5065923e-08 1.1701048e-08 -5.652947e-08
0000f0 7c e7 70 33 81 f6 dd 33 1a db b2 33 82 a9 89 3d
       5.608989e-08 1.0335953e-07 8.328625e-08 0.06721784
000100 89 1a 94 3d a9 a6 58 3d 4b 10 36 3b a7 8b 11 3d
       0.07231624 0.052893315 0.0027780707 0.035533573
000110 59 e0 3b 3d d1 98 cc bb 6f b3 19 bd 03 98 30 bd
       0.04586825 -0.006243803 -0.037524637 -0.04311372
000120 c3 87 97 37 ed 36 c6 35 3c 3f 84 37 5d 7c b6 37
       1.8063822e-05 1.4768135e-06 1.5765072e-05 2.1754002e-05
000130 53 1c 18 b5 e5 86 a3 37 70 1f 51 37 f6 e3 e3 35
       -5.666563e-07 1.949393e-05 1.246469e-05 1.6979163e-06
000140 9b 12 45 37 35 62 9e 38 2a 95 83 38 00 32 0b 39
       1.1746447e-05 7.5523196e-05 6.274351e-05 0.000132747
000150 a8 e9 34 38 5c 00 e4 37 39 33 04 39 1c 18 0f 38
       4.3132954e-05 2.7179885e-05 0.00012607583 3.411631e-05
000160 aa 20 bf 37 22 85 e9 38 ac 88 f6 bc e7 6e 5d 3d
       2.2784185e-05 0.00011135104 -0.030094467 0.054060843
000170 c1 75 52 3c 06 86 64 bb f8 3d 90 3b c6 51 1f 3c
       0.0128454575 -0.0034869923 0.0044019185 0.009724086
000180 ec 55 90 3d e3 35 87 3c d1 8d ec 3c 0a 11 25 bc
       0.07047638 0.016505187 0.028876217 -0.010074863
000190 c7 2b 99 bc ac 18 04 bd bf e3 20 3c 60 03 07 bc
       -0.018697632 -0.03225009 0.009819924 -0.008240551
0001a0 b6 bf 8a bc 3e 22 47 bc f7 d9 02 3c 0a e4 1a 3c
       -0.016937118 -0.01215416 0.007986537 0.009453783
0001b0 fa 21 24 35 5c 28 0e 34 3d 02 08 35 38 9a 1d 35
       6.1144203e-07 1.3239463e-07 5.0667205e-07 5.8711476e-07
0001c0 5c 72 bd b2 cc 7f fb 34 b5 1e e9 34 96 41 ca 33
       -2.20545e-08 4.6845378e-07 4.3421974e-07 9.418288e-08
0001d0 fe 61 fe 34 be 6c 9c 38 1a a3 20 b7 a2 13 a5 38
       4.7382485e-07 7.4589145e-05 -9.574718e-06 7.87147e-05
0001e0 69 ee 81 38 74 ed d0 b6 16 e4 60 b8 96 9b 40 38
       6.195607e-05 -6.2265262e-06 -5.3618183e-05 4.5921268e-05
0001f0 bb ed 04 39 13 4c 19 39 21 72 c9 39 72 5c 89 38
       0.00012677062 0.00014619557 0.0003842274 6.549888e-05
000200 e2 78 91 39 65 78 c8 39 f5 82 f7 b6 63 e7 96 39
       0.0002774662 0.00038236674 -7.376419e-06 0.00028782626
000210 59 3d 51 39 72 b4 82 38 2a 42 70 39 f6 8c 18 3c
       0.00019954647 6.2324936e-05 0.00022912832 0.009310951
000220 ae 5f db 3c 1b 49 9f bc f1 96 d3 3c 43 8a 45 3c
       0.026779022 -0.01944404 0.02582881 0.01205689
000230 a1 29 4a bb ec bb 96 bc 80 c1 ad bc c7 ee 0d 3d
       -0.0030847567 -0.018400155 -0.021210432 0.034651544
000240 2f b1 06 3d ac 86 3d 3d cd 36 9d 3c bd a5 08 bd
       0.03288382 0.04627101 0.01919117 -0.033361185
000250 95 56 5e bd 37 e7 c6 3c 02 26 50 bc f2 7e ff bc
       -0.05428179 0.024280174 -0.012704374 -0.031188462
000260 64 b0 18 3c 1a da 00 3d fd 81 04 bd 64 c9 22 bd
       0.009319399 0.031457998 -0.03235053 -0.039742842
000270 15 16 ab bc 7a fc 2e bd 28 01 0d bd 6e fa 37 bc
       -0.020884553 -0.04272125 -0.03442493 -0.011229141
000280 88 64 28 3c 69 8f 34 3c 08 53 cc 3b b2 9f 58 bc
       0.010277875 0.01102052 0.006235484 -0.013221668
000290 85 5d fa 3c 88 32 e1 bc 1d 01 0d bd 0b fc 7c bd
       0.030562172 -0.027489915 -0.03442489 -0.061763804
0002a0 8f 74 ae 3c 4c 42 a9 bc db 40 ac bc 7c c7 05 3a
       0.021295814 -0.020661496 -0.02102702 0.0005103273
0002b0 eb e8 29 39 13 81 14 3a 5c 4c 50 39 9a 22 8d b9
       0.00016203865 0.00056649855 0.00019864872 -0.00026919396
0002c0 a5 0a 65 39 12 f0 a8 b8 80 00 5e ba ce 75 d3 37
       0.00021843107 -8.055581e-05 -0.00084687024 2.5208017e-05
0002d0 d1 19 e4 36 b4 e7 f2 34 ab 14 6a 36 45 48 ab 36
       6.797935e-06 4.52446e-07 3.4880748e-06 5.1046104e-06
0002e0 25 cf 02 36 84 c7 8f 36 f0 0d 66 36 0a 75 da 35
       1.9492084e-06 4.284959e-06 3.4280783e-06 1.6276329e-06
0002f0 bd 38 53 36 03 d6 f3 38 c1 aa c0 37 52 1d b5 38
       3.1474476e-06 0.00011627006 2.2967697e-05 8.636214e-05
000300 01 95 d1 38 db 86 20 35 ab 87 c3 38 16 58 b9 38
       9.993651e-05 5.9800885e-07 9.323595e-05 8.837895e-05
000310 4a c7 8a 37 1a 2a 03 39 9b 26 fb bc fb f7 85 bc
       1.6543683e-05 0.00012508818 -0.030658057 -0.016353598
000320 90 6d f1 bc 84 b7 34 bd 5c ed f1 bc 06 78 af 3b
       -0.029471189 -0.044120327 -0.029532127 0.005354884
000330 23 80 33 3c fe d8 ac 3c 6e 9c 31 bc 7f 4c c2 3b
       0.010955843 0.021099564 -0.010840518 0.005929529
000340 07 5c e0 bb ec 6f 6a bc 91 29 24 3d 70 a9 1c 3d
       -0.006846908 -0.014308911 0.040078703 0.038247526
000350 e9 2c 2f 3c 2b 64 31 3b 00 cd aa 3b 2e f8 32 3c
       0.01069186 0.0027067761 0.005212426 0.010923428
000360 c1 e3 ae 36 e6 29 c9 35 69 b6 a5 36 62 f9 8d 36
       5.212118e-06 1.4987861e-06 4.9386185e-06 4.2311594e-06
000370 af 82 c1 b2 05 4f ad 36 5c 21 5f 36 0c 98 c0 35
       -2.2527585e-08 5.165001e-06 3.3249007e-06 1.4349366e-06
000380 53 87 9b 36 01 06 af b1 fb 7e 4a b2 fc 05 67 b2
       4.635114e-06 -5.093853e-09 -1.17868195e-08 -1.344733e-08
000390 fa db 91 31 24 ef 12 b1 88 0d fe b1 88 d3 54 32
       4.245064e-09 -2.1381732e-09 -7.3939113e-09 1.2388121e-08
0003a0 74 07 f2 31 5e 77 92 31 fe 78 3e 3c 03 87 cc 3c
       7.0439743e-09 4.2627297e-09 0.0116255265 0.024966722
0003b0 b1 ae 4f 3d ec 86 86 3d 0f 2f 5d 3d eb 87 82 3d
       0.050703708 0.06568703 0.053999957 0.063735805
0003c0 a1 e6 3e 3d b6 85 0d 3c a5 ca ec b9 e4 bb 46 3c
       0.046606664 0.008637836 -0.0004516441 0.012129758
0003d0 d3 f5 81 3c 06 9b 21 3b a9 4e 93 3c 95 1b e9 3b
       0.015864288 0.0024659052 0.017981844 0.0071138837
0003e0 7d 02 af 3c 19 83 e0 3d 07 17 9a 3d 6a dc 41 3b
       0.021363491 0.10962505 0.07523923 0.002958084
0003f0 27 48 3a 3c cd eb df 3c db d8 ae 3c da 17 7b ba
       0.0113697415 0.027334118 0.02134364 -0.00095784443

features.Conv2D_7.bias f4 [32]
000000 4d fa 5d 3c 84 29 b1 3c 21 83 cf bb aa b5 23 bc
       0.013548446 0.021626242 -0.0063327705 -0.009992043
000010 18 8d e4 bc 42 01 f6 3c 88 aa 4d 3c 7f ee 8c bc
       -0.02789931 0.030029897 0.012552865 -0.017203568
000020 90 53 ae 3c 26 90 8f bb 34 bc e3 b7 f8 cd 03 bd
       0.02128008 -0.0043811975 -2.7148148e-05 -0.03217885
000030 a6 de 19 3d 88 75 8d 3c 32 4a 21 bc 0c a5 4f bb
       0.03756585 0.017267957 -0.00984435 -0.003168407
000040 b9 6a f6 bc 2c 7b be b1 b6 f4 35 bc b5 33 26 bd
       -0.030080186 -5.543731e-09 -0.011105707 -0.040576655
000050 35 45 80 3c 32 2e c4 ba 19 d4 f1 3c 18 d1 99 bc
       0.015658 -0.001496738 0.029520081 -0.018776461
000060 76 6b 91 3c aa 53 f8 93 c5 28 41 bd 51 d1 b2 bc
       0.017751437 -6.26865e-27 -0.04715802 -0.021828325
000070 c6 97 82 3c 27 01 18 3d 33 80 bd 3c 78 c4 1f 3d
       0.015941512 0.037110474 0.02313242 0.039005727
